CNN_model.pth (torch, 183680 bytes, 25 tensors)

conv_list.0.weight f4 [8, 3, 15, 15]
0	0xbcca3c48	-0.024686947
1	0x3cb5066d	0.02209779
2	0xbd2d2b45	-0.042277593
3	0xbd6940ae	-0.05694645
4	0xbd2e754e	-0.04259234
5	0xbc441178	-0.0119670555
6	0xbd01259a	-0.03153
7	0xbbb3cb0a	-0.0054868506
8	0xbd1639f9	-0.03667638
9	0xbced38fa	-0.028957833
10	0xbd2529a2	-0.040322907
11	0xbc7b32b7	-0.015331916
12	0xbd1c18e1	-0.038109664
13	0xbd16e59d	-0.03684007
14	0xbcd3a1e6	-0.025834035
15	0xbbf4193d	-0.0074492977
16	0x3cc6a47e	0.024248358
17	0x3c92adc2	0.01790512
18	0xbd555b87	-0.05208924
19	0xbd39d983	-0.04537345
20	0xbc0d920a	-0.008640775
21	0x3a1fc6ed	0.0006095011
22	0xbd40460e	-0.04694181
23	0xbc34dc2e	-0.011038823
24	0xbd62a456	-0.055332504
25	0xbd1bad8e	-0.03800731
26	0x3c1193de	0.008885352
27	0xbd7034d6	-0.05864414
28	0xbd4d87ff	-0.050178524
29	0xbce9bc2d	-0.028532112
30	0xbc0545e1	-0.008134336
31	0x3d474b1e	0.04865562
32	0xbd019ffb	-0.03164671
33	0xbd4d8deb	-0.05018417
34	0xbd7e0f61	-0.062026385
35	0xbd6d5366	-0.057940863
36	0xbd448428	-0.047977597
37	0xbb18ce18	-0.00233162
38	0xbcb50cbc	-0.022100799
39	0xbd066f5b	-0.03282104
40	0xbd3bcc4e	-0.045849137
41	0xbd809536	-0.0627846
42	0xbd177c0e	-0.036983542
43	0xbd99226d	-0.07477269
44	0xbd5b087a	-0.05347488
45	0xbbc34ba6	-0.0059599457
46	0x3d1e6a62	0.038675673
47	0x3c715d85	0.014731769
48	0xbd4446ad	-0.047918964
49	0xbd13ef32	-0.036116786
50	0x3c1c2e30	0.009532496
51	0x3d12ffd0	0.035888493
52	0x3c8d0073	0.017212128
53	0x3bcd778f	0.006270356
54	0x3c056b55	0.008143266
55	0xbd497bdb	-0.049190383
56	0xbce45914	-0.027874507
57	0xbd844d73	-0.06460085
58	0xbd5816bd	-0.05275606
59	0xbce97a3d	-0.02850067
60	0x3d3e4d6b	0.04646055
61	0x3d26054e	0.040532403
62	0xbc68f1eb	-0.014217834
63	0xba42b2fe	-0.00074271846
64	0x3b5d296a	0.0033746609
65	0x3c063114	0.008190412
66	0x3d52c7fa	0.051460244
67	0x3da80a15	0.08205048
68	0x3dd5e732	0.10444488
69	0x3dba86bf	0.09107732
70	0xbc486bf9	-0.012232774
71	0xbcfd531a	-0.030923415
72	0xbc582ace	-0.013193799
73	0x3c118fc5	0.008884375
74	0x3ce4d2f2	0.027932618
75	0x3d5e4193	0.054261755
76	0x3cae8501	0.021303656
77	0xbcf65be2	-0.03007311
78	0xbc238ad2	-0.009981828
79	0xbd173478	-0.036915272
80	0xbca7259d	-0.020403678
81	0x3db4fca7	0.08837252
82	0x3df664b2	0.12030925
83	0x3d8970b3	0.06710949
84	0x3d9e9456	0.077431366
85	0x3c4bc220	0.01243642
86	0xbd057ffe	-0.032592766
87	0xbd87e735	-0.06635896
88	0xbd080813	-0.033210825
89	0xbd67dd82	-0.05660773
90	0x3cd16da2	0.025564972
91	0x3cf364b2	0.029711101
92	0x3cceb8c8	0.025234595
93	0xbade6dee	-0.0016970017
94	0xbd5560c6	-0.052094243
95	0xbc61a37e	-0.01377189
96	0x3d894f9e	0.06704639
97	0x3daf2091	0.085511334
98	0x3d5755de	0.052572124
99	0x3ce25cdf	0.027632175
100	0x3d4eb77a	0.050467946
101	0x3c27e022	0.0102463085
102	0xbd57073f	-0.052497145
103	0xbd375bf9	-0.044765446
104	0xbd7722d5	-0.060335953
105	0x3c64056f	0.013917311
106	0xbc190c79	-0.009341353
107	0xbcea7d10	-0.028624088
108	0xbca2560d	-0.019816423
109	0xbc42ff60	-0.011901706
110	0xbc79b351	-0.015240506
111	0x3d2ce4f3	0.04221053
112	0x3bede55c	0.007260008
113	0x3d710bf6	0.058849297
114	0x3d03d2ca	0.032183446
115	0xbd274ccd	-0.040844727
116	0xbd10ffd9	-0.035400245
117	0xbd1a6116	-0.037690245
118	0xbd089a83	-0.03335048
119	0xbc8f2fa2	-0.017478768
120	0x3bb5268f	0.005528278
121	0xbb182c3e	-0.002321973
122	0xbd0da51e	-0.034581296
123	0xbc61599b	-0.013754274
124	0xbd9aae34	-0.07552758
125	0xbd650be8	-0.055919558
126	0xbd0d478c	-0.03449206
127	0xbd20a01b	-0.03921519
128	0xbd40c201	-0.047060017
129	0xbd9f1bfd	-0.0776901
130	0xbd823217	-0.0635721
131	0xbd81818a	-0.06323536
132	0xbdd7a860	-0.10530162
133	0xbda6226b	-0.081120335
134	0xbd1f3624	-0.038869992
135	0xbcb2035a	-0.021730114
136	0xbc40fe0a	-0.011779318
137	0xbcf10da2	-0.029425446
138	0xbd28a1ea	-0.04117004
139	0xbd12bc56	-0.035824142
140	0xbc8bbcc2	-0.01705778
141	0xbca5bded	-0.020232165
142	0xbbc3407d	-0.0059586153
143	0xbd6efcd2	-0.058346577
144	0xbdcd63a0	-0.100287676
145	0xbdb97176	-0.09054844
146	0xbd5bc0f1	-0.0536508
147	0xbda201ed	-0.079105236
148	0xbdb4c8ae	-0.08827339
149	0xbdab4561	-0.08362842
150	0xbd0777ad	-0.033073116
151	0xbcc9a1ea	-0.02461334
152	0xbc8527b2	-0.01625428
153	0xbc54a0ba	-0.012977773
154	0xbcba3480	-0.022730112
155	0xbd9ecae6	-0.077535436
156	0xbc740556	-0.01489385
157	0xbd87d402	-0.06632234
158	0xbd548776	-0.051886998
159	0xbd8f2af8	-0.069906175
160	0xbd88b709	-0.06675536
161	0xbd7c9801	-0.0616684
162	0xbd9df960	-0.0771358
163	0xbd7c3049	-0.061569486
164	0xbc8e7942	-0.017391805
165	0x3c728ea1	0.014804513
166	0x3b6b382e	0.003589164
167	0x3cab7cc8	0.020933524
168	0xbd41caa0	-0.04731238
169	0xbce46cc0	-0.027883887
170	0x3bcf89c7	0.006333563
171	0xbd280001	-0.04101563
172	0x3c3f2a86	0.011667853
173	0xbc58aaec	-0.013224345
174	0xbd9a08f6	-0.075212404
175	0xbcb43558	-0.021998093
176	0xbd3bd5d9	-0.045858238
177	0xbd3f7500	-0.04674244
178	0x3c24e330	0.010063931
179	0xbd00856e	-0.03137725
180	0x3c8c529f	0.01712924
181	0x3c4579f7	0.0120530045
182	0x3cdf2b15	0.027242223
183	0xbbe505ca	-0.0069892155
184	0xbc19a45d	-0.009377566
185	0xbb4da78b	-0.003138038
186	0xbc727dfe	-0.014800547
187	0xbc464475	-0.012101282
188	0xbd304834	-0.04303761
189	0xbbf40c4c	-0.007447755
190	0x3aecc15a	0.0018062994
191	0x3af91d53	0.0019005932
192	0xbd43fd56	-0.04784902
193	0xbc655544	-0.01399738
194	0xbcab9535	-0.02094517
195	0xbc4ce8e0	-0.012506694
196	0xbaa6ac49	-0.001271614
197	0x3c4a43dc	0.0123452805
198	0xbd317b0a	-0.04333023
199	0xbce374da	-0.02776568
200	0xbc5e5216	-0.0135693755
201	0x3cb623b2	0.022233818
202	0xbcf42f71	-0.029807778
203	0xbd17586b	-0.036949556
204	0xbd49a024	-0.049224988
205	0x3b79a604	0.0038093338
206	0xbcde7243	-0.027154094
207	0x3c984438	0.018587217
208	0x3bd0c9d7	0.0063717174
209	0x3cacad20	0.021078646
210	0x3aae125f	0.0013280621
211	0x3b7a685a	0.003820917
212	0xbbd6255d	-0.006535216
213	0xbd37294c	-0.04471712
214	0xbd27a272	-0.040926404
215	0xbce2071f	-0.027591286
216	0xbd4e5db8	-0.050382346
217	0xbd22c32a	-0.039736904
218	0xba84a58a	-0.0010120135
219	0xbd9a3edb	-0.0753152
220	0xbd318928	-0.043343693
221	0x3bbfa9d2	0.0058491016
222	0xbcb99972	-0.022656176
223	0xbd079d41	-0.033108953
224	0xbd2a223b	-0.04153655
225	0x3b80184b	0.003909146
226	0xb85d3d28	-5.2747462e-05
227	0x3be6cb23	0.0070432588
228	0xbc6356bd	-0.0138756605
229	0xbaf39306	-0.0018583245
230	0x3c8a8679	0.016909825
231	0x3d34d4c9	0.04414824
232	0x3c620be6	0.013796782
233	0x3d562cd2	0.052288838
234	0x3d19cba9	0.03754774
235	0x3afb8c80	0.0019191653
236	0x3d89730e	0.06711398
237	0x3cc7a74a	0.024371762
238	0x3c6aaa1d	0.014322785
239	0x3d1b78b3	0.037956905
240	0x3cabe91f	0.020985184
241	0x3d9336c2	0.071881786
242	0x3c9e938b	0.019357463
243	0x3c16219d	0.0091632875
244	0x3cf0c771	0.029391976
245	0xbc4fef67	-0.012691355
246	0x3d4c8a72	0.04993672
247	0xbc86c98d	-0.016453529
248	0x3caf7e37	0.021422489
249	0x3be57812	0.007002839
250	0x39a720f8	0.00031877286
251	0x3d313105	0.04325964
252	0x3d87101b	0.06594869
253	0x3c1d78fb	0.0096113635
254	0x39c9878e	0.00038438704
255	0x3c6d52c4	0.014485065

conv_list.0.bias f4 [8]
0	0x3b328455	0.002723952
1	0xbbdfcb15	-0.006829629
2	0xbb066a25	-0.0020510044
3	0x3d12d692	0.03584916
4	0xbd0b5ca7	-0.034023907
5	0x3c9f8352	0.019471798
6	0x3d849b39	0.06474919
7	0xbd8ecca2	-0.06972624

conv_list.1.weight f4 [16, 8, 7, 7]
0	0xbcd231dd	-0.025658542
1	0xbc760dd3	-0.015017944
2	0x38af53af	8.3602376e-05
3	0xbcbdea73	-0.023183083
4	0x3ace4bd6	0.0015739154
5	0xbd28ed49	-0.041241918
6	0xbcd5aee5	-0.026084373
7	0xbc974bbd	-0.018468732
8	0xbd9d930a	-0.07694061
9	0xbd548653	-0.051885914
10	0xbd98278a	-0.074294165
11	0xbb89b650	-0.0042026415
12	0xbcc3034c	-0.023805283
13	0xbd8c69d7	-0.06856125
14	0xbd2bd212	-0.041948386
15	0xbce6ac07	-0.0281582
16	0xbdb68c4c	-0.08913478
17	0xbd32586a	-0.04354135
18	0xbcc588b8	-0.024113044
19	0xbd3c12c9	-0.045916352
20	0xbd603d29	-0.054745827
21	0x3af8846f	0.0018960367
22	0xbc9d037e	-0.019166704
23	0xbdb9cc95	-0.09072224
24	0xbc8dde5f	-0.017317949
25	0xbdb73e8d	-0.089474775
26	0xbcbc2cc9	-0.022970574
27	0xbc1017b7	-0.008794717
28	0xbcac7ee9	-0.02105661
29	0xbd5d159a	-0.05397568
30	0xbd8c334a	-0.0684572
31	0xbd8a370e	-0.06748782
32	0xbd6fe12b	-0.058564346
33	0xbd8eca54	-0.06972185
34	0x3a95550a	0.0011393141
35	0xbd2c0e24	-0.042005673
36	0xbc2033bc	-0.009777959
37	0xbdaaeff7	-0.08346551
38	0xbc8d1aa5	-0.01722462
39	0xbb1c9ea4	-0.0023898268
40	0xbda8d1eb	-0.08243164
41	0xbd6b7150	-0.05748111
42	0x3b10f00a	0.002211573
43	0xbd881296	-0.0664417
44	0xbd6147b7	-0.055000033
45	0xbc3c68c0	-0.011499584
46	0x3c8100a3	0.015747374
47	0xbd46318f	-0.048387107
48	0xbceaa48d	-0.028642917
49	0xbca23399	-0.019799994
50	0xbd29c2b8	-0.041445464
51	0x3cd65e89	0.026168125
52	0x3c48d484	0.012257699
53	0xbd595a4e	-0.053064637
54	0xbd83e7c1	-0.06440688
55	0xbd4aedd6	-0.049543224
56	0x3d50e065	0.05099525
57	0xbd166f10	-0.03672701
58	0xbd07771f	-0.033072587
59	0xbcf81fed	-0.03028866
60	0xbd23235a	-0.039828636
61	0xbcd03f91	-0.025420936
62	0x3c1d94b0	0.009617969
63	0x3d3418cb	0.043968957
64	0xbcb774e8	-0.022394612
65	0x3d697d52	0.05700428
66	0x3d3bc1dc	0.045839176
67	0x3c9e61a2	0.019333664
68	0x3cc6c922	0.02426583
69	0x3c6f9ddd	0.01462504
70	0x3d9f3454	0.07773653
71	0xbc955e5b	-0.018233469
72	0xbc3180a1	-0.01083389
73	0x3c2517fc	0.010076519
74	0x3bbf8827	0.005845088
75	0xbca5580e	-0.02018359
76	0xbd1da9b2	-0.038491912
77	0xbc266e86	-0.010158187
78	0x3c567a14	0.013090629
79	0x3d5b5a37	0.053552832
80	0x3d2670ea	0.040635027
81	0x3c965004	0.018348701
82	0xbceaa869	-0.028644757
83	0xbc92b6a6	-0.01790936
84	0x3d15033f	0.03638005
85	0xbcc0d6df	-0.023539959
86	0x3beeb625	0.007284897
87	0x3c745cf4	0.01491474
88	0x3d3b5f3b	0.045745116
89	0xbc69eba0	-0.014277369
90	0x3d3d6cfd	0.046246517
91	0x3d1a6ff3	0.03770442
92	0xbc27d52e	-0.010243697
93	0x3d64f530	0.05589789
94	0x3d3e7c46	0.046505235
95	0xbd2469ec	-0.040140077
96	0xbd1381c9	-0.036012445
97	0x3c5eedac	0.01360647
98	0xbb236069	-0.002492929
99	0x3d4ff043	0.05076624
100	0x3b0d95d2	0.0021604192
101	0xb90bf833	-0.00013348534
102	0xbc6ae8c5	-0.014337723
103	0x3d1012cc	0.035174176
104	0xbcadd1ff	-0.021218298
105	0x3b464886	0.003025563
106	0x3d1d2f10	0.03837496
107	0xbc2f1cbe	-0.010688005
108	0x3c7df34f	0.015499904
109	0xbd20868f	-0.039190825
110	0xbd632f92	-0.05546529
111	0xbbde98cc	-0.006793117
112	0x3b4f6733	0.0031647205
113	0x3d12ff51	0.03588802
114	0xbd0a789c	-0.03380643
115	0xbc1544f7	-0.009110681
116	0x3a135922	0.0005620887
117	0xbb2a3fce	-0.0025977972
118	0x3ca00488	0.01953341
119	0xbd5b94cc	-0.0536087
120	0xbcf30832	-0.029666994
121	0x3c86c2ef	0.016450373
122	0xbd2523d2	-0.040317364
123	0x3c440f0e	0.01196648
124	0xbd996d5c	-0.07491562
125	0x3c17695e	0.00924143
126	0x3ca8bcc2	0.02059782
127	0xbc62dce3	-0.013846609
128	0x3d143727	0.03618541
129	0x3d816162	0.063174024
130	0x3d54cc6a	0.051952757
131	0x3d022ca7	0.031780865
132	0xbcf7199b	-0.030163577
133	0x3d033fe8	0.032043368
134	0x3d388df9	0.04505727
135	0x3d06e660	0.032934546
136	0x3d76c93e	0.060250513
137	0xbb017776	-0.0019755042
138	0x3d62c592	0.0553642
139	0x3c601f54	0.013679344
140	0xbbe19252	-0.006883898
141	0x3c4de080	0.012565732
142	0x3da15345	0.078772105
143	0x3c8a3e09	0.016875284
144	0x3d142cc7	0.036175516
145	0x3ccc61c6	0.024948966
146	0x3c921abe	0.017835017
147	0x3d4407ca	0.04785899
148	0x3d73b019	0.05949411
149	0x3caa5e3a	0.020796884
150	0x3cb4e7d4	0.0220832
151	0x3d3b26e7	0.045691397
152	0x3cbf3e8a	0.02334525
153	0x3d791ded	0.060819555
154	0x3c68e8cb	0.014215658
155	0xbd03344f	-0.032032307
156	0x3cb8d09b	0.022560408
157	0x3c661f20	0.014045507
158	0x3cb361fc	0.021897309
159	0x3d127425	0.035755295
160	0x3dd40025	0.1035159
161	0x3d15bb64	0.036555663
162	0x3c7c66a4	0.015405331
163	0x3c3fa330	0.011696622
164	0xbcfc01ab	-0.030762514
165	0x3cd850ff	0.02640581
166	0xbc639cce	-0.013892366
167	0x3d7dea11	0.0619908
168	0xbd7ee646	-0.062231325
169	0xbcbfa0d7	-0.023392124
170	0x3c45dcbb	0.012076552
171	0x3c6bccb5	0.014392068
172	0x3d15da29	0.036585007
173	0x3cded1c8	0.02719964
174	0x3d3a86d7	0.04553875
175	0xbcf25298	-0.0295804
176	0xbb735b72	-0.0037133363
177	0xbc7c5978	-0.01540219
178	0xbccd3f4f	-0.025054602
179	0xbd4125ec	-0.047155306
180	0xbd01c007	-0.031677272
181	0xbaecdf52	-0.0018071926
182	0xbd0b944c	-0.034076974
183	0xbdabbb9d	-0.08385394
184	0xbd3caa21	-0.046060685
185	0xbc9a315f	-0.01882237
186	0xbc4f923d	-0.012669143
187	0xbd86befa	-0.06579395
188	0x3c22de7f	0.0099407425
189	0xbd11950f	-0.035542544
190	0xbddbb588	-0.10727984
191	0xbcd1f6c1	-0.025630357
192	0xbdb97e0f	-0.09057247
193	0xbdb4ede3	-0.08834436
194	0xbd383c7c	-0.044979557
195	0xbc9398ce	-0.018017199
196	0xbe0f4cc1	-0.13994123
197	0xbdf39847	-0.11894279
198	0xbdddf54e	-0.10837804
199	0xbdaf9539	-0.08573384
200	0xbd5df425	-0.054187912
201	0xbe13ab17	-0.14420734
202	0xbe777656	-0.24166235
203	0xbdd0c788	-0.101943076
204	0xbdc88748	-0.09791428
205	0xbda445dd	-0.08021138
206	0xbc49dd63	-0.012320849
207	0xbd58cdbb	-0.052930575
208	0xbd9bdfd3	-0.076110505
209	0xbdcb10ab	-0.099152885
210	0xbd95f441	-0.07321978
211	0xbd172182	-0.03689719
212	0xbd8fdf26	-0.07024984
213	0x3c1559a7	0.009115613
214	0x3d230ea9	0.039808903
215	0xbd6075e4	-0.05479993
216	0xbda6e9d3	-0.08150067
217	0xbd8017d8	-0.06254548
218	0xbbfeb037	-0.0077724713
219	0x3ca48474	0.02008269
220	0xbd443a2f	-0.04790705
221	0x3cfb0239	0.030640708
222	0x3cdd536c	0.027017318
223	0xbd2f5d77	-0.042813744
224	0x3c3db0ae	0.011577768
225	0xbca464e3	-0.020067638
226	0xbc5f14c1	-0.013615788
227	0x3c044092	0.008072035
228	0xbc904942	-0.017613057
229	0xbc568e3e	-0.013095437
230	0xbda99c53	-0.082817696
231	0xbd3881f4	-0.045045808
232	0xbc95e589	-0.018297927
233	0xbc6736ac	-0.014112156
234	0xbc2a32f0	-0.010388121
235	0x3b5c87a1	0.0033650177
236	0xbd43860b	-0.047735255
237	0xbcde79e3	-0.02715773
238	0x3cd181f8	0.02557467
239	0x3d0e26cc	0.03470497
240	0xbd0cc802	-0.03437043
241	0xbd03865d	-0.03211056
242	0x3d8705f2	0.06592931
243	0xb74b58c0	-1.2120407e-05
244	0xbd6d7e7f	-0.057981964
245	0xbcbc4b6b	-0.02298518
246	0xbd46cfd3	-0.04853804
247	0xbd81716f	-0.06320464
248	0xbd4a662f	-0.049413856
249	0xbd264e81	-0.04060221
250	0xbddd268b	-0.10798367
251	0xbe2ed94b	-0.17075078
252	0xbd3b6470	-0.04575008
253	0x3c631f2d	0.013862413
254	0xbce45f8f	-0.027877597
255	0xbbcb3cde	-0.0062023243

conv_list.1.bias f4 [16]
0	0xbaa7779a	-0.0012776733
1	0x3bd3f645	0.0064685666
2	0xbba65093	-0.005075523
3	0xbccada23	-0.024762219
4	0x3d48a4df	0.04898536
5	0xbcaf17c7	-0.021373643
6	0xbc8f17ae	-0.017467346
7	0x3d218540	0.039433718
8	0x3d34ace3	0.04411019
9	0xbd0ccd63	-0.03437556
10	0xbc9d65e4	-0.019213624
11	0xbd777b0a	-0.060420074
12	0x3cd15ae9	0.025556045
13	0x3bc72ca6	0.0060783206
14	0xbca5ea32	-0.020253275
15	0xbd3a65a5	-0.045507092

conv_list.2.weight f4 [32, 16, 5, 5]
0	0xbc92a0cc	-0.01789894
1	0x3c646cd7	0.013941965
2	0xbda6d8ac	-0.08146796
3	0xbbe1c6e8	-0.0068901666
4	0xbdd592f3	-0.10428419
5	0x3cf58044	0.029968388
6	0xbd2f8e69	-0.042860422
7	0x3c205fef	0.009788497
8	0xbcfbdf28	-0.030746058
9	0xbca939a7	-0.020657374
10	0xbd134ae7	-0.035960104
11	0xbd1c80c2	-0.03820873
12	0xbd2c862e	-0.04212015
13	0x3b300037	0.0026855597
14	0xbc456db1	-0.012050078
15	0x38d4de26	0.00010150326
16	0xbc945d06	-0.018110763
17	0xbc696900	-0.014246225
18	0x3c9aa624	0.01887805
19	0xbd48143d	-0.048847426
20	0xbd498e9d	-0.049208272
21	0x3c1aeaa1	0.009455354
22	0xbd17f746	-0.037101053
23	0x3c113513	0.008862752
24	0x3be767dd	0.007061942
25	0xbd337892	-0.043816157
26	0xbce51b53	-0.02796713
27	0x3d64108f	0.055679854
28	0x3d7345f4	0.059392884
29	0x3cafe898	0.021473214
30	0xbdb29678	-0.08720106
31	0xbcd26f17	-0.025687737
32	0xbce9615f	-0.028488813
33	0x3d8acdea	0.06777556
34	0x3dc2eb7f	0.095175736
35	0xbbe4b692	-0.006979772
36	0x3ce54838	0.027988538
37	0x3d2e642e	0.042576008
38	0x3d93d7ad	0.07218871
39	0x3d805c38	0.06267589
40	0xbb0d0b26	-0.0021521538
41	0x3ae79734	0.0017668963
42	0x3cfc73fb	0.030817023
43	0x3beb1ea2	0.0071752826
44	0x3dac979a	0.08427353
45	0xbdc7ae03	-0.09749987
46	0xbcb6b19c	-0.022301488
47	0xbce5f745	-0.028072009
48	0x3d0cd6cc	0.034384534
49	0x3d859c37	0.06523936
50	0xbd924e38	-0.07143825
51	0x3c456764	0.012048576
52	0xbdd75993	-0.10515132
53	0xbdd703a7	-0.104987435
54	0xbb73c7e5	-0.0037198004
55	0xbdd83172	-0.10556306
56	0xbd912d4c	-0.07088718
57	0xbda9023e	-0.08252381
58	0xbb6a14d0	-0.0035717972
59	0xbce04daa	-0.027380783
60	0xbdffc5dd	-0.12488911
61	0xbc0a0a85	-0.00842536
62	0xbdaa3222	-0.08310343
63	0xbd26da66	-0.040735625
64	0xbca55eae	-0.020186748
65	0xbd99bd37	-0.07506793
66	0xbb89b4af	-0.0042024474
67	0xbda290a5	-0.07937745
68	0xbd8be4a0	-0.06830716
69	0x3cf6905e	0.030098137
70	0xbe0fcafc	-0.14042276
71	0xbd417a3e	-0.04723572
72	0xbd0b36ff	-0.033987995
73	0xbc20ea6c	-0.0098215155
74	0xbb8f0f1f	-0.0043658162
75	0x3d92288b	0.07136639
76	0xbcf74313	-0.03018335
77	0xbbf48081	-0.007461608
78	0xbd157262	-0.036486037
79	0x3b5d88ab	0.0033803384
80	0x3c96c84e	0.01840606
81	0x3aa17a5c	0.0012319791
82	0xbc5d63e2	-0.013512583
83	0x3c1795fe	0.0092520695
84	0x3cc894c4	0.024485
85	0x3cb0cc25	0.021581719
86	0x3c6e4a33	0.014544058
87	0xbd6475ca	-0.055776395
88	0xbc6567b9	-0.01400178
89	0x3d911247	0.07083564
90	0xbc0b06a8	-0.008485474
91	0x3ca093d1	0.019601734
92	0x3b74f057	0.00373747
93	0xbc960f04	-0.018317707
94	0x3dae18d7	0.085008316
95	0xbccb4bbb	-0.024816385
96	0x3bb327d7	0.0054673958
97	0x3c82f825	0.015987465
98	0x3d092048	0.03347805
99	0x3db63904	0.088975936
100	0xbcb46e1f	-0.022025166
101	0xbd2fc8ec	-0.042916223
102	0x3d5cfc78	0.05395171
103	0x3cee7d2c	0.029112421
104	0x3c671f4f	0.014106586
105	0xbcf9d437	-0.0304967
106	0xbcd3c5dc	-0.025851183
107	0x3d26a24e	0.04068213
108	0xbcb455ce	-0.022013571
109	0x3d6de4bd	0.05807947
110	0xbd8adddd	-0.06780598
111	0xbc8fbc06	-0.017545711
112	0x3d66465e	0.05621945
113	0x3cb3a381	0.02192855
114	0x3d94fa77	0.07274335
115	0x3c86a04e	0.016433861
116	0xbc2aefa6	-0.010433113
117	0x3cb9bcf5	0.02267311
118	0xbbfc7900	-0.007704854
119	0x3cc1029a	0.02356081
120	0xbc718c21	-0.014742882
121	0xbc9b8271	-0.018983098
122	0x3d609995	0.054833967
123	0x3d507d89	0.05090097
124	0x3d864b32	0.06557311
125	0x3d049ba3	0.03237499
126	0x3bb5882e	0.0055399155
127	0xbba13b2d	-0.0049203844
128	0xbc991131	-0.018684955
129	0x3c81a6de	0.015826639
130	0x3cae9a37	0.02131377
131	0xbd3310f0	-0.043717325
132	0x3af860c8	0.0018949741
133	0xbcfabed3	-0.03060857
134	0x3bcb894c	0.0062114354
135	0xbce92645	-0.028460631
136	0xbcff71e3	-0.031182235
137	0x3c309bbd	0.010779318
138	0xbd24744b	-0.040149968
139	0x3cb0ca91	0.021580966
140	0x3d48c3b9	0.04901478
141	0xbcb84159	-0.022492098
142	0xbb33dd91	-0.0027445296
143	0xbbfea474	-0.007771069
144	0xbd7aac8d	-0.061199713
145	0xbcdbadfd	-0.026816363
146	0x3d8d6c21	0.069053896
147	0x3d552efb	0.052046757
148	0xbc4a9f9c	-0.012367155
149	0x3c394ca0	0.011309773
150	0xbd1449af	-0.036203083
151	0xbb67806a	-0.0035324343
152	0xbc79ca17	-0.015245936
153	0x3ca88466	0.020570945
154	0x3cb7ce5b	0.022437265
155	0x3c3650da	0.011127675
156	0xbcd73b1b	-0.0262733
157	0x3cdab110	0.026695758
158	0xbd04a03d	-0.032379378
159	0x3d16b870	0.036796987
160	0x3c13fd0d	0.0090325
161	0xbd63a0a3	-0.055573117
162	0xbac64367	-0.0015126289
163	0x3ceec10c	0.029144786
164	0x3d63a43e	0.055576555
165	0xbd8ba975	-0.06819431
166	0xbd2375b3	-0.03990717
167	0x3c971307	0.01844169
168	0xbd075fd6	-0.03305038
169	0x3d14f5d5	0.036367256
170	0xbc3855f5	-0.0112509625
171	0xbd0d31af	-0.03447121
172	0xbd796840	-0.060890436
173	0xbc5342b2	-0.012894319
174	0x3d812483	0.06305792
175	0xbd62c7a9	-0.055366192
176	0xbcfe0d1d	-0.031012112
177	0xbd376be2	-0.04478062
178	0x3c8a3ac7	0.01687373
179	0x3d8929f1	0.06697453
180	0xbd8c1ba5	-0.0684121
181	0x3cfded6c	0.030997
182	0x3d2232ed	0.039599348
183	0xbcf9441b	-0.030427983
184	0x3d7be1ec	0.061494753
185	0xbdb435f5	-0.08799354
186	0x3d235755	0.03987821
187	0xbcdf6eb3	-0.027274465
188	0xbd2327f0	-0.03983301
189	0x3cc6ba7e	0.024258848
190	0xbdce4cf5	-0.10073272
191	0x3d12e1d2	0.03585989
192	0xbd3f7452	-0.04674179
193	0xbd0ea646	-0.03482654
194	0x3d940c08	0.07228857
195	0xbd3e49c1	-0.046457056
196	0xbd59fcbe	-0.05321955
197	0x3bb26b91	0.005444952
198	0xbc39ab5b	-0.011332358
199	0x3bdd2e5e	0.006749912
200	0x3d2b442e	0.041813068
201	0x3cf2ed9a	0.029654313
202	0xbd238f7a	-0.03993175
203	0xbd51ff8a	-0.05126909
204	0xbd53b880	-0.051689625
205	0xbc881420	-0.016611159
206	0xbcd6ec58	-0.026235744
207	0x3cc23bae	0.023710098
208	0x3b8a0723	0.0042122765
209	0xbccb2275	-0.024796704
210	0xbc1f049d	-0.00970569
211	0xbbde7e0b	-0.006789928
212	0xbcc0be0d	-0.023528123
213	0x3d196f26	0.037459515
214	0xbd9f445f	-0.077767126
215	0x3cc15cab	0.023603758
216	0x3d559fb7	0.05215427
217	0x3d3ddcc4	0.046353117
218	0x3d2f5051	0.042801205
219	0x3c49e57c	0.01232278
220	0x3c55ffaf	0.013061448
221	0xbb37788d	-0.0027995438
222	0x3d05a200	0.0326252
223	0xbc94e36c	-0.01817485
224	0xbd5037d5	-0.050834496
225	0x3d713a42	0.05889345
226	0x3ce29924	0.027660914
227	0x3c7cbdfa	0.015426153
228	0xbd6a6110	-0.057221472
229	0xbd58e0b5	-0.052948672
230	0x3dc46d7d	0.09591196
231	0x3c1ca882	0.00956166
232	0xbcc11799	-0.023570823
233	0x3c9a8ecd	0.01886692
234	0x3d113010	0.035446227
235	0x3dbd4fe7	0.09243756
236	0x3d109c51	0.035305325
237	0xbc5d0345	-0.013489549
238	0x3d1532cf	0.036425408
239	0xbce72d95	-0.028219977
240	0x3de4f802	0.11180116
241	0xbd0b8163	-0.03405894
242	0x3bc1332b	0.0058959923
243	0x3d408758	0.047004074
244	0x3d0a0b79	0.033702347
245	0x3e2eca33	0.1706932
246	0x3d5e79f6	0.05431553
247	0x3d8b1040	0.06790209
248	0x3d109c03	0.035305034
249	0x3d7b39f0	0.06133455
250	0x3ca72817	0.020404859
251	0x3d6d5389	0.057940993
252	0xbc21f617	-0.009885333
253	0x3d465f2e	0.048430614
254	0x3dcebc72	0.10094537
255	0x3c803c46	0.01565374

conv_list.2.bias f4 [32]
0	0xbcb50293	-0.022095954
1	0x3bebb45b	0.007193131
2	0xbd0a26cf	-0.033728417
3	0xbd31d034	-0.04341145
4	0x3bb5a42c	0.0055432525
5	0xbc761c16	-0.015021345
6	0x3cfbe656	0.030749481
7	0xbcc0a36a	-0.023515422
8	0x3c8ca897	0.017170234
9	0x3c870635	0.016482452
10	0x3d100990	0.03516537
11	0x3d02bff2	0.031921335
12	0xbd049705	-0.032370586
13	0x3c32645c	0.010888185
14	0xbd4ab937	-0.04949304
15	0x3c98c743	0.018649703
16	0x3cce711d	0.025200421
17	0x3bca134d	0.0061668516
18	0x3d07ec25	0.03318419
19	0x3d405a15	0.04696091
20	0xbcc66834	-0.02421961
21	0xbc08fba3	-0.008360776
22	0xbd2565e5	-0.040380377
23	0xbb9d3522	-0.0047975937
24	0x3c8c480e	0.017124202
25	0xbc96ba77	-0.01839946
26	0xbd200995	-0.039071638
27	0xbd1f1470	-0.03883785
28	0x3afaef42	0.0019144791
29	0x3d0d5d0c	0.034512565
30	0x3c879eb0	0.01655516
31	0xbd427139	-0.04747126

conv_list.3.weight f4 [64, 32, 3, 3]
0	0xbc1b2038	-0.009468131
1	0x3cdd0fd0	0.026985079
2	0xbc9fa756	-0.019488972
3	0xbbd1c28a	-0.0064013647
4	0x3d39404f	0.045227345
5	0xbb905e71	-0.0044057895
6	0xbda8a2b4	-0.08234158
7	0xbcf23753	-0.029567396
8	0x3d143835	0.036186416
9	0xbb668744	-0.003517584
10	0xbca21373	-0.019784665
11	0x3be70656	0.007050316
12	0xbd4a0743	-0.04932333
13	0xbcfd8774	-0.030948378
14	0xbd73d933	-0.05953331
15	0x3d552c8c	0.052044436
16	0xbce64372	-0.028108332
17	0xbb09b327	-0.0021011324
18	0x3cc762cf	0.024339108
19	0xbd5f001d	-0.054443467
20	0xbca17498	-0.019708917
21	0xbd6eb0a1	-0.058273915
22	0xbcee65d1	-0.029101284
23	0xbd0efe8d	-0.034910727
24	0xbd4ab409	-0.0494881
25	0xbda02184	-0.078188926
26	0xbd9de465	-0.077095784
27	0xbe18cdf8	-0.14922321
28	0xbcc448fa	-0.02396058
29	0xbd86c37a	-0.06580253
30	0xbd01d7a0	-0.031699777
31	0xbd0e3e47	-0.03472736
32	0xbd8521f8	-0.0650062
33	0xbd66e872	-0.05637402
34	0xbdc704d3	-0.09717717
35	0xbdd87960	-0.105700254
36	0x3c3d0113	0.011535901
37	0xbd8f3baf	-0.069938056
38	0xbd1942c3	-0.037417185
39	0xbce34bb2	-0.027746055
40	0x3b0a6f8c	0.0021123616
41	0xbcb8ee0e	-0.02257445
42	0xbd200ac2	-0.03907276
43	0xbd857196	-0.065158054
44	0xbc442ff6	-0.011974325
45	0x3cdbf911	0.026852163
46	0x3d1406b5	0.03613921
47	0xbce73d94	-0.028227605
48	0xbd2103ad	-0.039310146
49	0x3af639a8	0.0018785493
50	0x3cad47db	0.021152427
51	0xbc151115	-0.009098311
52	0xbd192916	-0.0373927
53	0x3ba8a6f1	0.005146854
54	0x3d1d6926	0.038430355
55	0xbc3a7e5a	-0.011382664
56	0x3d5d71b5	0.054063518
57	0x3d59c2dc	0.053164348
58	0xbccf0dca	-0.02527513
59	0xbb0628d1	-0.0020471106
60	0x3c2fbf99	0.010726833
61	0x3cddd3fb	0.02707862
62	0x3d24f5eb	0.04027359
63	0x3ce5873b	0.028018584
64	0x3d362879	0.04447219
65	0xbd11bdd5	-0.03558143
66	0x3c4f1e91	0.012641565
67	0xbcadf0dd	-0.021233017
68	0x3c858988	0.016300932
69	0xbb8299fd	-0.003985642
70	0x3d04c7f9	0.03241727
71	0xbc9665cc	-0.018359087
72	0xbc3a51fe	-0.0113720875
73	0xbc6714c1	-0.014104069
74	0xbd65fe47	-0.0561507
75	0x3ca8f7ba	0.020625938
76	0xbd3536f3	-0.044241857
77	0x3d3776e8	0.044791132
78	0x3ce9051f	0.028444825
79	0xbb8a874b	-0.004227554
80	0x3bacd87f	0.005274832
81	0xbd5a8d9d	-0.05335771
82	0xbd2aac64	-0.04166831
83	0xbd6e3eab	-0.058165234
84	0x3cfa2639	0.030535804
85	0xbc8a570c	-0.01688721
86	0xbc818765	-0.015811631
87	0xbc920206	-0.01782323
88	0x3d279e75	0.0409226
89	0xbca3533d	-0.019937152
90	0x3c0fef9d	0.008785156
91	0xbb87c671	-0.004143529
92	0x3c9b0308	0.018922344
93	0x3c056891	0.008142606
94	0x3cb60e0c	0.022223495
95	0x3ccbc3a3	0.02487356
96	0xba6bdb23	-0.00089971925
97	0x3d153b77	0.036433663
98	0x3caae4ad	0.020860994
99	0xbb77d486	-0.0037815883
100	0xbd93e3fe	-0.072212204
101	0x3c3c4717	0.0114915585
102	0xbd37fb67	-0.04491749
103	0x3b24bcf6	0.0025137044
104	0xbbfc08c9	-0.007691477
105	0xbd5292b8	-0.051409453
106	0x3bcfc119	0.0063401577
107	0xbd3273d1	-0.043567482
108	0xbd6c93a2	-0.05775798
109	0xbcd614e3	-0.026133006
110	0xbd9c45e0	-0.07630515
111	0xbc30a7e0	-0.010782212
112	0xbd1d57bf	-0.03841376
113	0x3cc6a641	0.024249198
114	0x3d24bd64	0.04021968
115	0x3d677e26	0.05651679
116	0xbd4d11a7	-0.050065663
117	0x3d3576ef	0.044302877
118	0x3cfa9916	0.030590575
119	0x3cb47968	0.022030547
120	0xbc920301	-0.017823698
121	0xbccaadd9	-0.0247411
122	0x3d07733e	0.033068888
123	0x3d7ff18d	0.06248622
124	0xba7266a8	-0.00092468644
125	0x3ce07574	0.027399756
126	0xbdb36ad7	-0.087606125
127	0xbd028cb2	-0.03187246
128	0xbd6f654c	-0.058446214
129	0x3c34ebbc	0.011042532
130	0x3bafcb5d	0.005364819
131	0xbbe6f3aa	-0.00704809
132	0x3d03c9be	0.03217482
133	0x3d8dcd9b	0.06923982
134	0xbd420315	-0.04736622
135	0xbd2f6e3c	-0.042829737
136	0x3d1505cd	0.036382485
137	0x3d553781	0.052054886
138	0xbd441d89	-0.04787973
139	0x3ce55468	0.02799435
140	0x3d2348eb	0.039864462
141	0xbc1d39e5	-0.009596323
142	0xbc984c82	-0.01859117
143	0xba772d1c	-0.0009429024
144	0xbd9fc15b	-0.078005515
145	0xbd879bd3	-0.06621518
146	0xbdc025a3	-0.09382179
147	0xbd8f62a8	-0.07001239
148	0x3c92a01f	0.017898617
149	0xbc726617	-0.014794848
150	0xbac93a36	-0.0015352431
151	0xbd05d608	-0.03267482
152	0xbd8664ae	-0.06562172
153	0xbd82c9b9	-0.06386132
154	0xbcd66c04	-0.026174553
155	0x3d20bbca	0.03924159
156	0x3cf52be9	0.029928165
157	0xbd842a33	-0.06453361
158	0xbd73c543	-0.059514295
159	0x3c05c5ca	0.008164832
160	0xbd133593	-0.035939764
161	0x3d26c0b8	0.040711135
162	0x3bfb73f1	0.0076737334
163	0xbc947331	-0.018121334
164	0xbd9acb48	-0.07558304
165	0xbbd4af38	-0.0064906143
166	0xbca5e01a	-0.020248462
167	0xbd8b05a9	-0.06788189
168	0x3cf4033c	0.029786699
169	0xbcca28c8	-0.02467765
170	0xba5c3000	-0.00083994865
171	0xbdb33bc9	-0.087516375
172	0xbd3b7d59	-0.045773838
173	0xbb473cac	-0.0030401153
174	0xbd7b606f	-0.061371263
175	0x3d395024	0.045242444
176	0xbd50ac2a	-0.05094544
177	0xbd2ac006	-0.041687034
178	0xbd6ec5b8	-0.058294028
179	0x3b566441	0.0032713565
180	0xbd9906ca	-0.07471998
181	0xbd455fbf	-0.048187014
182	0xbda63cb2	-0.081170455
183	0xbc900069	-0.01757832
184	0xbb0ed34f	-0.002179343
185	0xbd8ea021	-0.06964136
186	0xbe0c8831	-0.13723828
187	0xbbec2a3b	-0.0072071827
188	0xbddd51cd	-0.10806618
189	0xbdb3306a	-0.087494686
190	0xbce866df	-0.028369365
191	0xbd957406	-0.0729752
192	0xbdae0e1f	-0.08498787
193	0xbd257afc	-0.04040049
194	0xbcf95683	-0.03043676
195	0xbda1b705	-0.07896236
196	0xbdc118ad	-0.09428535
197	0xbd55589b	-0.052086454
198	0xbd584189	-0.052796874
199	0xbd949f29	-0.0725692
200	0x3c04a522	0.008096011
201	0x3b4f0dcf	0.0031593924
202	0xbd614d71	-0.055005495
203	0xbd020ca0	-0.03175032
204	0xbd83b5bd	-0.06431148
205	0xbc0af90e	-0.008482231
206	0xbd84de78	-0.06487745
207	0xbd888d9e	-0.06667636
208	0xbd23599a	-0.039880373
209	0xbb25f58c	-0.002532336
210	0x3c8cb5ce	0.017176535
211	0xbd70677f	-0.05869245
212	0xbd13e75f	-0.036109325
213	0x3be8ae8c	0.0071008857
214	0xbca0bb88	-0.019620672
215	0x3cb89f90	0.022537023
216	0xbd9e445d	-0.07727883
217	0xbd0e16c6	-0.034689687
218	0xbd5f8733	-0.054572295
219	0xbd663d30	-0.056210697
220	0x3c67ca15	0.014147301
221	0xbd9763e4	-0.073920995
222	0x3bb04985	0.005379858
223	0xbc3f988d	-0.011694086
224	0xbd5951ce	-0.05305653
225	0x3d90aa7a	0.07063766
226	0x3bef569b	0.0073040253
227	0xbccb9494	-0.024851121
228	0xbce5afe1	-0.028037967
229	0x3c3cb194	0.011516947
230	0xbbaa3460	-0.005194232
231	0x3b3a758a	0.0028451406
232	0xbd25de5f	-0.040495273
233	0x3d1e6869	0.038673792
234	0xbdc0b5f2	-0.09409703
235	0xbdc85b97	-0.097830944
236	0xbda19183	-0.07889082
237	0xbded7bed	-0.115959026
238	0xbd012b0d	-0.031535197
239	0xbd4fec0c	-0.05076222
240	0xbc6e0a1b	-0.0145287765
241	0xbd8eba72	-0.06969155
242	0xba1c09e0	-0.0005952399
243	0x3d3da512	0.0463
244	0xbcc17255	-0.023614088
245	0x3da832b5	0.082127966
246	0x3bc7452e	0.006081245
247	0xbd4dd068	-0.05024758
248	0x3ca9060c	0.020632766
249	0x3d936ec3	0.071988605
250	0x3d41a485	0.04727604
251	0x3ca919ff	0.020642279
252	0x3ca3c21d	0.019990021
253	0xbac8fb19	-0.0015333622
254	0x3cba2e71	0.022727223
255	0x3d52f1a4	0.051499978

conv_list.3.bias f4 [64]
0	0x3d08e5e4	0.033422366
1	0x3d2ac766	0.041694067
2	0xbce5216a	-0.027970035
3	0x3d7d2f3d	0.061812628
4	0x3d4de10e	0.050263457
5	0x3c3ffbfb	0.011717792
6	0x3d0a3d06	0.033749603
7	0xbbc6ee16	-0.0060708625
8	0x3dc1d568	0.09464532
9	0x3da12e7f	0.078701966
10	0x3c976c06	0.018484127
11	0x3cb2a1c8	0.021805659
12	0x3cd06e18	0.025443122
13	0x3d10e028	0.035370022
14	0x3d587468	0.05284539
15	0x3e55303f	0.20819186
16	0x3d862df1	0.065517314
17	0xbca74898	-0.020420358
18	0x3cc29f8b	0.023757717
19	0x3e117fda	0.14208928
20	0x3dbe299e	0.092852816
21	0x3c64c7c1	0.013963641
22	0xbb757739	-0.0037455095
23	0xbcfea731	-0.031085582
24	0x3cf30fd8	0.02967064
25	0x3d015cac	0.03158252
26	0xbcef62d3	-0.029221928
27	0xbcd8e7b2	-0.026477668
28	0x3d16b6ad	0.036795307
29	0x3e0ca32e	0.13734123
30	0xbc9d6d93	-0.019217288
31	0xbc42c9c0	-0.011888921
32	0x3d180fc6	0.037124418
33	0xbd25b0f0	-0.040451944
34	0x3a5595cc	0.00081476266
35	0x3e049387	0.12946902
36	0x3d552035	0.05203267
37	0x3e0f8271	0.14014603
38	0xbc18ad87	-0.009318716
39	0x3dd6519d	0.10464785
40	0xbd19c076	-0.03753706
41	0x3d19252c	0.037388965
42	0x3e0716c0	0.13192272
43	0xbcd4dc47	-0.025983943
44	0x3dd56cdc	0.10421154
45	0xbd0d3501	-0.034474377
46	0x3d19a5ab	0.03751151
47	0xbc3c1846	-0.011480397
48	0xbd503f05	-0.05084135
49	0xbd441f7b	-0.047881585
50	0x3e004521	0.1252637
51	0xbafc494c	-0.0019247918
52	0xbca60b8f	-0.020269183
53	0xbd320e84	-0.043470874
54	0xbc14c2c9	-0.0090796435
55	0x3d666c76	0.05625578
56	0xbcdb9116	-0.02680258
57	0xbd4e4fa6	-0.050368927
58	0xbcdf92f1	-0.027291747
59	0xbbe62a67	-0.0070240977
60	0xbcce482f	-0.025180904
61	0x3d6cbf9d	0.057799924
62	0x3d31e5b6	0.04343196
63	0xbd3516c3	-0.04421116

batchnorm_list.0.weight f4 [8]
0	0x3f82892d	1.0198113
1	0x3f61b22b	0.8816249
2	0x3f79ba56	0.9754995
3	0x3f84f2e3	1.0386623
4	0x3f70c452	0.9404956
5	0x3f86b67a	1.0524437
6	0x3f78dfb1	0.97216326
7	0x3f829204	1.020081

batchnorm_list.0.bias f4 [8]
0	0x3cd5d7b2	0.026103828
1	0xbe3001e4	-0.17188221
2	0xbe0ae54f	-0.13564037
3	0xbd4060f8	-0.046967477
4	0x3d61eabc	0.0551555
5	0x3df4657d	0.1193342
6	0xbe2f3529	-0.17110123
7	0x3ddf426e	0.10901342

batchnorm_list.0.running_mean f4 [8]
0	0x401b3410	2.4250526
1	0x3f456806	0.7711185
2	0x3d939b4a	0.072073534
3	0xbe423b48	-0.18967927
4	0xc01b28ad	-2.4243577
5	0xbb009c36	-0.001962436
6	0x3eb762e2	0.3581763
7	0xbf494615	-0.7862256

batchnorm_list.0.running_var f4 [8]
0	0x3fa64089	1.2988445
1	0x3e15750f	0.14595436
2	0x3e152e44	0.1456843
3	0x3e47de61	0.19518425
4	0x3fa7b291	1.3101369
5	0x3d9425c8	0.07233769
6	0x3d876259	0.06610555
7	0x3e816009	0.25268582

batchnorm_list.1.weight f4 [16]
0	0x3f7c6015	0.9858411
1	0x3f7fd697	0.99936813
2	0x3f6efb1c	0.9335191
3	0x3f6943d0	0.911191
4	0x3f6e4ef3	0.93089217
5	0x3f72d259	0.94852215
6	0x3f61adf8	0.8815608
7	0x3f729b36	0.94768083
8	0x3f834a7a	1.0257103
9	0x3f87324a	1.0562222
10	0x3f6204ce	0.8828858
11	0x3f843d63	1.0331234
12	0x3f799cdb	0.9750497
13	0x3f857945	1.0427634
14	0x3f61003e	0.87890995
15	0x3f80f4d7	1.0074719

batchnorm_list.1.bias f4 [16]
0	0xbd897204	-0.067112
1	0xbdc258a5	-0.09489564
2	0xbe10abdd	-0.1412806
3	0xbdeb19ba	-0.11479516
4	0xbd8221bd	-0.06354091
5	0x3d342105	0.043976802
6	0xbe13f79b	-0.14449923
7	0xbe1143ff	-0.14186095
8	0x3dc6e3b6	0.09711401
9	0xbe107623	-0.14107566
10	0xbddcf2b5	-0.1078848
11	0xbe394202	-0.18091586
12	0x3d0d25e0	0.03445995
13	0xbe671548	-0.22566712
14	0xbcaec493	-0.021333968
15	0xbdc6e87b	-0.09712311

batchnorm_list.1.running_mean f4 [16]
0	0xc0399b90	-2.9001198
1	0xbf3349d5	-0.70034534
2	0x3f0b5857	0.5443167
3	0xbe054d3b	-0.13017742
4	0x3f144391	0.579156
5	0x3f8a3312	1.0796835
6	0x3f928c77	1.1449116
7	0x3f3b5d83	0.7318956
8	0x3f83fb8b	1.031114
9	0xbfc2ebbd	-1.5228192
10	0x3f75634d	0.95854646
11	0xbfd4ef0e	-1.6635454
12	0x3f8d2718	1.1027555
13	0xc0663acf	-3.5973394
14	0x3ffdafea	1.981931
15	0xbfa38283	-1.2774204

batchnorm_list.1.running_var f4 [16]
0	0x4034e7b5	2.8266423
1	0x410dd08b	8.863414
2	0x403dcb4c	2.9655333
3	0x3f732eae	0.949931
4	0x40ecd072	7.400445
5	0x400ba2b3	2.1818054
6	0x3fbcbbe7	1.4744843
7	0x40502b81	3.2526553
8	0x4079681a	3.8969789
9	0x4057bfd7	3.371084
10	0x4054593a	3.317946
11	0x4068214f	3.627033
12	0x3fdf6ab7	1.7454442
13	0x4062ac77	3.5417764
14	0x40417ce9	3.023249
15	0x405177ef	3.2729452

batchnorm_list.2.weight f4 [32]
0	0x3f71ca7c	0.9444959
1	0x3f7b0f4b	0.9807021
2	0x3f5f2aa8	0.87174463
3	0x3f885abe	1.0652692
4	0x3f800e8f	1.0004443
5	0x3f7531e0	0.9577923
6	0x3f4ab0ff	0.79176325
7	0x3f807d45	1.0038229
8	0x3f800d41	1.0004045
9	0x3f859f97	1.0439328
10	0x3f6564c6	0.89606893
11	0x3f62ad0e	0.8854531
12	0x3f687e0c	0.9081733
13	0x3f802183	1.0010227
14	0x3f8d1fad	1.1025292
15	0x3f76432a	0.96196234
16	0x3f84ea60	1.0384026
17	0x3f612630	0.87948895
18	0x3f92d412	1.1470969
19	0x3f82fb41	1.0232927
20	0x3f84572f	1.0339106
21	0x3f837c81	1.027237
22	0x3f6f2ee7	0.9343094
23	0x3f6b1c8c	0.91840434
24	0x3f7e9cd3	0.99458045
25	0x3f8330a9	1.0249225
26	0x3f814727	1.0099839
27	0x3f7dc91f	0.9913501
28	0x3f663e30	0.8993864
29	0x3f836a7b	1.026687
30	0x3f5cc1e5	0.8623336
31	0x3f5820c1	0.8442498

batchnorm_list.2.bias f4 [32]
0	0xbe05ba9d	-0.13059469
1	0xbdb066c7	-0.08613353
2	0xbdcf2da4	-0.10116127
3	0xbe34912b	-0.17633502
4	0xbd450170	-0.048097074
5	0xbcf9ecba	-0.030508388
6	0xbe1c728a	-0.15278068
7	0x3c80ef04	0.015738972
8	0xbbf48cb1	-0.007463061
9	0x3c6795ee	0.014134867
10	0xbd8f9bfb	-0.07012173
11	0xbdd9c2ff	-0.10632896
12	0xbdfd4b5b	-0.123678885
13	0xbde3656c	-0.11103329
14	0xbddf1c9d	-0.108941294
15	0xbdd5e7ce	-0.10444604
16	0xbc100848	-0.008791037
17	0xbe1c02b0	-0.152354
18	0xbd5cac38	-0.053875178
19	0x3ca35b6f	0.01994106
20	0xbe0f9874	-0.14023
21	0x3cd65acf	0.026166348
22	0xbd3c5f69	-0.045989428
23	0xbe0666cf	-0.13125156
24	0xbd8a9e07	-0.067684226
25	0xbd065a23	-0.032800805
26	0xbdb9ab4a	-0.09065874
27	0xbdb52bda	-0.08846255
28	0xbe312b26	-0.17301616
29	0xbea61550	-0.32438135
30	0xbe693027	-0.22772275
31	0xbdcd5aaf	-0.10027062

batchnorm_list.2.running_mean f4 [32]
0	0x3f10d24f	0.56570905
1	0xbfaa15b5	-1.3287874
2	0x3f792175	0.97316676
3	0x3ede4ec4	0.43419468
4	0xbfc47654	-1.5348611
5	0xbffab961	-1.9587823
6	0x3fb936a1	1.4469796
7	0xbfb77de5	-1.4335295
8	0xbf81efdb	-1.0151323
9	0xc028dbec	-2.638423
10	0x3fc09494	1.5045342
11	0x3f0ec0e9	0.5576311
12	0x3f21f303	0.6326143
13	0xc03b7f97	-2.9296625
14	0x3f5aa563	0.8540861
15	0xbfaaecf3	-1.3353561
16	0xbfd8d706	-1.694062
17	0x3f12f89c	0.574106
18	0xbf52cb59	-0.82341534
19	0xbfe34340	-1.7754898
20	0x3f93e786	1.155503
21	0xbf2af5e0	-0.66781425
22	0xbfbc52be	-1.4712751
23	0xbefbcb6b	-0.49178633
24	0xbfaa7f0a	-1.3320019
25	0xbff1a24b	-1.8877653
26	0xc007490c	-2.1138334
27	0xc00865e1	-2.1312182
28	0xbf9e1004	-1.2348638
29	0x3fab3fb7	1.3378819
30	0x3efc89f8	0.49324012
31	0x3f674f16	0.9035505

batchnorm_list.2.running_var f4 [32]
0	0x3f50e0b6	0.8159288
1	0x409769c1	4.7316594
2	0x4081ff7a	4.062436
3	0x3fcee91d	1.616489
4	0x405ed0f9	3.4815047
5	0x407427b3	3.814923
6	0x40827184	4.076357
7	0x40b36599	5.606152
8	0x4027b013	2.6201217
9	0x409f8f89	4.9862714
10	0x4018ff27	2.3905733
11	0x3f83f9c2	1.0310595
12	0x3f69258b	0.9107291
13	0x4075f62f	3.8431509
14	0x3f089b55	0.5336202
15	0x40784d32	3.8797116
16	0x3f9928d2	1.1965582
17	0x3f9c0970	1.219038
18	0x3f0d2793	0.5513851
19	0x3ffe38f5	1.9861132
20	0x3fff4e05	1.9945685
21	0x3f8e3a2e	1.1111505
22	0x3fa70efd	1.3051449
23	0x4000b812	2.0112348
24	0x406d038a	3.703341
25	0x404f5415	3.239507
26	0x40649dd6	3.5721335
27	0x403625ff	2.846069
28	0x40257d92	2.5857892
29	0x4008a6a1	2.1351702
30	0x3fac8bb2	1.3480132
31	0x40935e73	4.6052794

batchnorm_list.3.weight f4 [64]
0	0x3fad4ca6	1.3539016
1	0x3f91abe1	1.1380578
2	0x3f801680	1.0006866
3	0x3fa19236	1.2622745
4	0x3f803731	1.0016843
5	0x3fa4bf9c	1.2870975
6	0x3fd0b4b4	1.6305146
7	0x3f87b594	1.0602288
8	0x3fcc3312	1.5953085
9	0x3fa471ce	1.284723
10	0x3f8411cd	1.0317932
11	0x3fae1473	1.3599991
12	0x3fb1b45c	1.3883166
13	0x3f82561f	1.0182532
14	0x3f8514da	1.0396988
15	0x3fa4fb72	1.2889235
16	0x3fa2c2b3	1.2715667
17	0x3f83d674	1.0299821
18	0x3fa407d7	1.2814893
19	0x3fc57e91	1.542925
20	0x3fc30d97	1.5238522
21	0x3f86b73f	1.0524672
22	0x3fa1fc9e	1.2655218
23	0x3f8a6243	1.0811237
24	0x3f78b1c8	0.9714627
25	0x3fa1fbd8	1.2654982
26	0x3f9b5102	1.2134097
27	0x3f8490ed	1.0356728
28	0x3fa956cc	1.3229613
29	0x3faef29f	1.3667792
30	0x3f803178	1.0015097
31	0x3f83a2c7	1.0284051
32	0x3fa603d2	1.2969916
33	0x3f9a41c4	1.205132
34	0x3fab04d5	1.336085
35	0x3fab1bce	1.336786
36	0x3fa4843c	1.2852855
37	0x3fa25b59	1.2684127
38	0x3fa1742b	1.2613577
39	0x3fccd5d6	1.6002758
40	0x3f847a79	1.0349876
41	0x3fac698c	1.346971
42	0x3fc62ddb	1.5482744
43	0x3fc5b54a	1.544595
44	0x3fbcaf32	1.4740965
45	0x3f80c438	1.0059881
46	0x3fac26cc	1.344934
47	0x3f8b3855	1.0876566
48	0x3f730aad	0.94938165
49	0x3f843bc7	1.0330743
50	0x3fcea81f	1.6145056
51	0x3fa7543a	1.3072579
52	0x3fbbce3b	1.4672312
53	0x3f832167	1.0244569
54	0x3fab55af	1.3385524
55	0x3faacc79	1.334365
56	0x3fa4eb0a	1.2884228
57	0x3f845b8f	1.0340441
58	0x3fa7488d	1.3069016
59	0x3f8b1ad4	1.0867562
60	0x3f844f81	1.0336763
61	0x3f84bf05	1.0370795
62	0x3f847d5b	1.0350755
63	0x3fa28e78	1.2699728

batchnorm_list.3.bias f4 [64]
0	0x3ebff088	0.37488198
1	0x3cba50c4	0.02274359
2	0xbd036923	-0.032082688
3	0x3e0aed2c	0.13567036
4	0xbdd16a7d	-0.10225389
5	0x3e9b0745	0.30278984
6	0x3f16c5ba	0.58895457
7	0xbb5fd46b	-0.003415371
8	0x3f021a67	0.50821537
9	0x3e9f32ad	0.3109335
10	0xbdc10b21	-0.09425951
11	0x3eb88991	0.36042455
12	0x3ec8e89e	0.39239973
13	0xbd9926af	-0.074780814
14	0xbdc57338	-0.09641117
15	0x3e99a357	0.3000743
16	0x3e8ee2b9	0.2790735
17	0xbda490e6	-0.0803545
18	0x3e90b84c	0.28265607
19	0x3eb05627	0.3444073
20	0x3ef8a520	0.4856348
21	0xbbd6ec03	-0.0065588965
22	0x3e83d286	0.25746554
23	0x3bddf9b2	0.0067741508
24	0xbd402157	-0.046906795
25	0x3e844357	0.25832626
26	0x3e9209d0	0.2852311
27	0xbdbec2f9	-0.09314532
28	0x3ed5a7e6	0.4172966
29	0x3eacd602	0.33757025
30	0xbceb475f	-0.028720556
31	0xbdcd61f2	-0.10028447
32	0x3e8db5bd	0.27677718
33	0x3e8900cb	0.26758417
34	0x3eaed4c1	0.34146693
35	0x3ea6816b	0.32520613
36	0x3e8c7deb	0.27439818
37	0x3e93bf7a	0.28857023
38	0x3e82de30	0.2556014
39	0x3ee79e14	0.45237792
40	0xbdc74bc8	-0.09731251
41	0x3eb09aff	0.34493253
42	0x3e84378b	0.25823626
43	0x3f24c468	0.6436219
44	0x3e646e23	0.22307639
45	0x3d123e73	0.035704087
46	0x3eafcd65	0.3433639
47	0x3c103ed8	0.008804046
48	0xbd25a244	-0.04043795
49	0xbdae02ef	-0.08496653
50	0x3edf0c63	0.43564138
51	0x3e92220c	0.285416
52	0x3eff758d	0.49894372
53	0xbdace20c	-0.084415525
54	0x3eac71f4	0.3368069
55	0x3eb081cd	0.3447403
56	0x3dbc9fe2	0.09210183
57	0xbdb48f66	-0.088164136
58	0x3ea6398f	0.3246579
59	0x3dfe7be8	0.12425977
60	0xbdbc276c	-0.091872066
61	0xbdc7bac2	-0.09752418
62	0xbdca6970	-0.09883392
63	0x3e8ae1a1	0.27125266

batchnorm_list.3.running_mean f4 [64]
0	0xbfdf9567	-1.7467469
1	0xbfc6ae06	-1.5521858
2	0xbf880c3a	-1.0628731
3	0xbf95f235	-1.1714541
4	0x3ed7a9a5	0.42121616
5	0xbee1b8f1	-0.44086412
6	0x3eac48e5	0.33649364
7	0xbfc0896a	-1.5041935
8	0xbfbf080c	-1.4924331
9	0xbfacfeb0	-1.3515224
10	0x3efc1ec4	0.49242222
11	0x3e37a57b	0.1793422
12	0xbefed61c	-0.49772727
13	0x3ee39d42	0.44455916
14	0x3f033266	0.51248777
15	0xbf894c89	-1.0726482
16	0xbfaf4cf7	-1.3695363
17	0x3f03442b	0.5127589
18	0x3ecda70e	0.40166515
19	0xbfe376cf	-1.7770633
20	0xbfb17355	-1.3863322
21	0xbf98e96b	-1.1946234
22	0xbe9ce019	-0.30639723
23	0x3f2f6f5e	0.6852931
24	0xbe80e465	-0.2517425
25	0x3dfe2ce2	0.124109045
26	0x3efeea5d	0.4978818
27	0x3ecd6e84	0.4012338
28	0x3ed4ee8d	0.4158825
29	0xbfd4f659	-1.6637679
30	0xbf3c264f	-0.73495954
31	0x3f0597fd	0.5218504
32	0x3eec231d	0.4612054
33	0x3eacb2a3	0.3373004
34	0xbdcb4aaa	-0.099263504
35	0xbf9a2372	-1.2042067
36	0x3e4916e8	0.19637644
37	0xbf836405	-1.0264899
38	0xbdeccca3	-0.11562469
39	0xbfbe6ae5	-1.4876372
40	0x3f03c180	0.5146713
41	0x3e41b06f	0.1891496
42	0xbfb2bd93	-1.3964103
43	0xbdf8ebc9	-0.121543474
44	0xbf9b9bb4	-1.2156892
45	0x3f3ba17f	0.732933
46	0x3e400cf6	0.18754944
47	0xbf84ae4f	-1.0365695
48	0x3f334845	0.7003215
49	0x3ee9bf51	0.45653775
50	0xbff81744	-1.93821
51	0xbfacc781	-1.3498384
52	0x3e88e5ec	0.26737916
53	0x3eeb86ea	0.4600137
54	0x3ea5fb36	0.3241822
55	0x3ebdc315	0.37062898
56	0x3f6eab57	0.93230194
57	0x3eea26bc	0.45732677
58	0xbf08d3c5	-0.53448135
59	0x3f0b96f0	0.5452719
60	0x3f08be2f	0.534152
61	0x3f0f0244	0.5586283
62	0x3f0c04b7	0.54694694
63	0x3e0077b7	0.12545668

batchnorm_list.3.running_var f4 [64]
0	0x3ee13fa0	0.43993855
1	0x3fa0e673	1.2570328
2	0x3f5587ec	0.83410525
3	0x40174df8	2.3641338
4	0x3f00739f	0.50176424
5	0x3f69d594	0.9134152
6	0x40408648	3.0081959
7	0x3f410f14	0.7541363
8	0x400a4379	2.1603682
9	0x3eed117e	0.46302408
10	0x3f1c0297	0.6094145
11	0x3f057b70	0.52141476
12	0x3fedaf04	1.8569036
13	0x3f1476f4	0.5799401
14	0x3f09a4a8	0.5376687
15	0x3ec1517f	0.3775749
16	0x3f0ef79e	0.55846584
17	0x3f200d2e	0.6252011
18	0x3eb62d96	0.35581654
19	0x3fae6c6f	1.3626841
20	0x3fed3d58	1.8534346
21	0x3f764752	0.96202576
22	0x3f5bbb00	0.85832214
23	0x3f1c763c	0.6111791
24	0x3f3dd3f7	0.7415156
25	0x3f219bc0	0.6312828
26	0x3f24cba8	0.64373255
27	0x3f0b54e8	0.5442643
28	0x3f744d2e	0.95430267
29	0x3ece643d	0.4031085
30	0x3fcecdc1	1.6156541
31	0x3f1ef65f	0.6209468
32	0x3e8bf71d	0.2733697
33	0x3f3a5b7e	0.72795856
34	0x3fb2e6e2	1.397671
35	0x3f16ec98	0.58954763
36	0x3f1545c0	0.58309555
37	0x3f709dde	0.93990886
38	0x3ed74fe3	0.42053136
39	0x3fe3e3ee	1.7803934
40	0x3f234fd5	0.6379369
41	0x3f569553	0.838216
42	0x40515ab2	3.2711606
43	0x400c85b9	2.1956618
44	0x4049ec0a	3.1550317
45	0x3f5fca52	0.8741809
46	0x3f42158e	0.7581414
47	0x40285c39	2.6306288
48	0x3ea9b598	0.33146358
49	0x3f22acfa	0.6354519
50	0x3fb07653	1.378611
51	0x3f07844e	0.52936256
52	0x3fbe0298	1.4844542
53	0x3f2f22f3	0.68412703
54	0x3f161b0f	0.5863504
55	0x3f4cc560	0.7998867
56	0x3f6850b1	0.90748125
57	0x3f1953cb	0.5989348
58	0x3fb2908f	1.3950366
59	0x3f7007b2	0.9376174
60	0x3f304259	0.6885124
61	0x3f113507	0.5672154
62	0x3f14bb8f	0.5809869
63	0x3ef1164e	0.4708733

output_layer.weight f4 [1, 64, 1, 1]
0	0xbe8a1e2a	-0.26976138
1	0xbe0f30cc	-0.13983458
2	0xbd9068d0	-0.070512414
3	0xbe32ff34	-0.17480165
4	0x3dd1d55b	0.102457725
5	0xbe9b9e32	-0.3039413
6	0xbea3a694	-0.31963027
7	0xbdd557f0	-0.10417163
8	0xbe9b74b0	-0.30362463
9	0xbe9f30de	-0.3109197
10	0x3e14b0f3	0.14520626
11	0xbe85a755	-0.26104227
12	0xbe81714e	-0.25281757
13	0x3db3328f	0.08749878
14	0x3e220d82	0.15825465
15	0xbe94db2f	-0.29073474
16	0xbeb07844	-0.34466755
17	0x3ddcfad6	0.10790031
18	0xbea24e5a	-0.31700402
19	0xbe89321e	-0.2679605
20	0xbe709add	-0.23496576
21	0xbdd18421	-0.1023028
22	0xbead843a	-0.33889943
23	0xbdf3992f	-0.11894452
24	0xbd272e07	-0.04081538
25	0xbeac74ca	-0.33682853
26	0xbe26feb2	-0.16308096
27	0x3e0c59ae	0.13706085
28	0xbe42ee71	-0.1903627
29	0xbe89148f	-0.26773497
30	0xbd93ae7b	-0.07211014
31	0x3e2145de	0.15749308
32	0xbe9dc4ec	-0.30814302
33	0xbe2928b6	-0.16519436
34	0xbe886a63	-0.26643667
35	0xbe859176	-0.2608754
36	0xbe9db961	-0.30805495
37	0xbea1b8df	-0.31586358
38	0xbead2fec	-0.33825624
39	0xbe9cb9e4	-0.30610573
40	0x3e26c861	0.16287376
41	0xbe86c720	-0.26323795
42	0xbe8f09b6	-0.27937096
43	0xbe834164	-0.25635827
44	0xbe778827	-0.24173032
45	0xbda4fc48	-0.08055931
46	0xbe87b192	-0.26502663
47	0xbdf0b84a	-0.117539
48	0xbd4f6e01	-0.050642017
49	0x3de8534d	0.11344013
50	0xbe9e0774	-0.3086506
51	0xbe96c285	-0.29445282
52	0xbe74036f	-0.23829435
53	0x3dc9eb5b	0.098593436
54	0xbe89a14a	-0.26880866
55	0xbe8b25ca	-0.27177268
56	0xbe4099af	-0.18808626
57	0x3e03948e	0.12849638
58	0xbe8f7230	-0.28016806
59	0xbe01e406	-0.1268464
60	0x3e0247a7	0.12722646
61	0x3e151a44	0.14560801
62	0x3e0ee093	0.13952856
63	0xbea94128	-0.33057523
