model.pth (torch, 182328 bytes, 25 tensors)

conv_list.0.weight f4 [8, 3, 15, 15]
0	0xbb98e766	-0.0046662567
1	0x3c80e8f3	0.015736079
2	0xbd1bfd79	-0.038083527
3	0xbd10f463	-0.035389315
4	0xbcbb0aac	-0.022832237
5	0x3ab45c3d	0.0013760399
6	0xbc1e9c59	-0.009680831
7	0x3cb928bc	0.022602431
8	0xbc3c91a8	-0.0115093365
9	0x3b5ffa7d	0.0034176402
10	0xbc7fc2f0	-0.015610442
11	0xbc36f3e4	-0.0111665465
12	0xbd1e66d6	-0.03867229
13	0xbcddfb42	-0.027097348
14	0xbc9ea8bd	-0.01936757
15	0xbb04e035	-0.002027524
16	0x3c36f30a	0.011166343
17	0x3c92adfe	0.017905232
18	0xbcff4644	-0.031161435
19	0xbcb5bfc2	-0.022186164
20	0x3bfc3ad8	0.0076974444
21	0x3cd09824	0.025463171
22	0xbc5dd0c5	-0.013538544
23	0x3cc01645	0.023448119
24	0xbc250c12	-0.010073679
25	0x3b613ea2	0.0034369607
26	0x3d0b50ed	0.034012724
27	0xbd13ea75	-0.036112268
28	0xbccb8e27	-0.024848057
29	0xbc4bba73	-0.01243459
30	0xbc8a651e	-0.01689392
31	0x3cfc902c	0.030830465
32	0xbce8d71c	-0.028422885
33	0xbcabd359	-0.020974802
34	0xbcf5d0d1	-0.030006798
35	0xbd21c5c9	-0.039495263
36	0xbcd480ff	-0.025940416
37	0x3cfbcadd	0.030736381
38	0x3c760c11	0.015017525
39	0x3c8f8ab1	0.017522188
40	0x3b81ffc2	0.0039672563
41	0xbc94e731	-0.018176647
42	0x3bf22d1c	0.0073906314
43	0xbd13fa8f	-0.036127623
44	0xbcf40896	-0.02978925
45	0xbcab9557	-0.020945234
46	0x3cbb52d4	0.022866644
47	0x3ca3d367	0.019998265
48	0xbca2272f	-0.019794075
49	0xbb78b1b6	-0.003794772
50	0x3cba5a1b	0.022748044
51	0x3d1679ab	0.036737125
52	0x3c71a08e	0.014747752
53	0x3ba4f2d4	0.00503383
54	0x3cd684e6	0.026186418
55	0xbca5367d	-0.020167584
56	0x3c205327	0.00978545
57	0xbce6cc00	-0.028173447
58	0xbcdd2a58	-0.02699773
59	0xbcb442fd	-0.022004599
60	0x3c7c8ad0	0.015413955
61	0x3c5f4664	0.013627622
62	0xbccfa548	-0.025347367
63	0x3c15a03f	0.009132444
64	0x3c9c702b	0.019096455
65	0xbbae1236	-0.0053122295
66	0x3adba334	0.0016757012
67	0x3c260301	0.010132552
68	0x3cd6d282	0.026223425
69	0x3d1fff24	0.03906168
70	0xbcd77daf	-0.026305048
71	0xbc2bcbcf	-0.0104856035
72	0x3c9159cc	0.017743014
73	0x3d006dda	0.031354763
74	0x3cfd7225	0.030938217
75	0x3d014326	0.03155818
76	0x3bb28aab	0.0054486594
77	0xbd15124c	-0.036394402
78	0x3ab7df97	0.0014028427
79	0xbcd16447	-0.025560511
80	0xbd11fdb1	-0.03564233
81	0x3d13e801	0.036109928
82	0x3d032996	0.03202208
83	0xbd112d2f	-0.03544348
84	0x3c177033	0.009243059
85	0xbb7e54ca	-0.0038807862
86	0xbb7162ec	-0.0036832644
87	0xbc7c6055	-0.015403827
88	0x3c5fb937	0.0136549985
89	0xbcd58b09	-0.026067274
90	0x3c483698	0.012220047
91	0x3c965470	0.01835081
92	0x3cd11f25	0.025527546
93	0x3c4ef491	0.012631551
94	0xbd217ad5	-0.039423782
95	0xbccca236	-0.024979692
96	0x3cae2e15	0.021262208
97	0x3c32537c	0.010884162
98	0xbce330ec	-0.027733289
99	0xbcacebbf	-0.021108506
100	0x3d1847e7	0.037177946
101	0x3cdb97aa	0.026805717
102	0xbc8212ae	-0.015878048
103	0xbc406175	-0.011741986
104	0xbd2650c1	-0.040604357
105	0xbb83549f	-0.0040078904
106	0xbcfc8b7c	-0.03082823
107	0xbd03c603	-0.03217126
108	0xbb98fc36	-0.0046687378
109	0x3b66dab3	0.003522557
110	0xbc8be570	-0.017077178
111	0x3cbfc630	0.023409933
112	0xbcb637d2	-0.022243414
113	0x3d10bc45	0.035335798
114	0x3cd046bc	0.025424354
115	0xbd08208e	-0.03323417
116	0xbc2e8b58	-0.010653339
117	0x3a65bd6e	0.0008763884
118	0x3b277c63	0.0025556318
119	0x3b8f2081	0.0043678884
120	0x3c1aa7d2	0.009439426
121	0xbb288a01	-0.0025717022
122	0xbcca3378	-0.024682745
123	0x3c40b586	0.011762029
124	0xbd2f63c5	-0.042819757
125	0xbcdebf5c	-0.027190857
126	0xbc3a484f	-0.011369779
127	0xbc9f5e54	-0.019454159
128	0xbc7fbecc	-0.015609454
129	0xbd0fb9d6	-0.035089336
130	0xbc3bc82a	-0.011461297
131	0x3b966c1a	0.0045905234
132	0xbce26c02	-0.027639393
133	0xbbc38dd0	-0.005967833
134	0x3cb05bbf	0.021528123
135	0xbc277c98	-0.010222577
136	0xbba83fd8	-0.005134564
137	0xbc4431ba	-0.011974746
138	0xbb3f300c	-0.0029172925
139	0x3c6684ef	0.01406978
140	0x3ce70b89	0.028203743
141	0x3ca03ca8	0.019560173
142	0x3d0c0042	0.034179933
143	0xbbcf86f1	-0.006333225
144	0xbd246793	-0.04013784
145	0xbcc09727	-0.023509575
146	0x3cadf982	0.021237139
147	0xbb51d09c	-0.003201521
148	0xbcbcb0b4	-0.023033477
149	0xbd1039d1	-0.035211388
150	0xbd28cddc	-0.041211948
151	0xbd197a20	-0.037469983
152	0xbc785a59	-0.015158259
153	0x3c2b75da	0.01046511
154	0x3c105bbd	0.008810935
155	0xbd43f92c	-0.04784505
156	0x3c838b87	0.016057743
157	0xbd0d3530	-0.03447455
158	0xbc4c7943	-0.012480083
159	0xbcb49ca5	-0.02204735
160	0xbc55a449	-0.013039657
161	0xbc4e8bdf	-0.01260659
162	0xbd19d995	-0.037561018
163	0xbd15a82c	-0.036537334
164	0xbc291458	-0.010319792
165	0xbb6f239a	-0.0036489726
166	0xbcb05087	-0.021522773
167	0x3c1316cf	0.008977606
168	0xbd3060a6	-0.04306092
169	0xbc5770b6	-0.013149431
170	0x3cc90388	0.024537817
171	0xbcbd7514	-0.023127116
172	0x3cfaa2fa	0.030595291
173	0x3c33e2f4	0.010979403
174	0xbd2260bf	-0.039643046
175	0x3ca1ecfa	0.01976632
176	0xbc0ce6e5	-0.008599971
177	0xbc9ef1b6	-0.019402366
178	0x3cecc945	0.028904567
179	0xbd07aaa3	-0.033121716
180	0x3b3e4ca9	0.0029037392
181	0xbc23cb95	-0.009997268
182	0x3cbab244	0.022790082
183	0x3b754b18	0.0037428793
184	0x3c1dea42	0.009638371
185	0x3bcfe796	0.006344746
186	0xbc65f7ca	-0.014036128
187	0xbc2c6926	-0.010523116
188	0xbd0726cf	-0.032995995
189	0x3c95cbae	0.018285599
190	0x3ce39b47	0.027784003
191	0x3cbf447f	0.023348091
192	0xbce6d637	-0.028178317
193	0x3af1e5a7	0.0018455283
194	0xbcd6f36f	-0.026239125
195	0xbc9ce365	-0.019151399
196	0xbcaffc78	-0.021482691
197	0x3c35d679	0.011098498
198	0xbcdd8f83	-0.02704597
199	0xbbe5396e	-0.0069953715
200	0xbb645f68	-0.0034846906
201	0x3cb7d7e8	0.02244182
202	0xbcf2d594	-0.029642858
203	0xbcd6be39	-0.026213752
204	0xbcba0d67	-0.022711469
205	0x3cd7e0c4	0.026352294
206	0xbc780c63	-0.015139672
207	0x3d06582c	0.03279893
208	0x3c819c40	0.015821576
209	0x3c0551b7	0.008137158
210	0x3b24e6c0	0.0025161952
211	0xbbbe4f5b	-0.0058077998
212	0x3b84793e	0.0040427735
213	0xbc418f53	-0.011813956
214	0xbb9ecd48	-0.004846249
215	0x3a766876	0.0009399721
216	0xbd03a039	-0.032135222
217	0xbca50ce4	-0.020147748
218	0x3d02d5e1	0.031942252
219	0xbcfc1a9e	-0.03077441
220	0xbb0f1f9a	-0.0021838904
221	0x3d1c4287	0.038149383
222	0x3c7b08a9	0.015321889
223	0x3b72f3d2	0.0037071598
224	0xbcf14394	-0.02945117
225	0x3cb8b405	0.022546778
226	0xbcc31751	-0.023814829
227	0xbc0da1f2	-0.008644568
228	0xbc321310	-0.010868803
229	0xbba44fc7	-0.005014393
230	0x389bd2ef	7.4302654e-05
231	0x3d0391a2	0.03212131
232	0x3bc81f8b	0.006107276
233	0x3d14b12c	0.036301777
234	0x3ce82d01	0.028341772
235	0xbc893380	-0.01674819
236	0x3cbf8621	0.023379387
237	0xbca94ae5	-0.020665595
238	0xbc36a3d0	-0.011147454
239	0x3c56e79b	0.0131167425
240	0x3c91156f	0.017710416
241	0x3d0abe4c	0.033872887
242	0xbc0633d8	-0.008191071
243	0x3ba833b6	0.0051331175
244	0x3cc71be0	0.024305284
245	0xbd09c416	-0.033634268
246	0x3d028b12	0.03187091
247	0xbcdea482	-0.027178053
248	0x3bcdf789	0.006285612
249	0x3b24bb22	0.0025135954
250	0xbc056612	-0.008142011
251	0x3c771fec	0.015083294
252	0x3d254741	0.040351156
253	0xbb97b323	-0.004629509
254	0xbca113c8	-0.019662753
255	0xbbdf6994	-0.006818006

conv_list.0.bias f4 [8]
0	0x3bb439c9	0.0055000526
1	0xbd27806f	-0.04089397
2	0xbc679803	-0.0141353635
3	0x3cfe4d28	0.03104265
4	0xbd06a9c6	-0.032876752
5	0x3c2287c4	0.009920064
6	0x39a82ab4	0.00032075273
7	0xbd0a9e98	-0.033842653

conv_list.1.weight f4 [16, 8, 7, 7]
0	0x3bb6eecf	0.0055826674
1	0x3c8fe413	0.017564809
2	0x3ced8fc3	0.028999215
3	0x3af8ff07	0.0018996903
4	0x3cde8039	0.02716075
5	0xbc274023	-0.0102081625
6	0x3c45cd89	0.012072929
7	0x3c418cda	0.011813367
8	0xbd296144	-0.041352525
9	0xbc8a1fa5	-0.016860792
10	0xbd29fa7a	-0.04149864
11	0x3cecbce7	0.02889867
12	0x3c536d99	0.012904548
13	0xbce3d6bd	-0.027812356
14	0xbc32ed74	-0.010920871
15	0x3c387690	0.011258736
16	0xbd43c9d8	-0.047799915
17	0xbb503d7b	-0.0031774926
18	0x3c85f544	0.016352303
19	0xbb581376	-0.0032970584
20	0xbc29d32e	-0.010365291
21	0x3d04dff9	0.03244016
22	0x3cae4e9e	0.021277722
23	0xbd4023dd	-0.046909202
24	0x3cd7e4ba	0.026354183
25	0xbd3b86a3	-0.045782696
26	0x3cb4788a	0.022030134
27	0x3d16efb6	0.0368497
28	0x3bd3beac	0.006461939
29	0xbc860856	-0.016361397
30	0xbcdad6a1	-0.026713671
31	0xbccdb5c8	-0.025111094
32	0xbc8065de	-0.015673574
33	0xbccf5ea9	-0.025313692
34	0x3d3ddc18	0.046352476
35	0xbc947ba2	-0.018125359
36	0x3cbeb158	0.023277923
37	0xbd3d79e7	-0.046258833
38	0x3cacce84	0.021094568
39	0x3d17994e	0.037011437
40	0xbd277053	-0.040878605
41	0xbc6d1c85	-0.014472132
42	0x3c8fbe1e	0.01754671
43	0xbd3549ca	-0.044259824
44	0xbcf4ddb2	-0.029890869
45	0x3c6c7c39	0.014433914
46	0x3d301a27	0.04299369
47	0xbc97e50d	-0.018541837
48	0x3b5969cf	0.003317464
49	0xbd4b7f87	-0.049682166
50	0xbd476a11	-0.048685137
51	0x3d23986f	0.039940294
52	0x3d1e4ef1	0.038649503
53	0xbcac0e67	-0.021002961
54	0xbcd75ad8	-0.026288435
55	0xbc1f3e47	-0.009719438
56	0x3cc41e5a	0.023940254
57	0xbd4132d0	-0.0471676
58	0xbce8f213	-0.028435742
59	0xbc932c46	-0.017965447
60	0xbcc7b0c3	-0.024376279
61	0xbba25860	-0.004954383
62	0x3d04e013	0.032440256
63	0x3c30aa78	0.01078283
64	0xbd35abe2	-0.044353373
65	0x3d3b3f56	0.0457147
66	0x3d1b9d05	0.037991542
67	0x3c45bac4	0.012068454
68	0x3cab46a1	0.020907702
69	0x3c64ff9c	0.013976958
70	0x3d27a1cf	0.040925797
71	0xbd42e4ff	-0.04758167
72	0xbd041f2f	-0.0322563
73	0xbc1f5cb9	-0.009726697
74	0xbc739f24	-0.014869485
75	0xbd1c3438	-0.038135737
76	0xbd5a4246	-0.05328586
77	0xbd218831	-0.039436523
78	0xbc0c9548	-0.008580513
79	0x3d22c84b	0.039741796
80	0x3ce8be73	0.028411126
81	0x3bb06faf	0.0053844075
82	0xbd2370c8	-0.03990248
83	0xbcdc81fe	-0.026917454
84	0x3b39724a	0.0028296881
85	0xbd466bfa	-0.04844282
86	0xbbf418ca	-0.007449244
87	0x3b7b1f9a	0.0038318397
88	0x3d13c62d	0.036077667
89	0xbcad8489	-0.021181362
90	0x3d2a048f	0.041508254
91	0x3ac72748	0.0015194202
92	0xbd14db5b	-0.036342006
93	0x3d2da6ac	0.04239528
94	0x3d1f85f7	0.03894612
95	0xbd356c50	-0.044292748
96	0xbd11c5ee	-0.03558915
97	0x3c8a5ef8	0.016890988
98	0xbc82474b	-0.015903136
99	0x3d3ad17e	0.045609944
100	0xbc591a81	-0.013250948
101	0xbc219032	-0.009861039
102	0xbc7ff300	-0.015621901
103	0x3d1a8d71	0.037732545
104	0xbcf54019	-0.02993779
105	0x3b579243	0.0032893575
106	0x3d1e9893	0.038719725
107	0xbce976fc	-0.028499119
108	0x3b41debd	0.0029582225
109	0xbd2ded86	-0.042462848
110	0xbd6b00b9	-0.057373736
111	0xbcc3268a	-0.023822088
112	0x3ca0baaa	0.019620258
113	0x3d52a170	0.05142349
114	0xbd23580d	-0.039878894
115	0xbc3d47b0	-0.011552736
116	0x3c1661cc	0.00917859
117	0x3c4b2c2c	0.012400668
118	0x3cb2e35f	0.021836935
119	0xbcd0283a	-0.025409807
120	0xbb18fb9a	-0.0023343326
121	0x3c9dc6e5	0.01925988
122	0xbd1d36d9	-0.038382385
123	0x3cb5a053	0.022171175
124	0xbd587723	-0.052847993
125	0x3cd65759	0.026164697
126	0x3cf32ac1	0.029683473
127	0xbb5368d0	-0.0032258518
128	0x3cb6fbd4	0.022336878
129	0x3d32ef13	0.04368503
130	0x3d0bbd36	0.034115992
131	0x3cd8b995	0.02645568
132	0xbd0912e0	-0.033465266
133	0x3cdc99dc	0.026928835
134	0x3d3de9b4	0.046365455
135	0x3c7890b0	0.015171215
136	0x3d1025c5	0.03519227
137	0xbd084df4	-0.033277467
138	0x3d04790f	0.032342013
139	0xbba2c87f	-0.0049677487
140	0xbce00f65	-0.02735109
141	0x3a2cf490	0.0006597722
142	0x3d6595ee	0.056051187
143	0xbc2fbd91	-0.0107263485
144	0xbbbd4a76	-0.0057766987
145	0xbc92f56b	-0.01793929
146	0xbcce43d5	-0.02517883
147	0x3b833009	0.004003529
148	0x3cd2f008	0.025749221
149	0x3895a3cb	7.1353825e-05
150	0xbc2bc503	-0.010483983
151	0xbbd3f11c	-0.0064679515
152	0xbd455df3	-0.0481853
153	0xbd1956c7	-0.037436273
154	0xbb8bc7cb	-0.0042657605
155	0xbd392212	-0.045198508
156	0x3ca0966b	0.019602975
157	0x3a4a23c4	0.0007711018
158	0xbc0df3cf	-0.0086640855
159	0xbc63b51e	-0.013898162
160	0x3cf2f043	0.029655581
161	0x3d2002d1	0.039065186
162	0x3c8c86d6	0.017154139
163	0x3ca1ccb5	0.019750932
164	0xbcf9a564	-0.030474372
165	0x3c4a86e4	0.012361262
166	0xbd3bf698	-0.045889467
167	0x3c27a7f3	0.010232913
168	0xbd28c991	-0.041207854
169	0xbbd5e35b	-0.006527347
170	0x3d033d21	0.03204072
171	0x3cea3abc	0.02859246
172	0x3d1ce154	0.038300827
173	0x3c207275	0.009792914
174	0x3c28db5b	0.010306205
175	0x3c3ab33e	0.011395274
176	0x3d0c5b53	0.03426678
177	0x3cccc954	0.024998344
178	0x3c4f8e6b	0.012668232
179	0xbca93664	-0.020655818
180	0xbceaeb70	-0.028676718
181	0xbc9e06a4	-0.019290276
182	0x3ce8d0b5	0.028419832
183	0xbcc1a385	-0.023637543
184	0x3c881d0f	0.016615419
185	0x3d3ba99f	0.04581606
186	0x3d2f965d	0.042868007
187	0xbd1daaa7	-0.038492825
188	0x3c4bcf7b	0.012439604
189	0x3d20302d	0.039108444
190	0xbd261fd4	-0.040557697
191	0x3d14546a	0.036213316
192	0xbce78bb0	-0.02826485
193	0xbd0f9057	-0.035049763
194	0xbcb27061	-0.021782102
195	0xbca591bc	-0.020211093
196	0xbd20769e	-0.039175622
197	0xbba4cfe8	-0.005029667
198	0xbb7515e9	-0.0037397093
199	0xb9c8e932	-0.00038320717
200	0x3c863188	0.01638104
201	0xbd4d74f1	-0.050160352
202	0xbd85b4c5	-0.0652862
203	0xbd71cdd6	-0.05903419
204	0xbd41a0ec	-0.047272608
205	0xbd31ecd4	-0.043438748
206	0x3b08cec4	0.0020875195
207	0xbd6525df	-0.05594432
208	0xbd637cdd	-0.055539
209	0x3c16577e	0.009176133
210	0xbd50499e	-0.050851457
211	0xbc226fab	-0.009914319
212	0xbd6e97ab	-0.05825011
213	0xba5f5066	-0.0008518755
214	0x3c3f7ac1	0.011686982
215	0xbd7c73c8	-0.061633855
216	0xbaa59277	-0.0012632151
217	0xbd3a1636	-0.04543134
218	0x3c4fc7f8	0.012681954
219	0x3cd46602	0.025927547
220	0xbd7f3d39	-0.062314246
221	0xba24c6b4	-0.00062857126
222	0x3c714e56	0.014728149
223	0x3cdf88dd	0.027286941
224	0x3c9c4814	0.019077338
225	0xbc151885	-0.009100084
226	0xbc82a2bb	-0.015946737
227	0xbc4750e5	-0.012165283
228	0xbd55045a	-0.052006103
229	0xbce7d2a9	-0.028298693
230	0xbc9730cc	-0.018455885
231	0xbd505226	-0.050859593
232	0xbcab9a21	-0.020947518
233	0xbce9a7b8	-0.028522357
234	0xbd233aa0	-0.03985083
235	0xbd170472	-0.036869474
236	0xbd89b8ee	-0.06724726
237	0x3d029945	0.03188445
238	0x3c035e15	0.008018036
239	0x3ca1c09a	0.01974516
240	0xbd73ad3f	-0.059491392
241	0xbd8e3c8c	-0.06945142
242	0x3cac7b57	0.021054907
243	0xbcc0db1b	-0.023541978
244	0xbbcb24f5	-0.006199474
245	0x3d0dc8eb	0.03461544
246	0x3bb28a96	0.0054486496
247	0xbb0c3920	-0.0021396354
248	0x3cf96a0c	0.030446075
249	0x3d33258f	0.04373699
250	0xbbdbc8bd	-0.0067072795
251	0xbd052f19	-0.03251562
252	0xbcab1e98	-0.020888612
253	0x3d14d938	0.03633997
254	0x3b004e1f	0.0019577814
255	0x3d2c4610	0.042059004

conv_list.1.bias f4 [16]
0	0xbad0ca3e	-0.0015929413
1	0x3ba82261	0.0051310514
2	0xbc5a2492	-0.013314383
3	0xbcc350f8	-0.02384232
4	0x3d44525a	0.0479301
5	0xbca6d761	-0.020366373
6	0xbc95b512	-0.018274818
7	0x3d1ac9e6	0.0377902
8	0x3d296508	0.041356117
9	0xbc9020a9	-0.017593699
10	0xbc99afb0	-0.018760532
11	0xbd19ef28	-0.037581593
12	0x3cd01cef	0.025404422
13	0xbc12a00b	-0.00894929
14	0xbca631da	-0.020287443
15	0xbd2bbc8d	-0.041927863

conv_list.2.weight f4 [32, 16, 5, 5]
0	0xbc8a519b	-0.016884616
1	0x3c904b7d	0.01761412
2	0xbd41bec6	-0.047301076
3	0x3caf474a	0.021396298
4	0xbd33a195	-0.04385527
5	0x3d312cd5	0.043255646
6	0xbd167f26	-0.036742352
7	0x3d20b2f3	0.03923316
8	0xbc591788	-0.013250239
9	0x3caee4d4	0.021349348
10	0xbc194577	-0.009354941
11	0xbcdf6215	-0.027268449
12	0xbc696f76	-0.014247766
13	0x3c835f32	0.016036604
14	0x3ca0862f	0.019595234
15	0x3d2a6764	0.041602507
16	0x3b41dc38	0.0029580723
17	0x3c894f7c	0.016761534
18	0x3d0263ec	0.031833574
19	0xbcc80e27	-0.02442081
20	0xbc27ccfc	-0.010241743
21	0x3d029fce	0.031890683
22	0xbc084317	-0.008316777
23	0x3c8d4ff7	0.017250044
24	0x3cb4eba6	0.022085022
25	0xbbf76fcb	-0.0075511686
26	0xbc97285e	-0.018451866
27	0x3d17bfe5	0.03704824
28	0x3c11717c	0.008877154
29	0xbd5898f8	-0.052880257
30	0xbd3d8a4d	-0.046274472
31	0xbc4aea5e	-0.012384979
32	0xbd22276e	-0.039588384
33	0x3ce781ff	0.02826023
34	0x3d03fc8a	0.032223262
35	0x3d05592c	0.032555744
36	0x3d14ac2a	0.036297
37	0x3ce134b2	0.027490947
38	0x3cfabea5	0.030608485
39	0xbac22d7f	-0.0014814584
40	0x3d3b63b7	0.045749392
41	0x3c6baf45	0.014385049
42	0x3c93062f	0.017947285
43	0xbd05f25e	-0.032701842
44	0x3cb17aac	0.02166494
45	0xbcffa884	-0.031208284
46	0x3bc7682f	0.0060854177
47	0xbcea3c7a	-0.02859329
48	0x3b97dfa8	0.004634816
49	0x3c360d1f	0.011111527
50	0xbcaa68b4	-0.02080188
51	0x3d14c4d9	0.03632054
52	0xbd5fb97f	-0.054620262
53	0xbd5ffc3c	-0.05468391
54	0x3a3dae17	0.0007235719
55	0xbd3f39b7	-0.0466859
56	0xbd3c77c2	-0.046012647
57	0xbd1db80f	-0.03850561
58	0x3d0e33c8	0.03471735
59	0xbd0d78e5	-0.034539122
60	0xbd58e4a7	-0.052952435
61	0x3cc1aba7	0.02364142
62	0xbd2246cf	-0.03961831
63	0xbc0cf2f6	-0.008602848
64	0xbcff144e	-0.031137612
65	0x3b4e95b2	0.003152233
66	0x3cf9a655	0.030474821
67	0xbd1e4f9b	-0.038650136
68	0xbd266e3a	-0.040632464
69	0x3c9b5d81	0.018965485
70	0xbd2b27ad	-0.041785885
71	0x3bd6800a	0.006546025
72	0x3cb1cd65	0.021704385
73	0x3d02d7da	0.031944133
74	0x3b4ae468	0.0030958895
75	0x3d1ccee3	0.03828324
76	0xbccb057e	-0.024782892
77	0x3c8e9173	0.01740334
78	0xbcbc41bf	-0.022980569
79	0xbd0a6602	-0.03378869
80	0x3b94ee9c	0.004545046
81	0x3c6f8f9b	0.014621641
82	0x3c43d7be	0.011953292
83	0x3cd35350	0.025796562
84	0xbbda9106	-0.00667012
85	0x3c1a5213	0.009418982
86	0x3cbb67d0	0.02287665
87	0xbd3651fc	-0.04451178
88	0xbc792208	-0.015205868
89	0x3ccb9c7d	0.024854893
90	0xbc86de35	-0.016463378
91	0x3d01d0fb	0.03169344
92	0x3c782712	0.015146034
93	0xbcc9e360	-0.024644554
94	0x3d0d21f6	0.034456216
95	0xbcb3b052	-0.021934662
96	0x3cd3d474	0.025858141
97	0x3d0e01eb	0.034669798
98	0x3cf263eb	0.02958866
99	0x3d15b86e	0.03655284
100	0x3c42d58c	0.011891734
101	0xbd128e32	-0.03578014
102	0x3d3122eb	0.04324619
103	0x3be17b06	0.0068811206
104	0xbc93c524	-0.01803834
105	0x3acf4ba6	0.0015815392
106	0xbcad64db	-0.021166256
107	0x3ce88c60	0.028387249
108	0xbd338640	-0.043829203
109	0x3ce009ec	0.027348481
110	0xbd14810e	-0.03625589
111	0xbc671ab5	-0.014105489
112	0x3d2e44f1	0.042546216
113	0xb9d90382	-0.0004139208
114	0x3d2dc557	0.042424526
115	0x3d5935b1	0.05302972
116	0xbb4abf38	-0.003093673
117	0x3c41c3d2	0.011826472
118	0xbce04096	-0.027374547
119	0xbb5c76ab	-0.0033640068
120	0x3d0ebfb3	0.034850787
121	0x3a3e93a4	0.0007269925
122	0x3d6065d4	0.05478461
123	0x3d273ad3	0.040827584
124	0x3d444a26	0.047922276
125	0x3ce3cb7d	0.027806992
126	0xbb5313a9	-0.0032207763
127	0xbc076eff	-0.00826621
128	0xbc86cfb4	-0.016456462
129	0x3d1b3161	0.03788889
130	0x3ce66f48	0.028129235
131	0xbd28a062	-0.041168578
132	0x3c2977da	0.010343516
133	0xbc925969	-0.0178649
134	0x3d112497	0.035435285
135	0xbcfaf608	-0.030634895
136	0xbd1f1345	-0.038836736
137	0x3c1a9ff8	0.009437554
138	0xbd17489f	-0.03693449
139	0x3d1c766f	0.038198885
140	0x3d31a6ef	0.04337209
141	0xbd129702	-0.035788544
142	0xbc189f44	-0.009315316
143	0xbc0c4998	-0.008562468
144	0xbd4f6797	-0.0506359
145	0xbd1ed6fd	-0.038779248
146	0x3d3e16a6	0.046408318
147	0x3d178623	0.036993157
148	0xbc9a22a7	-0.018815352
149	0x3c84cca0	0.016210854
150	0xbc503017	-0.012706778
151	0x3c18fae3	0.00933716
152	0x3afa19d3	0.0019081183
153	0x3cab5efa	0.020919312
154	0xbcb76fb9	-0.02239214
155	0x3d2345d9	0.039861534
156	0xbc15541f	-0.009114294
157	0x3d48bcb1	0.049008075
158	0xbce29020	-0.027656615
159	0xbbe9182c	-0.007113477
160	0x3d099695	0.03359087
161	0xbd3d8b1c	-0.046275243
162	0x3c30594c	0.0107634775
163	0x3cc30a22	0.023808543
164	0x3afbffe3	0.001922604
165	0xbd2447b9	-0.040107463
166	0xbd02934a	-0.031878747
167	0x3cc2fbad	0.023801649
168	0xbd3d4552	-0.046208687
169	0xbcc0acde	-0.02351993
170	0x3cffd25d	0.031228239
171	0xbc5b2e07	-0.013377673
172	0xbd42af26	-0.047530316
173	0xbc9396b5	-0.018016199
174	0x3c53dcb5	0.012931039
175	0xbc2faba5	-0.010722076
176	0xbc6cc856	-0.014452061
177	0xbc89f5ea	-0.016840894
178	0x3d5783b3	0.052615833
179	0x3d42254a	0.047398843
180	0xbcaa0011	-0.020751985
181	0x3d3692bc	0.04457353
182	0x3d7375ca	0.059438504
183	0xbc132a6f	-0.008982285
184	0x3ce51425	0.027963707
185	0xbd094270	-0.033510625
186	0x3d61933d	0.055072058
187	0xbc454fa3	-0.012042913
188	0xbcf3758c	-0.029719137
189	0xbc9c75b1	-0.019099088
190	0xbd042ca3	-0.03226913
191	0x3d79bae9	0.060969267
192	0xbcdb16c4	-0.026744254
193	0xbcc903a5	-0.02453787
194	0x3d019026	0.03163161
195	0x3d3f159b	0.046651464
196	0xbba5c00e	-0.005058295
197	0x3d3559e4	0.04427518
198	0x3c66e5c3	0.014092865
199	0xbc879ee5	-0.016555259
200	0x3c6c113d	0.014408407
201	0x3c857c9a	0.016294766
202	0xbd62d03d	-0.055374373
203	0xbd57bc21	-0.052669648
204	0xbc7fe48a	-0.015618453
205	0xbd3da783	-0.04630233
206	0xbd3d6cbd	-0.04624628
207	0xba83843e	-0.0010033918
208	0xbba9c141	-0.0051805084
209	0x3c09c36d	0.00840841
210	0xbd139828	-0.03603378
211	0xbcf9cddb	-0.030493667
212	0xbd67cd36	-0.05659219
213	0x3c9a82c5	0.018861184
214	0xbd56e517	-0.05246457
215	0x3b2d0502	0.002640069
216	0x3cf0345b	0.02932184
217	0x3c38c88e	0.011278285
218	0x3ca97cc9	0.020689385
219	0x3d06c683	0.03290416
220	0xbbd5ff07	-0.006530646
221	0xbce5642a	-0.028001864
222	0xbc02122e	-0.007938905
223	0xbd45a77e	-0.048255436
224	0xbd25e369	-0.04050008
225	0x3cde44ab	0.027132353
226	0x3d12244f	0.035679158
227	0x3cd10b20	0.025518
228	0xbd12240a	-0.0356789
229	0xbcd09d1f	-0.025465546
230	0x3d370c43	0.044689428
231	0x3bee9f26	0.0072821556
232	0xbcf67062	-0.030082885
233	0x3c9d83c3	0.019227868
234	0x3d1e08e6	0.038582705
235	0x3d0825c4	0.03323914
236	0x3d2269a0	0.039651513
237	0xbc786f38	-0.015163235
238	0x3d1d72fe	0.038439743
239	0xbcca35d6	-0.024683874
240	0x3cff8a6d	0.031193936
241	0xbd0579c4	-0.032586828
242	0x3befcc50	0.007318057
243	0x3d5e11c9	0.05421618
244	0x3d3eef3a	0.046614863
245	0x3d037d3e	0.032101862
246	0x3c332266	0.010933494
247	0x3d138a67	0.036020663
248	0x3c6cb99c	0.01444855
249	0x3d572b59	0.052531574
250	0x3d2b054c	0.0417531
251	0x3d7b9838	0.061424464
252	0xbbf887c0	-0.007584542
253	0x3d068e6d	0.03285067
254	0x3d3365cd	0.043798257
255	0x3d247d91	0.040158812

conv_list.2.bias f4 [32]
0	0xbcb68c50	-0.022283703
1	0x3bedd654	0.007258216
2	0xbd0a63a2	-0.033786424
3	0xbd2b46e1	-0.041815642
4	0x3bab97f7	0.0052366215
5	0xbc77cbca	-0.015124271
6	0x3cfbe5e9	0.030749278
7	0xbcc6b955	-0.024258295
8	0x3c8bd1ff	0.017067907
9	0x3c84301c	0.016136222
10	0x3d0f4574	0.034978345
11	0x3d02cb2b	0.031932037
12	0xbd0646c5	-0.032782335
13	0x3c1c6857	0.009546361
14	0xbd4ae862	-0.049538024
15	0x3c985a11	0.018597635
16	0x3ccc94f0	0.024973363
17	0x3bc5e6a4	0.0060394574
18	0x3d032370	0.032016218
19	0x3d4506a4	0.048102036
20	0xbcf8a0fa	-0.030350197
21	0xbc000fc2	-0.007816257
22	0xbd24fbaa	-0.040279068
23	0xbb9c9bdc	-0.004779322
24	0x3c890ef7	0.016730769
25	0xbc9f5a93	-0.019452369
26	0xbd1f6261	-0.03891218
27	0xbd147a73	-0.03624959
28	0x3aeb8458	0.0017968519
29	0x3d25ab44	0.040446535
30	0x3c87bd46	0.016569745
31	0xbd42e046	-0.047577165

conv_list.3.weight f4 [64, 32, 3, 3]
0	0x3c9902f7	0.018678172
1	0x3cc811d6	0.024422567
2	0xbd661317	-0.05617055
3	0x3cb1ef1a	0.021720458
4	0x3d337e99	0.043821905
5	0xbd102bcc	-0.035198018
6	0xbd2ae3a1	-0.04172099
7	0xbc9dca7d	-0.019261593
8	0x3ca5074e	0.020145085
9	0x3c6a915c	0.014316883
10	0xbbb7b7db	-0.005606634
11	0x3c9442b7	0.018098218
12	0xbd0e6715	-0.034766275
13	0xbca4a15e	-0.020096477
14	0xbd54956c	-0.051900312
15	0x3d842832	0.06452979
16	0xbc982a23	-0.01857478
17	0x3b942ff3	0.0045223176
18	0x3d343af0	0.04400152
19	0xbd018cd2	-0.031628437
20	0x3b79289b	0.0038018588
21	0xbd1f12a0	-0.03883612
22	0xbbc403f4	-0.0059819166
23	0xbc32f5b2	-0.010922836
24	0xbd0e25c2	-0.034703977
25	0xbd729bf9	-0.05923078
26	0xbd689b01	-0.05678845
27	0xbdb413da	-0.08792849
28	0x39e76d0c	0.00044141
29	0xbcb85173	-0.022499776
30	0xb9026232	-0.00012434347
31	0xbd236f13	-0.03990085
32	0xbd45e5da	-0.048314907
33	0xbae15172	-0.001719041
34	0xbd9ef7df	-0.077621214
35	0xbd81b31a	-0.06332989
36	0x3d050ddc	0.03248392
37	0xbd607fb0	-0.054809272
38	0xbcb34ed3	-0.021888172
39	0xbc382304	-0.011238817
40	0x3c515360	0.012776226
41	0xbc4833a1	-0.012219341
42	0xbc804a0b	-0.015660306
43	0xbd3f913e	-0.046769373
44	0x3bbc6b2d	0.005750081
45	0x3d22b8f7	0.039727177
46	0x3d203cdc	0.03912054
47	0xbcac35f3	-0.021021819
48	0xbcf7e6b1	-0.03026137
49	0xb9aa26e3	-0.000324539
50	0x3cb49c4f	0.02204719
51	0x3beae2c5	0.0071681463
52	0xbd024ce0	-0.031811595
53	0x3c47f648	0.012204714
54	0x3d1beb12	0.038065977
55	0xbc1d6e0c	-0.009608757
56	0x3d5c1557	0.05373129
57	0x3d586c93	0.05283792
58	0xbcbcf0a3	-0.023063963
59	0xbadf5bfd	-0.0017040964
60	0x3c01fa1f	0.007933169
61	0x3cdd34ab	0.027002653
62	0x3d1eca58	0.03876719
63	0x3ce86829	0.02836998
64	0x3ce0c9be	0.027439948
65	0xbd2a1e26	-0.041532658
66	0x3b3ce648	0.0028823782
67	0xbd44d9c2	-0.048059233
68	0x3b170e3f	0.0023049263
69	0x3bf4f859	0.0074758944
70	0x3ce95423	0.028482502
71	0xbc045d02	-0.008078815
72	0x3b37b20f	0.0028029715
73	0x3a868e3d	0.0010265779
74	0xbd35a860	-0.044350028
75	0x3ceda061	0.029007139
76	0xbd12a534	-0.03580208
77	0x3d499827	0.04921737
78	0x3ce34052	0.027740631
79	0xbbb45e4f	-0.0055044065
80	0x39e78829	0.000441612
81	0xbd57d225	-0.052690644
82	0xbd3a301d	-0.04545604
83	0xbd5b49b1	-0.053537074
84	0x3cce5f02	0.025191788
85	0xbce62cf4	-0.028097607
86	0xbca06e0a	-0.01958372
87	0xbc9a7d9b	-0.018858721
88	0x3d09ea88	0.033670932
89	0xbcae5041	-0.021278502
90	0x3c366e0e	0.0111346375
91	0x3b3bb537	0.0028641948
92	0x3cd8e06b	0.026474198
93	0x3c63a352	0.013893919
94	0x3d0716ac	0.032980606
95	0x3d14e284	0.036348835
96	0x3baaabdd	0.005208476
97	0x3d4328f3	0.047646474
98	0x3d0767df	0.033058044
99	0x3c679756	0.014135202
100	0xbd5b8ae4	-0.053599253
101	0x3cf844ac	0.030306183
102	0xbce5d62f	-0.028056232
103	0x3ca45788	0.02006127
104	0x3c2727df	0.010202377
105	0xbd17058a	-0.036870517
106	0x3cb153f8	0.021646485
107	0xbce389cb	-0.027775666
108	0xbd28b55e	-0.04118859
109	0x3a902efe	0.0011000333
110	0xbceb5522	-0.028727118
111	0xbc35e06f	-0.011100872
112	0xbcece046	-0.028915536
113	0x3d545790	0.05184132
114	0x3d0460bb	0.032318812
115	0x3d722df4	0.059125856
116	0xbcfb050d	-0.030642057
117	0x3cc34e5f	0.023841081
118	0x3d0c30cd	0.034226228
119	0x3c3fb06b	0.011699776
120	0xbc4d38a1	-0.012525708
121	0x3b21d7c2	0.0024695252
122	0x3d374890	0.044746935
123	0x3d534e56	0.05158838
124	0x3bb9b795	0.0056676366
125	0x3c86914a	0.016426701
126	0xbd1c9975	-0.038232286
127	0x3d023104	0.031785026
128	0x3cc1369b	0.023585608
129	0x3c9f3168	0.019432738
130	0x3ceaa78d	0.028644348
131	0x3ce06a85	0.027394542
132	0x3ace9815	0.0015761877
133	0x3d7966a4	0.0608889
134	0xbd3938e6	-0.04522028
135	0xbd19eae7	-0.037577536
136	0x3d1d8f73	0.038466882
137	0x3d59af62	0.053145774
138	0xbd469630	-0.048483074
139	0x3cc3a947	0.023884429
140	0x3d0cab54	0.03434308
141	0xbc45cbb8	-0.012072496
142	0xbcc8e7e8	-0.024524644
143	0xbc09ed78	-0.008418433
144	0xbda4355a	-0.080179885
145	0xbd961b30	-0.07329404
146	0xbdb491a7	-0.088168435
147	0xbda325e7	-0.07966214
148	0x3b3da0ba	0.0028934912
149	0xbc8535d0	-0.016261011
150	0x3b1f13f9	0.002427338
151	0xbd118cf6	-0.03553482
152	0xbd6a2e83	-0.057173263
153	0xbd4e4a60	-0.0503639
154	0xbc5e1b5f	-0.01355633
155	0x3d4b8aee	0.04969304
156	0x3d2b1486	0.04176762
157	0xbd59d10e	-0.053177886
158	0xbd4c68a7	-0.04990449
159	0x3c896f44	0.016776688
160	0xbcde5bf3	-0.027143454
161	0x3d46ba44	0.04851748
162	0xbcc3218f	-0.023819713
163	0x3c781e60	0.015143961
164	0xbc30b516	-0.010785362
165	0xbce32541	-0.027727725
166	0x3cab27f6	0.020893078
167	0xbbc34c5d	-0.005960031
168	0xbd097b96	-0.033565126
169	0xbcc94093	-0.024566924
170	0x3c869401	0.016427996
171	0xbd9a60c0	-0.07537985
172	0xbd4e6c2f	-0.05039614
173	0xbb557052	-0.0032568169
174	0xbd624a6c	-0.055246755
175	0x3d0e925f	0.03480756
176	0xbd671958	-0.056420654
177	0xbc997ea2	-0.018737141
178	0xbd4f9666	-0.05068054
179	0x3c6b2aeb	0.014353494
180	0xbcc22158	-0.02369754
181	0xbc408614	-0.011750717
182	0xbd0835ae	-0.033254318
183	0x3c855442	0.016275529
184	0x3c8d77da	0.017269064
185	0xbd1c1f79	-0.038115952
186	0xbdb99688	-0.09061915
187	0x3cd8b3c8	0.026452914
188	0xbd7b808a	-0.06140188
189	0xbd9eba08	-0.077503264
190	0xbc808256	-0.015687149
191	0xbd19cee6	-0.03755083
192	0xbdaa050a	-0.083017424
193	0xbd1e0b47	-0.038584974
194	0xbbc87cc6	-0.00611839
195	0xbd89c72f	-0.067274444
196	0xbdabcd34	-0.08388749
197	0xbcac0a12	-0.021000896
198	0xbd12e4d7	-0.03586277
199	0xbd659a61	-0.05605543
200	0x3ce08186	0.027405512
201	0x3cb0f1fd	0.021599764
202	0xbd194be1	-0.03742588
203	0xbc3f0cf2	-0.011660801
204	0xbd207c06	-0.039180778
205	0x3c837cd7	0.01605074
206	0xbd1cb92c	-0.03826253
207	0xbd5f07fd	-0.054450978
208	0xbce40a50	-0.027836949
209	0x3c13bb47	0.009016818
210	0x3ce7a259	0.028275656
211	0xbd45490d	-0.04816537
212	0xbcd47bd6	-0.025937956
213	0x3c8a62b2	0.016892765
214	0xbc290204	-0.010315422
215	0x3d021e00	0.03176689
216	0xbd9113a6	-0.07083826
217	0xbd3840f8	-0.044983834
218	0xbd41bd4f	-0.04729968
219	0xbd75d742	-0.06001974
220	0xbbcfd96b	-0.006343057
221	0xbd9a7cb7	-0.07543319
222	0x3cc4ac4b	0.024007937
223	0xbc0f4885	-0.008745317
224	0xbcfaade7	-0.030600501
225	0x3d90ecb9	0.07076401
226	0x3cde6fa9	0.027152853
227	0xbce57dab	-0.028014025
228	0xbb14f9c6	-0.0022731884
229	0x3d64d512	0.055867262
230	0x3c5e59d9	0.013571226
231	0x3bde3d6d	0.006782225
232	0xbcae3fda	-0.021270681
233	0x3d058ee4	0.032606974
234	0xbd8573dc	-0.06516239
235	0xbd9e1d25	-0.07720403
236	0xbd750d8b	-0.05982737
237	0xbdb9d696	-0.09074132
238	0xbc814522	-0.015780035
239	0xbd1978fc	-0.037468895
240	0x3c3e5443	0.011616769
241	0xbd5ab37d	-0.05339383
242	0x3c4f6730	0.012658879
243	0x3ccaef2a	0.024772245
244	0xbc24781b	-0.010038401
245	0x3daaac5a	0.08333655
246	0x3c7be6b2	0.015374826
247	0xbc02ed8b	-0.007991205
248	0x3d3f7b7a	0.046748616
249	0x3d5ad62a	0.0534269
250	0x3d6c0393	0.057620596
251	0x3c571f5e	0.013130037
252	0x3d027ee5	0.031859297
253	0x3c0184e6	0.007905221
254	0x3cfdba3a	0.030972589
255	0x3d77a607	0.06046107

conv_list.3.bias f4 [64]
0	0xbcce4e37	-0.02518378
1	0xbc001835	-0.007818271
2	0xbcf57864	-0.029964633
3	0xbc01d669	-0.0079246545
4	0x3d57852d	0.05261724
5	0x3c109fa9	0.008827128
6	0x3cfd2af6	0.030904274
7	0xbc2eeac1	-0.010676087
8	0xbd3f19d0	-0.046655476
9	0x3d18b55d	0.037282337
10	0x3ca1ab7a	0.019735087
11	0x3cae4ba9	0.021276312
12	0x3cc631b8	0.02419363
13	0x3d19b972	0.03753037
14	0x3d65c2be	0.056093924
15	0x3c18015c	0.009277668
16	0x3b3b30cf	0.0028563028
17	0xbc9f196b	-0.0194213
18	0x3cb6878d	0.022281433
19	0x3c85a0ae	0.01631197
20	0xbcb62411	-0.022233995
21	0x3c347081	0.011013151
22	0xbbab1ba6	-0.005221802
23	0xbcfe9c3f	-0.031080363
24	0x3cf21648	0.02955164
25	0x3cf00589	0.029299514
26	0xbcf09050	-0.029365689
27	0xbcc46912	-0.023975883
28	0x3d15147e	0.036396496
29	0x3c88e76a	0.01671191
30	0xbd040d3c	-0.032239184
31	0xbc26f196	-0.0101894345
32	0x3d17b57a	0.037038304
33	0xbd265d70	-0.040616453
34	0xba840180	-0.0010071248
35	0xbd3b160e	-0.04567533
36	0x3d50dbe6	0.05099096
37	0xbd0a029d	-0.0336939
38	0xbc4c6041	-0.012474121
39	0xbd382ea3	-0.04496635
40	0xbd102b15	-0.035197336
41	0x3d166ce4	0.03672494
42	0x3ceedd12	0.029158149
43	0xbcf153d4	-0.029458918
44	0x3c7a081b	0.015260722
45	0xbd0d43c3	-0.03448845
46	0x3d14a65e	0.036291473
47	0xbd4852e4	-0.048907176
48	0xbd506395	-0.05087622
49	0xbd3e0b5b	-0.04639755
50	0xbcbb4a02	-0.022862438
51	0xbd585693	-0.05281694
52	0xbcadb7eb	-0.021205863
53	0xbd2b5079	-0.04182479
54	0xbc1f9f8f	-0.009742632
55	0x3d63c44b	0.05560712
56	0xbcdbfe6e	-0.02685472
57	0xbd4758ac	-0.04866855
58	0xbcf01aa3	-0.029309576
59	0xbbe72edf	-0.007055148
60	0xbcbd52bf	-0.023110745
61	0x3d721fbc	0.059112296
62	0x3d3b3e12	0.04571349
63	0xbd38f81d	-0.045158494

batchnorm_list.0.weight f4 [8]
0	0x3f81646a	1.0108769
1	0x3f7ba1d4	0.98293805
2	0x3f752552	0.9576007
3	0x3f80164d	1.0006806
4	0x3f817bce	1.0115907
5	0x3f8106cd	1.00802
6	0x3f7eca9f	0.99527925
7	0x3f821ce8	1.0165071

batchnorm_list.0.bias f4 [8]
0	0xbcc81c18	-0.024427459
1	0xbcbfecaa	-0.02342828
2	0xbcf0f05b	-0.029411485
3	0xbca95163	-0.020668691
4	0x3d5fdd8f	0.054654654
5	0x3ccaaf9f	0.024741946
6	0xbc03cb51	-0.00804408
7	0x3d9aceac	0.07558951

batchnorm_list.0.running_mean f4 [8]
0	0x3f7275a7	0.94710773
1	0xbd6ba9f0	-0.057535112
2	0xbe77a29a	-0.24183121
3	0x3f3a99a1	0.7289067
4	0xbfbbc375	-1.4669024
5	0xbd40a26d	-0.0470299
6	0xbd908c49	-0.07058007
7	0xbfc6626b	-1.5498785

batchnorm_list.0.running_var f4 [8]
0	0x3e399bf2	0.18125895
1	0x3c9edce4	0.019392438
2	0x3d5adb01	0.053431515
3	0x3dca2d9a	0.09871979
4	0x3ec5b9ed	0.38618413
5	0x3c97bb96	0.018522065
6	0x3d018914	0.03162487
7	0x3ec5e471	0.3865085

batchnorm_list.1.weight f4 [16]
0	0x3f7d6c05	0.9899295
1	0x3f7d747d	0.9900587
2	0x3f77a7d1	0.9674044
3	0x3f77c452	0.96783936
4	0x3f7fc0fc	0.99903846
5	0x3f790e6f	0.9728765
6	0x3f7a3c50	0.9774828
7	0x3f80ee5d	1.0072743
8	0x3f80e1bb	1.0068887
9	0x3f82d3ec	1.0220923
10	0x3f7a643e	0.9780921
11	0x3f821989	1.0164043
12	0x3f80318d	1.0015122
13	0x3f847666	1.0348632
14	0x3f7bc698	0.98349905
15	0x3f7fbfe5	0.9990218

batchnorm_list.1.bias f4 [16]
0	0x3d038847	0.032112386
1	0xbbff4db7	-0.0077912468
2	0xbc44928f	-0.011997833
3	0xbc5899d8	-0.013220273
4	0xbcf9b465	-0.030481527
5	0x3d224585	0.03961708
6	0xbcafa7d1	-0.021442326
7	0xbd529a56	-0.051416717
8	0x3d97bc23	0.07408931
9	0xbbdf9268	-0.006822873
10	0xbd8033c0	-0.062598705
11	0xbda69987	-0.08134752
12	0x3ce10146	0.027466428
13	0xbcd2ac9f	-0.025717078
14	0xbc93b2ce	-0.018029597
15	0x3c52927a	0.012852306

batchnorm_list.1.running_mean f4 [16]
0	0xbf55dcf2	-0.8354026
1	0x3e2895f8	0.16463459
2	0x3c9834f6	0.018579941
3	0x3e269e6e	0.16271374
4	0x3ed0064d	0.40629807
5	0x3fbf4502	1.4942935
6	0x3e0f7fe8	0.14013636
7	0x3e410fe8	0.18853724
8	0x3f9cc818	1.2248564
9	0xbfda49a2	-1.7053721
10	0x3ea35478	0.31900382
11	0xbfd3030e	-1.6485307
12	0x3f3f0c52	0.74628174
13	0xbffb76ee	-1.964567
14	0x3f7f6ef7	0.99778694
15	0xbf4fac30	-0.8112211

batchnorm_list.1.running_var f4 [16]
0	0x3f501f94	0.81298184
1	0x3f8916c8	1.0710077
2	0x3f3b371c	0.73130965
3	0x3ec15ded	0.37766972
4	0x3f8cb061	1.0991327
5	0x3f1d7b5b	0.6151635
6	0x3f190f87	0.5978932
7	0x3f3f36e3	0.74693125
8	0x3ff22216	1.8916652
9	0x3ff6abe9	1.9271213
10	0x3fcec604	1.615418
11	0x3fad4f7a	1.3539879
12	0x4026ed71	2.6082423
13	0x3fc47c47	1.5350426
14	0x3f92ba36	1.1463077
15	0x401687ef	2.3520467

batchnorm_list.2.weight f4 [32]
0	0x3f7a980b	0.9788825
1	0x3f7df297	0.9919829
2	0x3f79cef4	0.9758141
3	0x3f82f16c	1.0229926
4	0x3f7eb683	0.9949724
5	0x3f7ac8fb	0.9796292
6	0x3f79abc0	0.97527695
7	0x3f82443f	1.0177077
8	0x3f830dac	1.0238547
9	0x3f847fd1	1.0351506
10	0x3f7f1b15	0.996507
11	0x3f7b948c	0.9827354
12	0x3f7cad63	0.9870207
13	0x3f80389a	1.0017273
14	0x3f7a419c	0.9775636
15	0x3f7bfb20	0.9843006
16	0x3f83dac4	1.0301137
17	0x3f7b0156	0.98048913
18	0x3f7b4ae9	0.9816118
19	0x3f8188b8	1.0119848
20	0x3f835b50	1.0262241
21	0x3f824154	1.0176187
22	0x3f786554	0.97029614
23	0x3f7c947c	0.9866407
24	0x3f826126	1.0185897
25	0x3f80f999	1.0076171
26	0x3f804b5d	1.0022999
27	0x3f7b99a6	0.98281324
28	0x3f797df6	0.97457826
29	0x3f82c860	1.02174
30	0x3f7b1223	0.9807455
31	0x3f7c5f27	0.9858269

batchnorm_list.2.bias f4 [32]
0	0xbcce393b	-0.025173774
1	0xbd33b37d	-0.043872345
2	0xbcb7c599	-0.02243309
3	0xbd9330cd	-0.071870424
4	0xbd05081a	-0.03247843
5	0xbc2e225b	-0.010628308
6	0xbd3c48a6	-0.04596772
7	0xbbd91b97	-0.0066256034
8	0x3ca591a0	0.020211041
9	0x3c9ba7d0	0.019000918
10	0xbc8a49b5	-0.01688085
11	0xbca37956	-0.019955318
12	0xbd27df15	-0.040984232
13	0xbceba01b	-0.028762868
14	0xbb88b7d4	-0.0041723046
15	0xbd5730c2	-0.052536733
16	0x3cf0ff03	0.029418474
17	0xbce3bb90	-0.027799398
18	0x3c0a0103	0.008423093
19	0x3cb9e8cb	0.022694012
20	0x3c613f07	0.013747937
21	0x3ced4ad0	0.028966337
22	0xbd1a4f56	-0.037673317
23	0xbd36053a	-0.04443858
24	0xbc503365	-0.012707566
25	0xbbba3e16	-0.0056836708
26	0xbd2b12ac	-0.041765854
27	0xbd4bd1e3	-0.04976071
28	0xbd7ed888	-0.06221822
29	0xbd9dc1bc	-0.077029675
30	0xbd73fdbb	-0.059568148
31	0xbd1d58ab	-0.03841464

batchnorm_list.2.running_mean f4 [32]
0	0x3f0c2d33	0.5475647
1	0xbeb571a9	-0.35438278
2	0x3efee6c7	0.49785444
3	0x3ebd1ed7	0.3693759
4	0xbf59f5c4	-0.85140634
5	0xbf9c5614	-1.2213769
6	0x3ef6c1cd	0.48194733
7	0xbf660486	-0.8985065
8	0xbb411f69	-0.0029468185
9	0xbfbeae20	-1.4896889
10	0x3f32bfa7	0.6982369
11	0x3e7febb0	0.24992251
12	0x3f4c2457	0.7974295
13	0xbfbea9a2	-1.4895518
14	0x3e7f3ed0	0.24926305
15	0xbf3c1059	-0.73462445
16	0xbf55e025	-0.8354514
17	0x3ecee668	0.4041016
18	0xbf115aa8	-0.56778955
19	0xbfac4832	-1.3459532
20	0x3f047ea9	0.5175577
21	0xbf89f155	-1.0776774
22	0x3eaae0f1	0.33374742
23	0x3ce8b98c	0.028408788
24	0xbf519367	-0.81865543
25	0xbf9e4418	-1.236453
26	0xbf292069	-0.6606508
27	0xbf915981	-1.135544
28	0xbdc98250	-0.09839308
29	0x3f811310	1.0083942
30	0x3eaace34	0.33360445
31	0x3f665866	0.89978635

batchnorm_list.2.running_var f4 [32]
0	0x400d860e	2.211307
1	0x3fd67b2b	1.6756338
2	0x3fb24860	1.3928337
3	0x3f3380b3	0.70118254
4	0x3fdf9329	1.7466785
5	0x3fd1d787	1.6393899
6	0x3ffaffc9	1.960931
7	0x409439a3	4.6320357
8	0x3fb7d815	1.4362818
9	0x3fb9fcc3	1.4530262
10	0x4051b4dd	3.276664
11	0x3f92fc6b	1.1483282
12	0x406aab94	3.6667223
13	0x3f9b8beb	1.2152075
14	0x404f086c	3.234889
15	0x3fa91994	1.3210931
16	0x3f175a5d	0.5912226
17	0x3fa6e285	1.3037878
18	0x3fb164b0	1.3858852
19	0x3ff7ff39	1.9374763
20	0x3f60feb0	0.8788862
21	0x3f9f596a	1.2449162
22	0x3fa9a5a3	1.3253673
23	0x3f8ac1ec	1.084043
24	0x4083ffa9	4.1249585
25	0x3f89ceae	1.0766199
26	0x3f5e10a3	0.86744136
27	0x3f801674	1.0006852
28	0x3f8984b3	1.0743622
29	0x3e98b069	0.2982209
30	0x3faa76d1	1.331751
31	0x40aec953	5.4620757

batchnorm_list.3.weight f4 [64]
0	0x3f92bc0e	1.146364
1	0x3f755a0a	0.95840514
2	0x3f73b451	0.95197016
3	0x3f7821aa	0.9692637
4	0x3f7098f0	0.93983364
5	0x3f8fec42	1.1243975
6	0x3f92b9eb	1.1462988
7	0x3f74826e	0.9551152
8	0x3f8f20b6	1.1181858
9	0x3f906039	1.1279365
10	0x3f7058c1	0.9388543
11	0x3f91da10	1.1394672
12	0x3f929373	1.1451248
13	0x3f73d416	0.9524549
14	0x3f70161a	0.93783724
15	0x3f90b64f	1.1305636
16	0x3f8fe359	1.1241256
17	0x3f72b3e0	0.9480572
18	0x3f8fa2d6	1.1221569
19	0x3f86c1a9	1.052785
20	0x3f87277e	1.0558927
21	0x3f7419a8	0.9535165
22	0x3f8f2938	1.1184454
23	0x3f73da3d	0.9525488
24	0x3f742746	0.95372427
25	0x3f8f32a9	1.1187335
26	0x3f77a7fd	0.96740705
27	0x3f7124d1	0.941968
28	0x3f7c2d53	0.9850666
29	0x3f92b9f9	1.1463004
30	0x3f739a82	0.95157635
31	0x3f703f1f	0.93846315
32	0x3f90065e	1.1251943
33	0x3f764a08	0.9620671
34	0x3f9142ee	1.134855
35	0x3f927301	1.1441346
36	0x3f8fb169	1.1226016
37	0x3f903b1b	1.1268038
38	0x3f8f002d	1.1171929
39	0x3f8c55f1	1.0963727
40	0x3f702225	0.938021
41	0x3f918b3d	1.1370617
42	0x3f7d983c	0.99060416
43	0x3f8db8a7	1.1071976
44	0x3f7a50d7	0.977796
45	0x3f72d697	0.9485869
46	0x3f9179c1	1.1365281
47	0x3f74b508	0.9558873
48	0x3f6fe919	0.93715054
49	0x3f728577	0.947349
50	0x3f8ac500	1.084137
51	0x3f905d67	1.1278504
52	0x3f958cae	1.1683557
53	0x3f734a9b	0.95035714
54	0x3f9152a3	1.1353344
55	0x3f90fff6	1.1328113
56	0x3f760260	0.96097374
57	0x3f718c4f	0.9435472
58	0x3f9073a9	1.1285297
59	0x3f7343a3	0.9502508
60	0x3f7199fc	0.94375587
61	0x3f70bc5b	0.9403741
62	0x3f70f6ac	0.9412639
63	0x3f8f5f92	1.1201041

batchnorm_list.3.bias f4 [64]
0	0x3e183c08	0.1486665
1	0xbd5515a8	-0.052022606
2	0xbd740612	-0.0595761
3	0xbd30a75b	-0.043128353
4	0xbd8d75e9	-0.06907255
5	0x3df96352	0.12177147
6	0x3e01f95a	0.12692776
7	0xbd6b908e	-0.057510905
8	0x3dbd4f17	0.09243601
9	0x3e0793f9	0.13240041
10	0xbd9651e1	-0.07339836
11	0x3e0c99bd	0.13730522
12	0x3e10fea5	0.14159639
13	0xbd83958d	-0.06425009
14	0xbd96aec3	-0.07357552
15	0x3e0928db	0.13394491
16	0x3dfd4abd	0.12367771
17	0xbd84afe0	-0.06478858
18	0x3df6969a	0.12040444
19	0x3c6a0185	0.014282589
20	0x3d409bf2	0.04702372
21	0xbd665815	-0.056236345
22	0x3df250d0	0.1183182
23	0xbd63f660	-0.055654883
24	0xbd84e01a	-0.064880565
25	0x3df2a2d5	0.11847464
26	0xbc99feb8	-0.018798217
27	0xbd948ec3	-0.07253792
28	0xbbb80c91	-0.0056167324
29	0x3e0f91e4	0.14020497
30	0xbd715d21	-0.058926705
31	0xbda16ce7	-0.078820996
32	0x3df2c506	0.118539855
33	0xbcf06023	-0.029342717
34	0x3e086635	0.13320239
35	0x3e0b1895	0.13583596
36	0x3df91945	0.12163023
37	0x3e0566ad	0.13027449
38	0x3def4ac1	0.1168418
39	0x3d56d864	0.05245246
40	0xbd9bffdf	-0.07617163
41	0x3e0b88fc	0.13626474
42	0xbc8b0ea2	-0.01697475
43	0x3def0e42	0.11672641
44	0xbcd3185d	-0.025768453
45	0xbd5ddf74	-0.05416818
46	0x3e0758bb	0.13217442
47	0xbd5f168d	-0.054464865
48	0xbd64d818	-0.055870146
49	0xbd8b3005	-0.067962684
50	0x3d23ae88	0.039961368
51	0x3dfa35f7	0.12217324
52	0x3e2a889b	0.16653673
53	0xbd8e7c64	-0.069573194
54	0x3e0837d9	0.13302554
55	0x3e0a0b6a	0.13480917
56	0xbd3b7ebe	-0.045775168
57	0xbd8cb86b	-0.068711124
58	0x3e00d211	0.12580134
59	0xbd491065	-0.0490879
60	0xbd9672c1	-0.07346106
61	0xbd9b57ae	-0.07585083
62	0xbd9ee688	-0.07758814
63	0x3df53532	0.11973037

batchnorm_list.3.running_mean f4 [64]
0	0xbf65fcd2	-0.898389
1	0xbe52353a	-0.20528117
2	0x3ceb9b1d	0.028760487
3	0xbe3a40be	-0.1818876
4	0x3efcf327	0.4940426
5	0xbf45cbd6	-0.77264154
6	0x3f5ae895	0.8551114
7	0xbd12ea2e	-0.035867862
8	0xbf4fda9e	-0.8119296
9	0xbf03bd32	-0.51460564
10	0x3db207f1	0.08692921
11	0x3ec62145	0.38697258
12	0xbf20f35b	-0.6287133
13	0x3ca93042	0.020652894
14	0x3d77bdc4	0.06048371
15	0xbf292e06	-0.6608585
16	0xbf4954c6	-0.7864498
17	0x3d436c98	0.047710985
18	0x3edf2931	0.43586114
19	0xbf08300e	-0.53198326
20	0xbee93067	-0.4554474
21	0x3d7c1289	0.061541114
22	0xbea19cf7	-0.31565067
23	0x3e091864	0.1338821
24	0xbe36b067	-0.1784073
25	0xbe2e036c	-0.16993493
26	0x3ee89848	0.4542868
27	0xbe2ec885	-0.1706868
28	0x3efe5af1	0.49678758
29	0xbf24fd54	-0.6444905
30	0x3df1a78b	0.117995344
31	0xbce867d6	-0.028369825
32	0x3e9d4a27	0.30720636
33	0x3f1d4408	0.6143193
34	0xbe35e4cf	-0.17763065
35	0xbf337bfa	-0.7011105
36	0xbd80d603	-0.062908195
37	0xbf117046	-0.5681194
38	0xbe8258a9	-0.25458267
39	0xbf1e17f1	-0.6175528
40	0xbd9afded	-0.07567964
41	0xbde7b11b	-0.11313077
42	0x3e0bc47c	0.13649172
43	0x3ea5304f	0.3226342
44	0xbe6cd94b	-0.23129766
45	0x3f397cbd	0.7245596
46	0x3e03bbc1	0.12864591
47	0xbe956313	-0.2917715
48	0x3f16c6a7	0.5889687
49	0xbbf36fca	-0.007429098
50	0xbf2bd791	-0.67125803
51	0xbf4442c0	-0.7666435
52	0x3ec82d96	0.3909728
53	0xbdf479ed	-0.11937318
54	0x3c2409f7	0.010012141
55	0x3e8d7438	0.2762773
56	0xbce2e594	-0.027697362
57	0xbe80624e	-0.25075
58	0xbf6ca29e	-0.92435634
59	0x3f361c92	0.71137345
60	0xbe245ad3	-0.16050272
61	0x3e166fd1	0.14691092
62	0x3e1a1cbf	0.15050028
63	0x3e38696c	0.18008965

batchnorm_list.3.running_var f4 [64]
0	0x3ed95578	0.4244802
1	0x3fbad3b3	1.4595855
2	0x3fad0d8f	1.3519763
3	0x3fd55146	1.6665428
4	0x3f0ee057	0.55811065
5	0x3e65754a	0.22408023
6	0x40797d4a	3.898272
7	0x3fa6e2f8	1.3038015
8	0x3fa69d8f	1.3016833
9	0x3eea3796	0.45745534
10	0x3fa4bd83	1.2870334
11	0x3f388b93	0.72087973
12	0x3ee6a78e	0.4504971
13	0x3faa47d2	1.3303168
14	0x3fa0e921	1.2571145
15	0x3e8050e1	0.25061706
16	0x3e845a9c	0.2585038
17	0x3fa48b22	1.285496
18	0x3f1dc40d	0.61627275
19	0x3fd9854f	1.6993808
20	0x3fb0adc0	1.3803024
21	0x3fa06d37	1.253333
22	0x3eb16be8	0.34652638
23	0x3f997c5b	1.1991075
24	0x4005e73c	2.0922384
25	0x3e94fea3	0.29100522
26	0x3f332d67	0.69991153
27	0x3fa9989f	1.3249701
28	0x3f80ef96	1.0073116
29	0x3e9cfe0f	0.3066258
30	0x3f955707	1.1667184
31	0x3fecde53	1.8505348
32	0x3edadd11	0.42746785
33	0x3ea59b59	0.32345083
34	0x3f160acf	0.5861024
35	0x3ea5f0af	0.3241019
36	0x3eae378c	0.34026754
37	0x3ed3c16d	0.4135851
38	0x3e892d5f	0.26792428
39	0x3fbd76ff	1.480194
40	0x3fd9780d	1.6989762
41	0x3ed579cd	0.4169449
42	0x3fb63826	1.4235885
43	0x3fd97884	1.6989903
44	0x401d4b46	2.4577193
45	0x3ed1d34a	0.40981513
46	0x3f118eb6	0.56858385
47	0x3fd4d96d	1.6628853
48	0x3f59db5b	0.85100335
49	0x3fa5a121	1.2939798
50	0x3fd86060	1.6904411
51	0x3e8117c2	0.25213438
52	0x3f5e5c43	0.8685953
53	0x40081eaa	2.1268716
54	0x3ec310e4	0.38098824
55	0x3ec4716c	0.38367784
56	0x3fdf6f73	1.7455887
57	0x3fd40c71	1.6566297
58	0x3e851cde	0.25998586
59	0x3e5bcc45	0.21464641
60	0x3fec3cd6	1.8456066
61	0x3fc22dee	1.5170267
62	0x3fc2e681	1.5226594
63	0x3f138c20	0.5763569

output_layer.weight f4 [1, 64, 1, 1]
0	0xbe1c5511	-0.15266825
1	0xbc0a27ef	-0.0084323725
2	0x3a3f9942	0.0007308909
3	0xbc9de1a7	-0.019272638
4	0x3cc4e4ca	0.024034876
5	0xbe45b474	-0.19307119
6	0xbde0859c	-0.10962984
7	0xbb089217	-0.002083903
8	0xbdc8dbad	-0.09807525
9	0xbe4ee467	-0.20204316
10	0x3d2df340	0.04246831
11	0xbe123ad3	-0.14280252
12	0xbe064485	-0.13112076
13	0x3bac495e	0.0052577695
14	0x3d45bc83	0.048275482
15	0xbe3eee7e	-0.18645665
16	0xbe70160a	-0.23445907
17	0x3c5af0ac	0.013363045
18	0xbe52a1c4	-0.20569521
19	0xbd9477e3	-0.07249429
20	0xbd86fb78	-0.065909326
21	0xbb0dbf91	-0.0021629075
22	0xbe6b113d	-0.22955795
23	0xbb7f6546	-0.0038970276
24	0x3ad3225b	0.0016108261
25	0xbe698777	-0.22805582
26	0xbcfa2115	-0.030533353
27	0x3d0baf13	0.03410251
28	0xbd303cc4	-0.0430267
29	0xbe18fd2c	-0.14940327
30	0x3a0ed084	0.00054479414
31	0x3d6d7b22	0.057978757
32	0xbe46b963	-0.19406657
33	0xbccc8396	-0.024965089
34	0xbe1b08a7	-0.1514002
35	0xbe1bd166	-0.15216598
36	0xbe4a375b	-0.19747679
37	0xbe5ad258	-0.21369302
38	0xbe6c0ac4	-0.23050982
39	0xbdbb1753	-0.09135308
40	0x3d6bf482	0.057606228
41	0xbe16ca69	-0.14725651
42	0xbd2f121d	-0.042741884
43	0xbdb47571	-0.08811463
44	0xbcf8fedb	-0.030394962
45	0xba93d04d	-0.0011277288
46	0xbe183499	-0.14863814
47	0xbbdc621f	-0.006725564
48	0x3cc46efe	0.023978706
49	0x3c830b41	0.015996577
50	0xbdafdc34	-0.08586922
51	0xbe396ded	-0.1810834
52	0xbde1c38e	-0.11023627
53	0x3c264d73	0.010150301
54	0xbe1c9f09	-0.15295042
55	0xbe1e9ccc	-0.15489501
56	0xbc69b82f	-0.014265104
57	0x3ce8423f	0.028351901
58	0xbe2cb784	-0.1686688
59	0xbbfe2a06	-0.0077564744
60	0x3cdc0715	0.026858846
61	0x3d238cc7	0.039929178
62	0x3d1390de	0.036026828
63	0xbe625524	-0.22102791
