UNet_save.pth (torch, 140576 bytes, 51 tensors)

weight f4 [8, 3, 3, 3]
00000000: a9c2 d0bd ace4 f1bd c0de 063e 3c2c 20be
00000010: 0396 943d 3c0b 2dbe 4466 d7ba a9aa 5fbd
00000020: 6832 d63d 52a7 43bb 38a2 03be 0858 53bc
00000030: 50e4 ce3d 8dde 533d 3526 19bd 1d62 eb3d
00000040: 45aa 8f3d 9e52 1a3c bc3a 87bb 6bce 5f3d
00000050: b31b 4b3e e2ff 1f3c eaad 193e 452e 3abd
00000060: 6a63 ae3d a330 e33d e235 ddbd 1eca 07be
00000070: 754a 113e 009f 7fbd 7bd5 f0bd 73be 013e
00000080: 5493 cabd 7415 173e e571 afbd 5dac 2e3e
00000090: 5b1f 903c bff8 333d 09da 46be bdce 8bbd
000000a0: 08f2 873d 027c 5abc 360b ddbd aecc c7bd
000000b0: cc53 923c 6dfd 39be 97f9 14be c4e9 28be
000000c0: 8a85 2a3e 37a1 443e 6078 efbd 4a27 ee3d
000000d0: 4f88 0c3d 3e55 973c c192 40bd 7b7e 21be
000000e0: 977b 9cbd bb77 c13d 998e 103d a221 803c
000000f0: f760 32be 3e9b 8dbd c0d2 f53d 2352 1d3e
00000100: 8a5a cbbb 4a8f ea3c 11a9 443e eb10 0f3e
00000110: ba4c 2cbe e5f2 10be f7b9 763d 84e4 353e
00000120: b32e 8f3d 36e3 99bd 72c6 aa3d efe3 a7bd
00000130: 1a4e 5a3d ae4e 2c3b 7387 683e 958c 0bbe
00000140: 2ad3 463e 8315 d53d 48b8 bf3d 1968 87bd
00000150: c003 69be c17d 35be 9765 6c3d 6eaf d2bd
00000160: e1ca 18be 66c7 e4bd c274 79bd feda e7bd
00000170: f48b 2ebe 5b28 2fbd f1ac b8bd 24f9 f4bd
00000180: f536 00bc 77f1 5f3e 4158 0b3e 89d6 043e
00000190: 1637 27be 6e09 df3d c5c9 f63d c950 3fbe
000001a0: d0db 9ebd 8910 c03d 0828 443e f57e de3d
000001b0: 2a7a 173e c155 8ebb d12a 00be f4f9 153e
000001c0: 7efd 5e3e d43f 88bd 4c4e 093e 8a9a 223e
000001d0: 3502 edbc b7fe 273e be2a 02be e2d6 b8bc
000001e0: 2d58 05be fef6 e53d 15b4 1abe 966e 8d3d
000001f0: 49d9 13bd 353b bfbd 7c10 9bbd 221a 373d
00000200: db03 cb3d 1f38 5cbd 0051 b636 b3d5 f7bd
00000210: 5ee0 1fbe 352e 93bd 233b 783d 7609 ef3d
00000220: dcf2 0bbc b856 083e 5cb6 3f3e 6884 a3bc
00000230: d1c0 fcbd 34dc f5ba 0622 2a3e fa57 2abd
00000240: 7f44 173e 689d 433d 1046 0d3e 0ed2 2bbd
00000250: 9482 373d 08fa 073e 41da c1bd b959 74bc
00000260: 1834 34be 0606 553d 9242 e0bd c5a3 1cbe
00000270: 3e86 213e 551a 06be f7c8 1dbe ac0a 44bd
00000280: 64ee 1bbe 2ec2 ba3d 4b25 ec3d 6d79 d33c
00000290: afb6 3b3e 3cef d33d 280a 5dbd d0e3 0fbe
000002a0: 17d8 183d 98e3 853d 79bd 6f3e 27a6 1abd
000002b0: a66d ccbc 3b59 1c3d 5d9e 50bd d982 fabd
000002c0: 52ff 57be d7ae cd3c a1d9 7e3d 9ec2 683a
000002d0: 2d91 473c 115d f1bd 8e8d e7bd d2d0 093e
000002e0: c52a 80bd 323e ce3d 27a9 89bd 0a0a cbbc
000002f0: 2ae5 063e 4857 ea3d 3db3 db3d 7751 97bd
00000300: e68d 97bd cc57 5a3d 298b 473d 02c0 1a3d
00000310: a223 6a3e 124a 023d 1ac8 9d3d db0a 1e3e
00000320: a142 fcbc ea89 8a3d ba77 debd 0ea2 5dbb
00000330: 37a3 61be bc1f 76bd e7a7 683e 5451 00be
00000340: 4f7b 2abe 5d87 2abe 13f6 c53d cd91 a63d
00000350: 2abb f73d 5669 2abc ea69 b33d 39b1 243e
-0.101933785 -0.11811194 0.1317091 -0.15641874 0.07255175 -0.16898817 -0.0016433676 -0.054606114
0.10458833 -0.002985437 -0.1285485 -0.012899406 0.10102141 0.051725913 -0.037389953 0.11493323
0.07014898 0.009419112 -0.0041268747 0.054640215 0.19834785 0.009765597 0.15007749 -0.045454282
0.085150555 0.11093261 -0.10801293 -0.13260695 0.1418856 -0.062407494 -0.11759468 0.12670307
-0.09891382 0.14754277 -0.085666455 0.17057939 0.017593076 0.043938395 -0.19419111 -0.068265416
0.06637961 -0.01333523 -0.10793154 -0.097558364 0.017862223 -0.1816308 -0.14548336 -0.16495425
0.16652504 0.19202124 -0.116928816 0.116285875 0.03430968 0.018473264 -0.047014955 -0.15770905
-0.076407604 0.09446665 0.03529224 0.015641037 -0.17419802 -0.06914376 0.12003088 0.15363364
-0.0062058615 0.028632779 0.19205119 0.13971297 -0.16826144 -0.14155157 0.060235944 0.17762953
0.06991329 -0.0751404 0.08338632 -0.08197772 0.05329714 0.0026292014 0.2270792 -0.13627847
0.1941649 0.10404494 0.09361321 -0.06611652 -0.22755337 -0.17723753 0.05771407 -0.10287367
-0.14921142 -0.11170845 -0.060902365 -0.11321066 -0.17045575 -0.042763095 -0.09017361 -0.11961582
-0.007825603 0.21869455 0.13607885 0.12972464 -0.16329607 0.108904704 0.12050203 -0.18683161
-0.0775677 0.09378154 0.19155896 0.10864059 0.14792696 -0.0043437188 -0.12516333 0.14646131
0.21776387 -0.06652799 0.13408774 0.15879264 -0.028931716 0.1640576 -0.12711617 -0.022563402
-0.13021918 0.11228751 -0.15107758 0.06905858 -0.03609589 -0.09337465 -0.075715035 0.044702657
0.09912845 -0.05376446 5.4334523e-06 -0.12101307 -0.15612933 -0.07186548 0.060603272 0.116717264
-0.008541789 0.1331433 0.18721908 -0.019960597 -0.12341464 -0.0018757642 0.16614541 -0.041587807
0.14772223 0.047757536 0.13796258 -0.04194837 0.044802263 0.13278973 -0.09465457 -0.01491397
-0.17597997 0.052007698 -0.10950197 -0.15296848 0.15773866 -0.13095982 -0.15408693 -0.04786174
-0.15227658 0.09119068 0.115305506 0.025814736 0.18331407 0.10348365 -0.053964764 -0.14051747
0.037315454 0.06537551 0.23412122 -0.03775611 -0.024954628 0.038171034 -0.050932277 -0.122319885
-0.2109349 0.025107784 0.062219266 0.0008879098 0.012180609 -0.11785329 -0.11306296 0.13458565
-0.06258158 0.100704566 -0.067217164 -0.02478506 0.13173357 0.11442429 0.10727546 -0.07388585
-0.07400112 0.053306386 0.048716698 0.03778077 0.22865155 0.03180892 0.07704182 0.15433829
-0.03079349 0.06764586 -0.1086268 -0.0033818516 -0.22034918 -0.060088858 0.227203 -0.12531024
-0.16648601 -0.166532 0.096660756 0.08133278 0.120962456 -0.010401091 0.08760436 0.1608323

weight f4 [8]
00000000: df19 833f e9b2 7f3f 2f81 7f3f 28f0 813f
00000010: 1b6b 833f 3a03 733f 9d6e 793f 616e 803f
1.024227 0.9988237 0.99806494 1.0151415 1.0267061 0.949268 0.9743441 1.0033685

bias f4 [8]
00000000: cc70 a93d fb65 813b e160 3b3d eb47 283d
00000010: 94de 083d d1aa 1abc adf6 9cbc 2a32 2f3b
0.082734674 0.0039489246 0.045746688 0.04108421 0.033415392 -0.00944014 -0.019160593 0.002673278

running_mean f4 [8]
00000000: 1357 b43d 3694 c3bd beb3 2d3e 32b4 33be
00000010: b747 473d 5477 6f3d b7c5 ae3d 016b 733e
0.088056706 -0.09549753 0.16963097 -0.17549208 0.048652377 0.05846341 0.08533805 0.23771288

running_var f4 [8]
00000000: 07b0 853b aa40 e43b 73e6 203c 0ae6 3f3c
00000010: f731 5d3b a478 913b a54e 933b de89 953c
0.004079822 0.0069657164 0.009820568 0.01171256 0.0033751705 0.0044394303 0.004495459 0.018254217

weight f4 [8, 8, 3, 3]
00000000: 4a3d bfbb 3a6e 58bd 4a56 cb3d b076 023d
00000010: 7cbb 06bd 93e1 bcbd 1dea 6b3d 73a1 bc3d
00000020: a7a6 703d 5128 c63d 30c7 38bd 1527 a3bc
00000030: 33e5 9fbd ff45 5b3d 81d4 923d b9ac bbbc
00000040: f743 54bb 7b31 1cbd a637 b13c 61c2 8dbd
00000050: 1dc6 74bc eb83 343d 51c9 febc 39f6 e53b
00000060: 399d c1bc 9355 eb3d 7398 893d 9ed9 6d3d
00000070: 9f40 a93d 4243 02bd 0705 49bd eddd 763d
00000080: 8b1a 8c3c 5839 e93d f14c ee3d bda7 a9bd
00000090: 9a2c 8b3d 4749 23bd 2828 3dbc d51a 05bd
000000a0: 7f5e 103e 0eef dd3d bd09 e8bd 2f90 a13d
000000b0: 4849 43bc 06c6 44bd 0b31 bc3d 872f 0ebd
000000c0: 50ab b3bd 8710 a8bc 069d bc3d d7bc 813d
000000d0: 5f39 823c b0a5 b73d 9605 5b3c dab9 c0bd
000000e0: 3d50 54bd 1047 893d 2505 8abc 4d48 dfba
000000f0: 8cef 973d 12c5 473d 6743 8b3d e6e3 afbd
00000100: 5c46 463d c60e 00bc 9cc6 063e 5d30 0d3e
00000110: e245 b5bd 5743 a53d 33ec 973d 29ec 80bb
00000120: b007 003e d38d 07bd 3e6d 403d 51cf 48bd
00000130: c528 d9bd 4a1a 983c 6d88 833d 28ea 7d3c
00000140: 2d29 b43d cc07 5c3d eb4b 41bd 5a85 19bd
00000150: 54f8 8dbd ec83 06bd a8b6 56bd 2c84 93bd
00000160: ec55 b03d 8d31 8a3d 349b 863c 352b 8b3d
00000170: b7cf 913d 6d27 173d 2615 bebc e250 8cbd
00000180: f8cb 523d 1a72 a9bd 5e88 2f3d 1eb1 2f3d
00000190: ff63 6b3d 6a35 923d 1ae3 9abd f304 4c3c
000001a0: f894 e33d d856 ca3d d15f 0a3e 4a7a a33d
000001b0: b017 863c 6862 ebb9 4057 f6bc 9685 3abc
000001c0: db39 1fbe 9162 7ebd a689 1ebe b818 ebbc
000001d0: 340d 93bc 7f4d c8bd ab9d b93c d05c 253d
000001e0: fdc6 7dbc 08c9 cb3c d59f 4cbd 9930 553d
000001f0: 5a58 d8bd 7448 62bd 2f4a b63a 3c1d 993c
00000200: f781 b2bd 8473 cabd 1ea3 afbd dda9 d4bc
00000210: 3001 c4bd c1c8 183d 1cf4 4f3c 200c bc3d
00000220: 8e44 d9bd 149c a2ba 5124 c2bc d9e6 bb3d
00000230: a1cd b3bd 3bf6 3bbd 213c 1e3d 2c3b a5bd
00000240: 93c5 09be cc5a be3d 0ede 35bb 28da 00bb
00000250: 53bc cb3c 1831 82bd d381 fa3d 8452 00bd
00000260: b7eb c6bd 0d6a 9f3d ce54 ffbd 8caf 99bc
00000270: 0d26 9a3d fcb5 16bb 4740 81bc 02c8 5b3d
00000280: c180 0a3d 9604 edbd 3873 4bbb 89f0 95bd
00000290: 4629 833c 69a1 eebd 4cb6 adbd 0cf9 393c
000002a0: a04c d63d af80 6a3d 9f84 ca3d 1c14 8fbd
000002b0: 722d a3bc 677b b3bc 2d0b 083d 3e50 fcbd
000002c0: 9e52 b1bc b77f a4bd ddc7 59bd 9378 e7bb
000002d0: f044 903d 16ed 5fbc d101 8b3d b2f5 c1bd
000002e0: e1f9 833c 8e41 533d d0d2 c83d 6129 29bc
000002f0: 9c41 66bc 6e58 8cbd 4ef7 433d fa5c babd
00000300: 7451 943d 5c96 633c 6850 c73c d023 b53d
00000310: 8df1 d13d 383d ed3c 951e 2a3d dc68 0abd
00000320: c1c3 99bd 0a69 3bbd 698c cb3c 09ac c73d
00000330: f6b8 a53d 10b5 55bc 9317 b73c 7aca b5bc
00000340: 9db3 c73d a5b5 eabd f0f8 243d 5f63 513c
00000350: 0eff 6d3d 6642 03bc 285b a53b f963 483d
00000360: 9086 5e3d 7d9c 783c e8fe 843c bac5 02bd
00000370: ee32 debd a2f0 85bc 72e9 903d 51b9 763c
00000380: 406a 0cbd fb29 12bd 1d69 1dba 363a d6bc
00000390: 372a 6aba 7374 003e 9971 1e3e 9609 033e
000003a0: 125c 98bd a5a5 973d 5544 a8bd 1768 29bc
000003b0: 3874 80bd 0382 823c 0d20 ddbd 71b4 4e3d
000003c0: d8e7 c2bc ada2 9abd e423 2bbc 810f 333e
000003d0: 123b 283e bec6 8a3c 0a0c e33d 2da5 993d
000003e0: 6144 fbbc b049 ea3d 17b5 2c3c a7d8 8cbd
000003f0: 50ef 99bc 1dd9 6ebd 3ba1 7dbd d478 9fba
-0.0058361636 -0.052839495 0.09928568 0.03185147 -0.032893643 -0.09222712 0.057596315 0.092104815
0.058752682 0.096756585 -0.045111835 -0.019916097 -0.07807388 0.05353355 0.07169438 -0.022909509
-0.0032389143 -0.038133126 0.02163298 -0.069218405 -0.014939812 0.04407112 -0.031101855 0.0070178774
-0.02363454 0.11490931 0.067185305 0.058068864 0.082642786 -0.031802423 -0.04907706 0.06027024
0.0171025 0.113878906 0.11635769 -0.08283947 0.067956164 -0.039864805 -0.0115452185 -0.032496292
0.14098547 0.10836612 -0.113299824 0.07888829 -0.011919327 -0.048040412 0.09189042 -0.034713294
-0.0877291 -0.020515693 0.09209637 0.063348465 0.015896497 0.08967149 0.013368031 -0.09410448
-0.051834334 0.06703007 -0.016848156 -0.0017035097 0.07418737 0.048771925 0.06799965 -0.0858839
0.048406944 -0.007816022 0.13161701 0.1378798 -0.0885122 0.08069485 0.07418098 -0.0039344025
0.12502933 -0.03309424 0.04697918 -0.049025837 -0.10603479 0.018567223 0.064225055 0.015497722
0.08796916 0.053718373 -0.04719154 -0.03748069 -0.069321305 -0.032840654 -0.05242029 -0.07202944
0.08610138 0.06747732 0.016431428 0.067953505 0.071196966 0.036902834 -0.023203444 -0.06851365
0.05146405 -0.08273716 0.04285466 0.04289352 0.05746841 0.07139094 -0.075628474 0.012452352
0.11112398 0.098798454 0.13513114 0.07982309 0.016368717 -0.0004489601 -0.0300709 -0.011384388
-0.15549414 -0.06210572 -0.15482196 -0.02869831 -0.017950632 -0.09780406 0.02265819 0.040371716
-0.015489337 0.024876133 -0.049957115 0.0520483 -0.10563727 -0.055244878 0.0013907606 0.018690698
-0.08716195 -0.09885314 -0.08576034 -0.025959903 -0.09570539 0.03730083 0.012692478 0.09182
-0.10608779 -0.0012406134 -0.023698958 0.0917489 -0.08779455 -0.04588912 0.038631562 -0.08067927
-0.13454275 0.09294662 -0.0027750763 -0.0019661281 0.024870073 -0.0635702 0.12231793 -0.031328693
-0.09712928 0.077838995 -0.12467347 -0.018760465 0.07526789 -0.0022996655 -0.01577772 0.05365754
0.033814196 -0.1157314 -0.0031044018 -0.07321269 0.016010892 -0.1165188 -0.08482036 0.011350881
0.10463834 0.05725163 0.09888577 -0.069862574 -0.019919131 -0.021909429 0.033213783 -0.123199925
-0.02164584 -0.08032172 -0.05316912 -0.007063934 0.07044399 -0.013667366 0.06787456 -0.09470691
0.016110362 0.05157619 0.09805834 -0.010324807 -0.014053728 -0.06852804 0.04784327 -0.09099765
0.072420985 0.013890829 0.024330333 0.08844721 0.1025115 0.028959855 0.04153307 -0.033791408
-0.0750804 -0.04575447 0.024847226 0.0974961 0.08091919 -0.013043657 0.022350108 -0.022191275
0.097510554 -0.11460427 0.040276468 0.01278004 0.058104567 -0.008011436 0.005046267 0.048923466
0.054327548 0.015174028 0.01623483 -0.031926848 -0.10849558 -0.016350094 0.07075776 0.015058831
-0.034281015 -0.035684567 -0.0006004738 -0.026150804 -0.0008932682 0.12544422 0.15473022 0.12796625
-0.07439436 0.07404641 -0.08216158 -0.010339758 -0.06272167 0.015931135 -0.10797129 0.05046505
-0.023792192 -0.07550559 -0.010445569 0.17486383 0.16428784 0.01694047 0.11086281 0.07502208
-0.030672254 0.11439836 0.010541222 -0.06877261 -0.01879087 -0.058312524 -0.06192134 -0.0012166747

weight f4 [8]
00000000: d0a0 723f 69a4 7e3f 6a4c 7a3f eb11 823f
00000010: eb5f 7f3f 1d47 833f 0699 7d3f 9f11 793f
0.9477663 0.9946962 0.9777285 1.0161718 0.99755734 1.0256077 0.9906162 0.9729251

bias f4 [8]
00000000: b077 2cbd 9e51 1dbc 3f86 88bc 1aa0 e7bc
00000010: 28fd b3bc dfe2 573c 94de cfbc 0132 203d
-0.04210633 -0.009601979 -0.016665576 -0.028274585 -0.0219713 0.013176649 -0.025374688 0.039110187

running_mean f4 [8]
00000000: 12f2 8b3e ea85 e5bc 2b0c cc3b 8716 013d
00000010: 9cbd 10bd 0bd5 91be c2dc 41be a569 7b3c
0.27333122 -0.028017957 0.0062270365 0.031515624 -0.035337076 -0.2848285 -0.18931869 0.015345012

running_var f4 [8]
00000000: 94e5 833e b3c0 2e3e 480d fb3d bed1 cc3e
00000010: 7260 9e3e 8148 323f f9d7 193e 5ae4 303f
0.25761092 0.17065696 0.122583926 0.4000377 0.30932957 0.6964188 0.15023793 0.69098437

weight f4 [16, 8, 3, 3]
00000000: c8e7 373c 9ade 29bd 6f05 c1bd 66d8 debd
00000010: 58ba be3d 5803 543d 04a8 b63d 3c9e 373d
00000020: afd6 c4bd 37f6 4dbd 29c7 f7bd dda1 28bb
00000030: c7d0 5d3d b6db 7bbd 1503 debb 6cc6 dcbb
00000040: 785a f63c c693 95bd ead7 0ebc acf1 d03d
00000050: 3fc9 f83d 8173 b63c b24b 46bd 8842 983b
00000060: 52fa a13d 9f30 4cbd 7a0f ab3d 5ead 6abc
00000070: 107c c03c 6426 9b3d f6c8 a4bd 3130 95bc
00000080: babc d0bd 458c 7a3d 959c fb3c 6fb9 033e
00000090: c1ee 9abd cefd f4bc d24d 67bd 41b2 59bc
000000a0: e9ca dc3c 92fc cabd 92a6 3b3d 1db6 eb3d
000000b0: d9a0 df3d 1e62 6a3c 58a4 5fbd 4b96 893d
000000c0: 949c ab3d 92f6 0e3e 066c 3bbd 207d 123e
000000d0: 2445 20bb 0860 233c 46d2 d6bd 332c 41bd
000000e0: 5f49 b0bc 2311 7ebc 8a38 d338 6e05 62bc
000000f0: b22c ebbd 5ce5 f339 92b2 f8bd 84b9 f03c
00000100: 3790 a1bd 6b6d 193c 37ed 99bb 85b4 d03d
00000110: f6ea d23c 01c3 89bd 5d13 c2bd 9502 9bbd
00000120: b26f 65bd 1605 8abd f18f 8fbd c9b2 acbc
00000130: ee2f f6bc 10f7 a13d 9adb 653d c9c2 afbd
00000140: dcf6 2d3d 8472 bebd e112 4f3d 578f 97bd
00000150: 9bbd bcbd 7415 653d 1c59 a9bc 6ea7 c0bd
00000160: e653 38bb 71bb 6cbd a526 e93d a4a1 773d
00000170: dbc8 c4bd 2238 09be a197 e9bd 358c e8bd
00000180: 3289 3e3d 56a2 5c3d 5ad7 3dbd 3a62 acbc
00000190: 3d76 a4bd db39 963d c8d7 a73c fc00 02be
000001a0: 0932 b7bc 19ed c03d 77cb 05be d05b 19bd
000001b0: 9cc0 07bd f05d f1bb 7b71 de3c 982c eebd
000001c0: 9253 3b3d 2bf4 13bd 6cf5 a5bd 57f1 48bd
000001d0: 0f66 5c3d e509 a03c d9ce afbd edea 15bd
000001e0: 4489 f93d 89d3 7b3c 59ea 793a 9459 543c
000001f0: cc1f b4bc c1fa 50bd 35fd a53d d09d 113d
00000200: 79ce 52bd 94d3 eebd e236 20bd bc2a 113c
00000210: e6c5 69bd d8eb b2bd 2a31 553d c832 ad3d
00000220: fadf b9bc 29ba c03d b937 7bbd 3632 d8bd
00000230: 70b6 93bd 5fb6 17bc 96ad 41bd 8cf7 b53d
00000240: 522d 1f3d 5871 a2bd 40c4 393c e44f bfbd
00000250: 6388 92bd 67aa edbd 0079 c1bd 3b52 ce3d
00000260: 553c 81bc b0cf f4bd 8f03 dbbd 2e20 e0bd
00000270: ac91 97bd bcaf bbbb 8b99 f4bd b890 c63b
00000280: 67c1 14bd e47d da3d 7cc8 b83c 501a 82bd
00000290: 1079 c1bd 0280 35bd 02fb b83d e50f 0ebd
000002a0: 05d4 2b3c f18b bbbd f0b3 0e3c dd4a 883d
000002b0: 54fb fdbc c2b1 5a3c 84b1 14bd 8a57 eabd
000002c0: e69e 96bd b6e5 e43c 9cdf 08be 591d bbbd
000002d0: 083a 6339 11a1 05be 6a37 93bc 7fbd 41bd
000002e0: d397 30bd 6693 04be ca50 af3b f5ec c9bd
000002f0: cbfc 81bc db35 05bd 7e76 c23c 9cbd 5fbd
00000300: 01ec e3bd 8cd2 5c3b 33ad c6bb a742 cabc
00000310: a8de 7a3d e4d5 d03c 3703 59bd fec0 aabd
00000320: 8c3e bfbc 5f04 45bd dd5b c2bd 64d2 e6bd
00000330: 106f 0c3e 4969 7dbd 304d 073d 15bd 9fbd
00000340: bbf5 1fbc 46b0 9fbd 89e4 343c ca7c b33c
00000350: ad2e c33d 2582 debd 30ac c439 bc29 a13a
00000360: 16a5 d93d 5275 ca3d a34d 09bd e64c a63d
00000370: 5b62 c9bd ba62 54bd 707a 943d 815f 88bd
00000380: 2563 f43d e030 b0bc 8c91 f4bd d1a7 e83a
00000390: fc9f a4bd a11f 843d 22bf 96bb 4499 ecbb
000003a0: 36cd 02be a372 b4bd 0491 2a3d c4fe 3cbc
000003b0: 3abd 31bd 71b3 3c3d dcfb 76bd d992 87bd
000003c0: 26da ecbc ead7 a0bd 35f1 03be 3482 0bbc
000003d0: eacf d83d ec7f 36bd aba8 85bc c818 e0bd
000003e0: 139a e3bd cea5 2e3c 49b0 1a3d d77c 90bd
000003f0: 0913 003e 2a1c be3b 28ef 033e 3cce c43d
0.011224695 -0.041472055 -0.094248645 -0.108811185 0.09312886 0.051761 0.08918765 0.04482864
-0.0961126 -0.050283637 -0.12098534 -0.0025731244 0.054154184 -0.06148883 -0.0067752698 -0.006737521
0.030072436 -0.07303576 -0.00871847 0.10202345 0.1214776 0.022271873 -0.048412032 0.004646603
0.07909073 -0.049851056 0.08352561 -0.0143235605 0.023496658 0.07575682 -0.08046143 -0.018211456
-0.10192247 0.061168928 0.030714313 0.12863706 -0.0756507 -0.02990618 -0.0564707 -0.013287128
0.026952224 -0.09911455 0.04581315 0.11509345 0.10919351 0.0143056195 -0.05460009 0.06718119
0.08379474 0.13961247 -0.045757316 0.14305544 -0.0024455274 0.009971626 -0.10489325 -0.047161292
-0.021519361 -0.015507015 0.00010071795 -0.01379524 -0.11483134 0.00046519458 -0.121434346 0.029385336
-0.07888835 0.009364466 -0.0046974677 0.10190681 0.025746804 -0.06726647 -0.094763495 -0.07568852
-0.056014724 -0.06739251 -0.070098765 -0.021081345 -0.030052152 0.079084516 0.05611763 -0.08582074
0.04247175 -0.09299186 0.050555114 -0.07400387 -0.09215852 0.055928662 -0.020672373 -0.09406935
-0.002812618 -0.057795946 0.11384324 0.060456887 -0.09608623 -0.13400319 -0.11405874 -0.11354867
0.04651756 0.053865753 -0.046347953 -0.021042932 -0.08030365 0.07335254 0.020488635 -0.12695688
-0.022362726 0.09420223 -0.13065897 -0.037441075 -0.03314267 -0.0073659346 0.027153721 -0.11629599
0.045733996 -0.03612153 -0.08103451 -0.049058285 0.05380827 0.019535968 -0.08584375 -0.036600996
0.121843845 0.015370258 0.0009533517 0.01296081 -0.021987818 -0.051020388 0.08104936 0.035550892
-0.05146644 -0.11661449 -0.03911484 0.008860286 -0.057073496 -0.0873639 0.05204884 0.084569514
-0.022689808 0.09410507 -0.06133244 -0.10556452 -0.072125316 -0.009259789 -0.047284685 0.088851064
0.03886158 -0.07931775 0.011338294 -0.0934141 -0.0715492 -0.11604767 -0.09446907 0.10074278
-0.015775839 -0.11953676 -0.10694038 -0.10943638 -0.074008316 -0.0057277363 -0.119433485 0.0060597323
-0.036317255 0.10668543 0.022556536 -0.06352675 -0.09446919 -0.04431153 0.09032251 -0.034683127
0.010487561 -0.09157551 0.008709893 0.06654904 -0.031003632 0.013348045 -0.036302105 -0.11442478
-0.07354526 0.027941566 -0.1336655 -0.09136457 0.00021670025 -0.13049723 -0.01797076 -0.04729986
-0.04311354 -0.12946853 0.005350207 -0.09859649 -0.015867611 -0.032522064 0.023738142 -0.054624185
-0.111289985 0.0033694832 -0.0060631274 -0.024689985 0.061247498 0.025492616 -0.05298158 -0.083375916
-0.023345254 -0.04809987 -0.09490178 -0.112705976 0.13714242 -0.061867986 0.033032596 -0.077997364
-0.009763177 -0.07797293 0.011040815 0.02191009 0.09530387 -0.10864667 0.00037512323 0.0012295763
0.10627191 0.09885658 -0.033521306 0.08120136 -0.09833213 -0.051851965 0.072499156 -0.06658841
0.11932973 -0.02150768 -0.11941823 0.0017750208 -0.08038327 0.06451345 -0.0046004215 -0.007220419
-0.12773594 -0.08810928 0.041642204 -0.01153535 -0.04339335 0.046069566 -0.060298786 -0.06619806
-0.028912615 -0.07853682 -0.12884982 -0.00851493 0.105865315 -0.04455559 -0.016315779 -0.10942227
-0.11113372 0.010659648 0.037765775 -0.07055061 0.12507261 0.0058016973 0.128842 0.096096486

weight f4 [16]
00000000: 34fc 843f c0a1 7d3f d9c6 833f 12c2 883f
00000010: d71d 7d3f 4f0c 813f e20d 803f 8d54 813f
00000020: 2953 803f c7aa 7b3f b4e1 833f a720 813f
00000030: 027b 803f d4fa 833f 05a0 7e3f 05d1 803f
1.0389466 0.99074936 1.0295058 1.0684226 0.98873657 1.0081881 1.0004237 1.0103928
1.0025378 0.9830746 1.0303254 1.008809 1.0037539 1.0310922 0.9946292 1.0063788

bias f4 [16]
00000000: 1a6f 9cbc b25d 19bd ed46 e6ba 1675 8b3c
00000010: e4a6 953a 9aa5 1bbd 8090 7ebc 228a aabc
00000020: f783 43bd 3acb 8f3b a596 8cbc 00df 44bc
00000030: b7b5 e5bb d7a4 0bbd 0f31 6dbc 0b4b feba
-0.019095946 -0.03744287 -0.0017568745 0.017023604 0.0011417535 -0.037999727 -0.015537381 -0.02081782
-0.047733273 0.00438824 -0.017161677 -0.012016058 -0.0070101875 -0.03409275 -0.0144770285 -0.0019401027

running_mean f4 [16]
00000000: 5ec9 5abd 094e f3be a3d7 50bf b0a7 f9be
00000010: 721c f03e c332 2dbe b9a6 fbbe 0b89 f4bd
00000020: aeff f73b e3b4 9ebe 0787 2cbe 710e 1d3e
00000030: 016e 95bd e291 f9be a226 04bf 71b6 a7be
-0.053414695 -0.47520474 -0.81579036 -0.48760748 0.46896702 -0.16913895 -0.49150637 -0.11940201
0.007568321 -0.3099738 -0.16848384 0.1533754 -0.07296372 -0.48744112 -0.5162145 -0.3275638

running_var f4 [16]
00000000: abad 213e 0c2a 333e 7833 df3e f88b 1f3e
00000010: bbcd 1a3f 48c0 7b3e b242 3b3e 5582 2a3e
00000020: e1bd 173f 2b03 703e ea76 f63e e5d5 ed3e
00000030: f44a 8e3d b8c3 2d3e dc2c 3d3e 83ca 393e
0.15788905 0.17496508 0.43593955 0.15580738 0.6047017 0.24585068 0.18287161 0.1665128
0.5927411 0.23438708 0.481376 0.4645225 0.0694789 0.16969192 0.18474144 0.18143658

weight f4 [16, 16, 3, 3]
00000000: e536 49bc da67 82bd 54a2 19bd e319 72bd
00000010: 06db 94bd c895 92bd eb1b 89bd ff61 86bd
00000020: da28 ecbc 60b3 9ebd ccec bebd bf00 993d
00000030: f096 2dbc 81a6 403d 537f 03bd d10b 67bd
00000040: b3f9 543d 091c b23d 7037 713d 1e16 1c3a
00000050: df58 793d 8f4f e2bb cc95 95bd be0a 453b
00000060: 1ab3 e9bb 14ae 30bd f00c 083d 25aa bb3d
00000070: c0ca a63d 13c8 96bc d672 a83d 9609 973d
00000080: 4a36 833d 9faa 44bb 05ef 7eba 1883 c23d
00000090: ef0a 653d 61e5 413d 250c fc3b 662e 1a3d
000000a0: 2aa0 663d 9396 293d 90bc 293d 7145 1c3c
000000b0: 55dd bdbd 5cb5 db3b 380f 10bd cad5 0a3d
000000c0: 7ba1 573d 9053 e9bc 232a 883d e53e 48bd
000000d0: 9099 913d dc2d 44bd 02f8 02ba b982 21bb
000000e0: bb0c 003d 6651 29bd ce39 883d bc1a 61bd
000000f0: 150b 3b3b 0299 3ebd 0a00 1dbd e15d 05bd
00000100: dd9d 13bd 525b f23b bfe3 d1bc 1e2f 80bc
00000110: 4274 b3ba fae6 5fbc 404f 753d a51b c5bb
00000120: 1d9a 57bd fcac 3eba 1193 eb3c 0273 b03d
00000130: 6276 763d b1bc 133d 8e0b 34bd fb7f a23c
00000140: 5bfc 3dbd 0a7a f43b 13db 7dbc 4665 babc
00000150: 5f76 abbd ed28 933c e116 ddbc 70fe 383d
00000160: 3212 1a3d 3dd2 88bd c719 75bd 6a24 2dbd
00000170: a7fb ad3d cc3c 993d b1e8 0e3d f0d1 8d3c
00000180: fc78 643d 813e 413d b8ba 1f3d 17e6 6c3d
00000190: 3b9b b03d e002 8d3d 9f18 bb3b a4e5 633d
000001a0: 0cbc 953d c302 b73b 8a5b 00bc 7c86 163d
000001b0: fce2 9d3d f03e 613d a2d1 98bd 9eb6 a73c
000001c0: 8bf6 c93c d42e 75bc d836 063e 5e0f fa3d
000001d0: 0690 d93d 34e3 a23d 6122 8a3d e100 b5bb
000001e0: 65f5 83bc 107d 493c 1120 bc3d 381a 35bb
000001f0: 1c22 1cbd 29a2 893d 64e1 ddbd b37b a1bb
00000200: 91c3 863d 39dd 24bc 2c25 8ebd 0e43 febb
00000210: de37 acbd 8e8b 8ebd 4451 613d c2fe 283b
00000220: 5e62 bf3c 6577 70bc b3eb e7bd b0ea b738
00000230: dfda 8bbd bcde 323b fb30 9d3b 242c 9ebd
00000240: 4c58 5a3d 239e 2fbd e08f 423d a0c6 fbbc
00000250: 3042 8dbd b25e c83c 4a4f bd3c b008 193d
00000260: e225 34bd ccf0 04bc 8e58 da3b e9e7 1ebb
00000270: 5259 94bd 7779 873d f22e cc3b f7bf 123c
00000280: a1b6 8bbd 4e44 da3c 35d1 433d c804 0f3d
00000290: 9014 5c3d 32f8 e5bc aa3e 033d ec42 9bbc
000002a0: fa22 77bd ce97 84bd 40cd 0f3c 6c16 b1bd
000002b0: a23b 7cbd 2c2b 4dbd 02dc 82bd 3de9 213c
000002c0: b1ab 04be 3117 933d 7231 7ebd 84eb a63c
000002d0: 09e3 d33c 8fcb 463d 4672 f83c f89c 8dbd
000002e0: 7946 353d 1f00 1b3d 6112 92bd 998f f23c
000002f0: 9e16 013c 5936 173d 9ff6 6dbd 7acf e539
00000300: 107a 30bc b2bd 913d d05c a33d af33 01bd
00000310: d9ca aabd dcfb 073a 63aa 683c 3a0e 99bc
00000320: 4193 023d dd61 84bd aa18 813d f8ad 0abc
00000330: 8862 833c 5183 0cbd 81d0 e83c e2c8 b23d
00000340: 664f bdbd 394c 793d 592b 7abc fa78 c53c
00000350: a0a9 8c3d 0f12 94bc 2364 88ba 12f5 69bc
00000360: 61ec 2dbd 2323 423c a9e6 36bd f417 98bd
00000370: 7f94 0a3d 1133 e9bc fa12 19bd e36a 853a
00000380: 87c2 e0bc 868b df39 7e57 333d c523 18bd
00000390: 442a 703c 1f4d d13c e6f9 47bc fdb3 ab3d
000003a0: 7153 8b3d 74aa 6aba 00f9 4dbd f43a 11be
000003b0: 7dcd aebd 7b0f e3bb 0690 03be cb9f 18be
000003c0: e6d4 b93c dc81 003d e0a4 cfba 168a 903d
000003d0: f1e1 0e3c 1e08 333c 89bb 58bd c026 333d
000003e0: e678 e5bc bd71 6ebd 1898 953d 5a1f 0d3c
000003f0: b6e2 fabc f2e7 15bd d774 b8bc 7cc5 60bd
-0.012281154 -0.06367464 -0.037508324 -0.05910672 -0.07268338 -0.07157475 -0.06694778 -0.0656166
-0.028828073 -0.07749057 -0.09322509 0.074708454 -0.010595068 0.04703379 -0.032103848 -0.056407753
0.051995944 0.086967535 0.05889076 0.00059542235 0.06087577 -0.006906457 -0.07303962 0.0030066217
-0.0071319463 -0.043134764 0.033215463 0.09163312 0.0814414 -0.01840595 0.08225028 0.07374875
0.06406839 -0.0030008925 -0.0009724948 0.094976604 0.05591863 0.047337893 0.0076918774 0.037641905
0.056305088 0.041403364 0.041439593 0.0095380405 -0.09270731 0.0067049693 -0.035170764 0.03389529
0.052644234 -0.028482229 0.06648662 -0.048888106 0.07109368 -0.047895297 -0.00049960625 -0.0024644567
0.03126214 -0.041337393 0.0665165 -0.054957137 0.002854054 -0.04653264 -0.038330115 -0.032560233
-0.036039222 0.00739614 -0.025621293 -0.015647467 -0.0013691264 -0.013665909 0.05989003 -0.0060152584
-0.05263721 -0.00072737015 0.02875665 0.08615686 0.060171492 0.036068622 -0.043956332 0.019836416
-0.046383243 0.0074608373 -0.015494126 -0.022753369 -0.08372187 0.01796385 -0.026988449 0.045164526
0.03761501 -0.06680725 -0.059839036 -0.042271055 0.084952645 0.07482299 0.03488988 0.01731202
0.055779442 0.04717875 0.03899643 0.05783662 0.08623358 0.06885314 0.005709722 0.055638924
0.07311258 0.005585046 -0.007834325 0.036749348 0.077093095 0.054991663 -0.07461859 0.02047282
0.024653694 -0.014964778 0.13106859 0.12209962 0.106231734 0.07953492 0.067448385 -0.0055237864
-0.016108224 0.012297884 0.09185804 -0.0027634036 -0.038118467 0.06720383 -0.108340055 -0.004928076
0.0658027 -0.010062509 -0.06940684 -0.0077594584 -0.08409093 -0.06960212 0.05500914 0.0025786613
0.023362335 -0.014676903 -0.11324253 8.769834e-05 -0.06828856 0.0027293405 0.0047970987 -0.07723263
0.053306863 -0.04287542 0.04750049 -0.03073436 -0.0689739 0.024459217 0.023109097 0.0373618
-0.04398144 -0.008114051 0.0066633886 -0.0024247116 -0.07243599 0.066149645 0.0062311823 0.008956901
-0.06821943 0.026643898 0.047806937 0.03491667 0.053730547 -0.02807245 0.032042183 -0.01895281
-0.06033609 -0.06474267 0.008776963 -0.08646855 -0.061580308 -0.05009 -0.063896194 0.0098822685
-0.1295612 0.07182158 -0.062058873 0.020375974 0.025865095 0.048533972 0.030327927 -0.06914705
0.04425666 0.037841912 -0.07132412 0.029609488 0.0078789275 0.036917064 -0.058096524 0.00043832866
-0.0107712895 0.0711626 0.07976687 -0.03154343 -0.08339471 0.0005187371 0.01420078 -0.018683542
0.031878714 -0.064639784 0.063035324 -0.008464329 0.016038194 -0.03430492 0.028419735 0.087297216
-0.0924366 0.060863707 -0.015269124 0.024105538 0.06868291 -0.018075017 -0.001040582 -0.014279621
-0.042461757 0.011849198 -0.04465357 -0.07426444 0.033833023 -0.028466733 -0.037371613 0.001017895
-0.027436508 0.00042637828 0.04378461 -0.037143487 0.014658514 0.02554947 -0.0122055765 0.083839394
0.068030246 -0.0008951791 -0.050286293 -0.14182645 -0.085352875 -0.0069293357 -0.1284791 -0.14904706
0.022684526 0.031373844 -0.0015841983 0.07057588 0.008720861 0.010927228 -0.052913222 0.043738127
-0.02801175 -0.058213938 0.073044 0.008613432 -0.030625682 -0.036598153 -0.022516651 -0.054875836

weight f4 [16]
00000000: ac94 803f 5239 823f b7f2 823f bae9 803f
00000010: 907c 823f 478d 7f3f 416a 7d3f 6bc3 773f
00000020: efa4 763f c229 7a3f 4f2e 813f 68f2 7b3f
00000030: b937 823f af90 813f d37b 7f3f a201 803f
1.0045371 1.0173743 1.0230321 1.0071328 1.0194263 0.9982495 0.98990256 0.9678256
0.9634542 0.9771997 1.0092257 0.9841676 1.0173255 1.0122279 0.99798316 1.0000498

bias f4 [16]
00000000: da47 c0bc be8b f1bb c282 2aba 84ba 8d3a
00000010: 326e a7bc e68b 82bc 9409 c7bc 0a8b 0f3c
00000020: 70f0 49bd 1fd7 74bd ccd5 d0bc 95ec bfbc
00000030: d2bc ae3c 0683 56bd 6063 34bc 75db f53a
-0.023471761 -0.007371395 -0.000650447 0.0010813032 -0.020438287 -0.01593585 -0.02429656 0.008761177
-0.049301565 -0.059775468 -0.025492571 -0.02342824 0.02133027 -0.052371047 -0.011010021 0.001875742

running_mean f4 [16]
00000000: 7bb0 143e e494 c4bd 63b8 dbbc 2ca1 00bf
00000010: 97f3 0c3e 5812 913e 5221 82be cc7f d13c
00000020: 8099 853d 28bd 243e a16d 4e3d 6c53 95be
00000030: b581 4c3e 2754 cf3e e61b d9be 328d 9bbe
0.14520447 -0.09598711 -0.02682132 -0.5024593 0.13764797 0.28334308 -0.25416046 0.025573634
0.065234184 0.16087782 0.05039752 -0.29165208 0.19971354 0.4049389 -0.42404097 -0.3038116

running_var f4 [16]
00000000: cf4b 453e 63bc 873e f6ee fb3e 7e6b db3e
00000010: 88e6 ef3e 19f5 c03e 7618 563e 2137 5d3e
00000020: 4f51 173f c78f a03e bc7a ac3e 784f ad3e
00000030: 2141 df3e 4c27 663e 0ea5 173f f465 b63d
0.192672 0.26510915 0.4920575 0.42855448 0.4685557 0.37686995 0.20907769 0.21603061
0.5910844 0.31359693 0.3368739 0.33849692 0.43604377 0.22475928 0.5923623 0.08906165

weight f4 [32, 16, 3, 3]
00000000: dcde 77bc d578 b0bc c02f 23ba c284 4cbc
00000010: f19c cebd 774f 693d 0205 e5bc ac65 2dbc
00000020: 2fcc 00bd 4a52 bbbc d02b f5ba a4b4 61bd
00000030: d4c7 d3bc f8e2 853d d4ab d13c 8d32 f1bc
00000040: e0f2 3f3c 9a82 493d 2ffe 0dbd ee80 2cbd
00000050: 3419 c0bc 8434 90bd 2b24 973d 5dd0 263d
00000060: 4e72 023d 8a32 823c aa2f 1d3d 9e70 a43d
00000070: 0ebf a0bd dbfc 89bd 28d6 673c 9dad 36bd
00000080: 83c9 83bd 20a2 85bb 5cc6 dc3c 305c b03c
00000090: 30c8 9a3d 17c9 6e39 39a6 d63b 6a92 293d
000000a0: f0e9 803d 3bd8 ed3c 9cbc 943d ba6a 7bbc
000000b0: 310c e1bc 555c 2bbd f6b4 123c 1355 cf3d
000000c0: 144c ad3d 60c7 4e3d f2fd d73b 841b 29bd
000000d0: 4764 81bd 085d bb3c 5414 ab3d 944f 203d
000000e0: b145 5abd b8c7 143c a9cb 923c 66d1 62bc
000000f0: d2b6 65bd 5d7b 323d 6f60 4f3c 7966 12bd
00000100: 1796 273c 3741 c1bc 57b1 b93d 69f5 a03d
00000110: 7cce 923d 04c9 b93b 678b 99bc 5026 3f3c
00000120: 0797 0a3d ab93 edbc 6943 90bc fe37 83bd
00000130: d3f8 2a3b d586 76bc 8645 83bd 2160 7dbc
00000140: 1eae ceba 5b84 023d 233f bd3c 1850 303d
00000150: 2be3 aabd 9567 9cbd f5c7 91bc 72e3 a0bd
00000160: 04e6 ebbd 2c4b a4bd 14de d1bc a10c 423d
00000170: 4c34 37bd a41a 013d db1c 7ebd aebb 8b3d
00000180: c961 0abd dfde 5cbc 0e50 2c3d 62c6 b13d
00000190: 570a 3ebc 9170 983d 5e72 a83d b2b7 833d
000001a0: 78d0 c43d f5dc 053b 5733 133d da8a 2b3c
000001b0: de3a ac3c d4fa 59bb 8e52 93bc 4678 873d
000001c0: 0fb9 ef3c 113f 153b 01b7 88bd 1fb2 49bc
000001d0: 9564 8c3b 3910 983d 6ab2 f73d 5e58 0f3e
000001e0: 8c87 673d 60d6 f63c 608d d33d 7700 3a3c
000001f0: 3ca5 103c d416 ab3a 67af c93d 3490 543d
00000200: 4e8a ac3d 3efa 25bc b103 9d3d 464d 413c
00000210: c3e2 79bd ed97 84bd f0e0 9bbd bf09 803d
00000220: e5d4 d6bb 8229 743c c408 c93d a54e c53d
00000230: 3255 8b3d 86e9 c7bb 57f5 bfbc 112b afba
00000240: e8a2 13bd f5fd 82bd f346 613d 21c9 723d
00000250: 6b32 73bc 95a7 1abd abb8 873d 7e34 cfbc
00000260: 00d8 5e3c 59a5 08bc c40a 5f3d 1cb8 b4bd
00000270: 2fb4 25bd c007 8fbd 54aa 08bd d3ca 8c3d
00000280: 24ef 85bd 15b6 96bd 0f68 01bd 1a33 b13d
00000290: 1b39 afbd 7933 8a3c c72a 89bc 9b24 97bc
000002a0: d9e0 e83d fbda 8a3d 4dfa bbbd 6707 ad3d
000002b0: 21cf 46bd 3f3e 9b3d 2d4d 12bd 66a1 43bd
000002c0: 5665 8a3d 97b3 6dbc 2430 d23d ee8b 413d
000002d0: f7b3 c8bd 2fb4 203d b7d1 4cbd b07f 87bc
000002e0: 247c 7d3d bdb1 5cbd 919e 9bbd 00e3 5a3d
000002f0: 2841 d23d e2f5 c03c 48d8 0839 3f44 17bd
00000300: 32f6 b3bc 4049 27bd 3bd0 1b3d 01dd 3fbd
00000310: 31ea ac3d acd1 ca3d 7fd4 543c 0bd9 a6bd
00000320: dec1 55bd a3bf 393c 8363 cabd b654 a53c
00000330: fc54 333d e96b 98bd 542c e43c 6d95 babd
00000340: 4d4b 973d 2c88 6dbc c3f4 39bd 1509 793d
00000350: fa9c bf3d c799 f3bc 8154 783b c931 1cbd
00000360: 1c1f 7d3c 8fd2 47bd 4fcf 363d 39ab 98bd
00000370: 3d6e 26bd 79c7 11bd 78ac 77bd 848d 1a3c
00000380: 4eab 2f3d 1c27 ab3b ec18 853d 28a9 953d
00000390: c000 8ebd 6d6a b93d 9a29 203d 8781 abbd
000003a0: 79bb 443d b040 1f3d d5cd 343c 9737 43bd
000003b0: 669b adbc e2c7 293c 3afd 5a3d 7a72 96bd
000003c0: 24ea ad3d 4e3f 61bd f807 083d f3bc 6b3d
000003d0: 9e1a 5cbc 8e02 2f3d e6d8 8ebd d0c4 a6bc
000003e0: 1352 c7ba d1a0 8b3d ae46 033d 3f71 bb3d
000003f0: 5743 51bd d5b5 3e3d 08fa 533d 6848 9b3c
-0.015128817 -0.021541992 -0.0006225072 -0.012482824 -0.10088528 0.05696055 -0.02795649 -0.0105833225
-0.031444725 -0.022866387 -0.0018705074 -0.055103913 -0.025852121 0.065374315 0.02559463 -0.02944305
0.011715621 0.049196817 -0.034666236 -0.042115144 -0.023449518 -0.070412666 0.07379945 0.040726054
0.03184729 0.01589324 0.038375534 0.080292925 -0.07848941 -0.067376815 0.01415018 -0.044599164
-0.0643492 -0.0040781647 0.026950054 0.021528333 0.07557714 0.0002277236 0.006550577 0.041399397
0.0629462 0.02903377 0.07262537 -0.01534527 -0.027471634 -0.0418361 0.008954277 0.101236485
0.084617764 0.050483108 0.006591552 -0.041286007 -0.063179545 0.02287151 0.08353487 0.03913839
-0.05328912 0.00908082 0.017919378 -0.01384387 -0.056082554 0.04357468 0.012657269 -0.035742257
0.010228655 -0.023590667 0.09067028 0.07859308 0.0716829 0.005669715 -0.01874323 0.011666849
0.033835437 -0.029001078 -0.017610269 -0.06407164 0.0026088252 -0.015046795 -0.06409745 -0.015464813
-0.0015768444 0.031864505 0.023101395 0.043045133 -0.0834411 -0.07636944 -0.017795542 -0.07855882
-0.115184814 -0.080221504 -0.02561859 0.047375325 -0.04472761 0.031519547 -0.062039237 0.068229064
-0.03378466 -0.013480871 0.042068534 0.08680417 -0.011599145 0.07443345 0.08224939 0.064315215
0.09610075 0.002042589 0.035937633 0.0104701165 0.021024164 -0.0033261077 -0.017983701 0.06614737
0.029263048 0.0022773186 -0.0667553 -0.012310534 0.0042844512 0.07424969 0.12094577 0.13998553
0.056525752 0.030131519 0.103296995 0.01135265 0.008828457 0.0013053068 0.098479085 0.051895335
0.08424817 -0.010130463 0.0766672 0.011798209 -0.061007272 -0.0647429 -0.07611263 0.06251859
-0.0065561407 0.014902474 0.09816125 0.09634141 0.06803359 -0.006100836 -0.023432417 -0.0013364275
-0.03604403 -0.06396095 0.054999303 0.059273843 -0.014843564 -0.037757475 0.066270195 -0.025293585
0.013601303 -0.008340203 0.054453626 -0.088241786 -0.04045504 -0.069839 -0.033365563 0.06874623
-0.06539753 -0.07358948 -0.03159338 0.08652325 -0.08555814 0.016870247 -0.01674403 -0.018450072
0.11371011 0.067800485 -0.091786005 0.084486775 -0.048537377 0.07580232 -0.03571813 -0.047761343
0.067576095 -0.01450815 0.10263088 0.047252588 -0.097999506 0.039234336 -0.050004687 -0.016540378
0.061885968 -0.053880442 -0.075986035 0.05343914 0.10266334 0.023554746 0.00013050542 -0.03693032
-0.021967981 -0.04084134 0.03804038 -0.046841625 0.08443106 0.09903273 0.012990116 -0.081468664
-0.05218684 0.011337194 -0.098822616 0.020181995 0.04378222 -0.07442457 0.027853169 -0.09110532
0.07387409 -0.014497798 -0.04539944 0.060799677 0.09356113 -0.029736413 0.0037892165 -0.038133416
0.015449312 -0.04878479 0.0446313 -0.07454533 -0.040632475 -0.035590623 -0.060467213 0.009433154
0.04288798 0.005223168 0.06498894 0.073076546 -0.06933737 0.09053502 0.039102174 -0.08374315
0.04803035 0.03888005 0.011035402 -0.047660436 -0.021192264 0.010362597 0.053464152 -0.073460534
0.084919244 -0.054992013 0.033210725 0.057553243 -0.01343408 0.042727046 -0.06974964 -0.02035752
-0.0015206955 0.06817783 0.032049827 0.09152459 -0.05108961 0.046560127 0.05175212 0.018955424

weight f4 [32]
00000000: ac77 813f 45c6 823f abc2 6e3f 9d60 7f3f
00000010: 7fe2 7f3f ea95 713f 3391 7f3f 6aa5 823f
00000020: c2c9 803f ea2f 883f b4c7 7d3f 49bc 773f
00000030: 0c0d 853f 0503 773f 5763 853f 6618 813f
00000040: c48f 783f b12b 803f 7771 803f d75b 853f
00000050: 55e1 7e3f cfc1 843f a522 793f 795f 803f
00000060: 128a 7e3f 7019 7f3f 8f51 803f 8db8 793f
00000070: 394e 7e3f 4bba 843f 3278 7f3f c827 7d3f
1.0114646 1.0216757 0.9326579 0.99756795 0.9995498 0.94369376 0.9983093 1.020673
1.0061572 1.0639622 0.9913285 0.96771675 1.0394607 0.9648898 1.0420941 1.0085571
0.9709437 1.0013334 1.0034627 1.0418652 0.9956258 1.0371646 0.9731849 1.0029136
0.9942943 0.9964819 1.002489 0.9754723 0.9933811 1.0369352 0.9979278 0.98888826

bias f4 [32]
00000000: 2f71 12bd 4250 09bd 74a2 44bd fe47 23bd
00000010: 5587 15bd ff40 03bd bb46 cebc c374 323c
00000020: 2d99 1f3a f368 b43c 2c11 59bd a8fe 09bd
00000030: 298c 663b 78a0 58bd d919 413b a927 953a
00000040: 8afc 8ebc 70ef 48bb 3585 b3bc 2ac5 5abd
00000050: aab8 1fbc 891e f0bc 6d52 81bd e67d a6bc
00000060: b8c7 49bd e6e3 41bc 9d9c bebc cb88 35bd
00000070: a180 9cbc ae60 a3ba 6527 f4bc b4b6 58bd
-0.03575247 -0.033523805 -0.04800649 -0.03986358 -0.036506016 -0.032044407 -0.025180211 0.010892096
0.00060881936 0.0220227 -0.052994892 -0.033690125 0.0035178757 -0.05288741 0.002946487 0.0011379617
-0.017454404 -0.0030660294 -0.021914104 -0.053410687 -0.009748617 -0.029311435 -0.063145496 -0.020323705
-0.049262732 -0.01183412 -0.023268038 -0.04431991 -0.019104304 -0.0012464726 -0.029803941 -0.052908614

running_mean f4 [32]
00000000: 77ff 153f 4523 963e f2bb 7ebe ba26 2f3e
00000010: e269 583d 9862 06be 356f 23bf 6374 2a3f
00000020: 6aae 673e 70f0 bcbe 5ea9 333f 2a18 483f
00000030: c502 8c3e 75ac f8bd 5083 e33d 89cd 8e3e
00000040: 9188 ccbe 3175 71be 7ed1 a63e 953f 053f
00000050: b500 2dbe ab92 c3bd 47d6 57bd 0f0c c73e
00000060: 06a1 8d3e 4a0f f43e 4740 863e fccd d83d
00000070: d259 d03e d07d 4f3e 3649 c4be ec50 c5bd
0.58592933 0.29323784 -0.24876383 0.17104617 0.052835353 -0.13123548 -0.63841563 0.6658384
0.22625127 -0.3690219 0.7018031 0.7816187 0.27345863 -0.121422686 0.1110903 0.27891186
-0.39947942 -0.23579861 0.32581705 0.52050143 -0.16894801 -0.09549459 -0.052694585 0.38876387
0.27661914 0.47667915 0.26220915 0.105861634 0.40693527 0.20262837 -0.38337106 -0.09634575

running_var f4 [32]
00000000: abb0 993e a0c6 693e 97d4 a13e a325 0a3e
00000010: e854 843e 896a 873e 6b59 bd3e 7e1f 553f
00000020: 2e1c 5b3f 729b a83e 1a7d 623e b7dc 3f3f
00000030: f223 b03e ed5f 403e d29f 083f d04c e93e
00000040: 344b ff3e 666a c93e 015e 3c3e beec 953e
00000050: e3ab 563e 4594 213e 4147 3f3e 5bcb d43e
00000060: e1e1 183e b889 ef3e 0be6 833e 6921 af3e
00000070: d575 0f3f 2087 703e a797 333f 7d8b bf3e
0.300176 0.22829676 0.31607506 0.1349092 0.25846028 0.26448467 0.36982283 0.8325118
0.85589874 0.32931095 0.22118035 0.7494616 0.34402424 0.18786593 0.53368866 0.45566416
0.49862063 0.39338988 0.18395235 0.29282182 0.20964007 0.15779217 0.18679525 0.41561398
0.14929916 0.4678476 0.25761446 0.34205177 0.5603917 0.23489046 0.7015328 0.3741111

weight f4 [32, 32, 3, 3]
00000000: 42dd 293c 68a4 c23c 35ae f23c 8ef6 a53c
00000010: 0ced 59bd 4e21 46bd 73dd 8c3d 4445 ea3c
00000020: 1b63 fdbc 4b04 e53b 067c 53bc 7f3c 00bd
00000030: c4aa 91bc 7a70 fc3c 7640 c63c 06b9 683d
00000040: d951 2a3d 3264 0c3d a681 87bc 2299 5d3d
00000050: acbc c4bc ddfa 0bbd 0727 483d d9e5 023d
00000060: 927d 04bd 24cd eb3c eb85 47bd 7601 6cbb
00000070: ae00 9e3d 2909 403c 67dc cdbc 19af 8b3b
00000080: e368 c43c 8bcc 9dbc e553 06bc 1e56 dc3c
00000090: 1624 6b3d 9289 d03c 1bc3 4e3c 082e e2bb
000000a0: 19c5 4dbc 8840 3b3c 5b8d ef3c 45ca 353c
000000b0: dda5 1d3d a72d 363d 1684 8b3c f681 273d
000000c0: de31 ed3b 55bb b83c 3af9 953c 12e8 803c
000000d0: 66bf 45bc 5063 aebb 01e8 81bd 2b50 39bd
000000e0: 16f3 003b 813d 74bd ce9a bcbb 70ec 453d
000000f0: 3344 4a3d 080e bebc 1478 89bc 6ba6 373c
00000100: 5a38 423d 43e8 203b 1e1f 46b9 07e5 30bd
00000110: c831 26bc 3334 053d a621 553c 925b c8bc
00000120: 271d 0c3d 8e6a 84bd 81c1 0cbd bf96 7dbd
00000130: dc2e 23bd 6760 87bc bb73 70bc 63c5 80bc
00000140: 4f19 e63c 3a57 67bd dc4d b2bd fd52 94bd
00000150: 38f2 f63c 7201 47bd 27b7 7abd 595e 4d3d
00000160: f4ed 3b3d e39e 57bd e9cb d83d d176 a13d
00000170: 6e81 b23c 3682 be3d f4e6 e8b9 abf0 353d
00000180: eebe 023d 6efc 433d 70d9 41bd 2d45 3cbd
00000190: 91e2 3ebd 0f5d 9dbb 8684 733c b9be 063d
000001a0: 7478 2a3d 0b39 103d f785 6b3d 2312 123d
000001b0: b950 64bc 6364 513c 9ebc 7fbd 2476 813d
000001c0: d150 783d 2dd3 27bd 423b e4bc 831b 7b3d
000001d0: 48ec 36bd 1d99 a2bc d10f e7bc 7f61 1fbd
000001e0: d36c 693c 5334 97bd 98e6 c43c ec5c ca3c
000001f0: 8682 533b eec0 0e3d 3553 0cbd 2f65 fcbc
00000200: efae 70bd 6a91 a6bc 8af0 3abd efce e9bc
00000210: 2ce2 063c 610f 19bd ff54 59bd 7cfe 073d
00000220: 573d 92bd 0725 c33c 016c ad3c 15a2 233d
00000230: a6bb 83bc 6c17 d23a a1e8 f0bc 5505 a4bc
00000240: 1fbe 94bc 1064 1abd 825e 58bc 15ba 303b
00000250: a857 10bb 7c2e dabc 99dd 08bd 32cb 873b
00000260: afc9 923c 0f0a 51bd 0164 5ebc 5ccf 233b
00000270: 4f03 20bc 3288 abbc 840b 743d 841d 163d
00000280: 3a2d 633d 459b 513d 53fb 1b3c 291c 243b
00000290: 45e8 ccbd 6795 2fbc e20c 293b 83a1 30bd
000002a0: f186 b23d 9350 e13c 5065 6c3d a038 003d
000002b0: bcd0 ff3c 7bda 883b 5403 bcbc 02a5 873d
000002c0: 6f82 093d ef53 813d 8ce1 9e3d cf8e 293d
000002d0: e302 5e3d 75b3 5cba 4938 cf3b 70d0 fe3b
000002e0: 570d dabc 4825 04bd 9a59 bd3b be77 7b3d
000002f0: 75a5 a43b 2d77 833d 6057 583d 9dce c13d
00000300: 8b68 11bd 3dc4 443d 8127 6cbc c449 e539
00000310: 67c2 493d 34bc 2cbd f510 a63d 33fd c93c
00000320: 8926 733d e6d0 87bc 2452 70bc 8ca8 0dbc
00000330: 3bd8 b13c 1f16 56bd b2d8 83bd 8fcf 42bd
00000340: 22d8 21bd 4f38 4cbd 0029 943c 4f6d 8b3c
00000350: 1318 48bd d176 dabc 5a2c fe3c 4861 f6bc
00000360: c057 e63d 4373 bc3d e966 4e3b d38e 873d
00000370: 4a14 233d 371c 07bd a9b4 6fbc cd02 d53b
00000380: 803a d1bc 9e4d 0abd 3cbe 26bc 56e2 19bd
00000390: cb42 13bd 654a c9bc 1e6e ecbc 0349 5d3d
000003a0: b74e 573d b4c0 f0bc 708e 89bd bbfb 2d3d
000003b0: d376 49bd 19e5 2cbd dfef 38bd 05e7 f23c
000003c0: f18f dc3c e8bd ef3c 33c9 953c 989f 4d3c
000003d0: 812a 77bc db20 07bd 1c5d 3f3d 3f5a 333d
000003e0: fd1e 3b3b 96da 83bd 9648 1e3b 79a6 5e3d
000003f0: ebc8 43bd 07c1 da3c 60bc a6bc b07e 54bb
0.010367693 0.023760036 0.029624084 0.020259168 -0.05320458 -0.048371606 0.068781756 0.028597482
-0.030931046 0.006989037 -0.012907987 -0.031307694 -0.017781623 0.030815352 0.02420066 0.056817077
0.041581962 0.03427524 -0.016541313 0.054101117 -0.024015747 -0.03417479 0.048865344 0.03195748
-0.032346316 0.028784342 -0.0487117 -0.0036011613 0.077149734 0.011720934 -0.02512951 0.0042628166
0.023975795 -0.019262573 -0.008198713 0.026896533 0.05740746 0.025456224 0.012619759 -0.00690246
-0.012559199 0.01142896 0.029242208 0.011095588 0.038488258 0.04447713 0.017030757 0.040895425
0.0072386106 0.022550264 0.018307317 0.01573566 -0.012069559 -0.0053218976 -0.06343079 -0.04524247
0.001967614 -0.059628967 -0.005755759 0.048321187 0.049381446 -0.02320005 -0.01678089 0.011209111
0.047417022 0.0024552501 -0.00018894344 -0.043187167 -0.010143705 0.032520484 0.013008511 -0.024457727
0.03420749 -0.06465636 -0.034364227 -0.06191134 -0.03983961 -0.01652546 -0.01467603 -0.015719121
0.02808824 -0.05647967 -0.08706257 -0.07242391 0.030144796 -0.048585363 -0.061209824 0.050138805
0.045881227 -0.05264176 0.10585768 0.078839906 0.021790233 0.093021795 -0.00044422562 0.044418972
0.031920366 0.047848158 -0.047326505 -0.04596441 -0.04660279 -0.004802353 0.014863139 0.03289673
0.04161878 0.03521065 0.057500806 0.035661828 -0.013935261 0.012780282 -0.06243574 0.06321362
0.060623948 -0.040972877 -0.027860288 0.061305534 -0.04465893 -0.0198484 -0.028205784 -0.03891134
0.014247137 -0.07383027 0.024035737 0.024702512 0.0032273843 0.03485196 -0.03425904 -0.030809967
-0.05876058 -0.02033301 -0.045639552 -0.028541056 0.0082326345 -0.037368182 -0.053059574 0.03320168
-0.07140606 0.023821367 0.021169664 0.039949495 -0.016080689 0.0016028709 -0.029407801 -0.020022074
-0.018157063 -0.037693083 -0.013206126 0.0026966382 -0.0022024903 -0.026633494 -0.033414457 0.004144096
0.017918436 -0.051034983 -0.0135736475 0.0024995422 -0.009766414 -0.020938966 0.059581295 0.036649242
0.055463053 0.051173467 0.00952037 0.0025041199 -0.100052394 -0.010716773 0.0025795032 -0.04312278
0.08717144 0.027504241 0.057713807 0.031304 0.031227462 0.0041764355 -0.022950806 0.066232696
0.033571657 0.06314837 0.077578634 0.04139596 0.05420197 -0.0008419075 0.0063238484 0.0077763125
-0.026617689 -0.032262117 0.0057785036 0.061393492 0.005024607 0.06419215 0.052817702 0.094632365
-0.03550009 0.04803871 -0.014413715 0.00043733243 0.049257662 -0.042171672 0.08108703 0.024656868
0.059362922 -0.016579103 -0.014668021 -0.008646142 0.021709552 -0.05226719 -0.06437816 -0.047561225
-0.03951276 -0.049858388 0.018085957 0.017019896 -0.048851084 -0.026667984 0.031027008 -0.030075684
0.11247206 0.09201672 0.0031494445 0.066190384 0.03981427 -0.032985892 -0.014630475 0.006500578
-0.02554059 -0.033765428 -0.010177191 -0.037569366 -0.03595237 -0.024571607 -0.028861102 0.054024708
0.052565303 -0.029388763 -0.06716621 0.042476397 -0.049185585 -0.042210672 -0.045150634 0.029651174
0.026924105 0.029265359 0.018284416 0.012550257 -0.015085817 -0.032990318 0.046719655 0.043787237
0.0028552406 -0.06438176 0.0024152151 0.05435798 -0.047799032 0.02670337 -0.020353496 -0.0032424144

weight f4 [32]
00000000: b5df 813f b545 7d3f 3469 7c3f 2a68 783f
00000010: 0ca7 853f de14 813f 7564 823f 8eec 7f3f
00000020: 6038 743f 6e2d 7e3f 46eb 7d3f 9498 833f
00000030: da75 813f c622 813f ff59 813f 3a16 853f
00000040: 948d 803f 9632 7f3f 3c07 6e3f 58a2 803f
00000050: f5d5 6f3f 0c81 833f 552a 813f ab82 813f
00000060: d149 833f 163c 823f 10ce 823f 4baf 823f
00000070: 7cfb 833f 75bc 823f 6c9e 803f 0ff7 7e3f
1.0146395 0.9893449 0.9859803 0.9703394 1.0441604 1.0084493 1.0186907 0.9997033
0.9539852 0.9928807 0.99187124 1.0280938 1.011409 1.0088737 1.010559 1.0397408
1.0043206 0.99686563 0.9297979 1.0049543 0.9368585 1.0273757 1.0091044 1.0118002
1.0256902 1.0174587 1.0219135 1.0209745 1.0311122 1.0213763 1.0048347 0.9959573

bias f4 [32]
00000000: 9eb8 7fbd 7974 c3bc 8321 0abd fe08 86bc
00000010: ddcb 73bd e251 e63a a3b4 aebb 6a47 73bd
00000020: 0acb cfbc 60e9 83bd 4b10 37bd d933 52bd
00000030: e6e4 7abc 0476 22ba ff5d 96bc 704c 91b9
00000040: 5cf1 34bc d1e3 583b 849f 77bd 3b05 96bc
00000050: d1be 63bd 43b8 a5bc 0dd5 63bd 21fa 6abc
00000060: 0194 883c ff37 993b 009b 33bd 0cbf 37bc
00000070: d3f1 5cbd 5222 41bd 47ae 853c 12e8 e2bc
-0.062431924 -0.02385925 -0.033723366 -0.01636171 -0.05952059 0.001757201 -0.005331592 -0.059394278
-0.025365371 -0.06440997 -0.044693273 -0.051318977 -0.015313363 -0.0006197395 -0.018355368 -0.00027713506
-0.011043873 0.0033094774 -0.06045486 -0.018313041 -0.0556019 -0.020229464 -0.055623103 -0.014341862
0.016672136 0.0046758647 -0.04384899 -0.011214983 -0.05394156 -0.04715187 0.016318453 -0.02769855

running_mean f4 [32]
00000000: f007 553e 68f1 103e 5e08 01bf 2edb ddbe
00000010: c4ab 273b 1532 393c 6d33 93be c1a3 debd
00000020: af85 0bbf 2b06 133e 477c b7bc 3208 c83d
00000030: b619 373e 0ff0 eebd 0d96 bc3d f877 2ebe
00000040: 7e1b 243e b955 01bf ca3d cebe 3334 3bbe
00000050: b936 843e be5e d73e ebf7 de3d d2bb 96be
00000060: a230 ae3e 01a2 9ebd 27aa c43e be42 e03e
00000070: 6eb7 013f 1981 19bd b7e3 e43c ffbd 0fbe
0.20803809 0.14154589 -0.5040339 -0.43331283 0.0025584558 0.011303444 -0.28750172 -0.10871077
-0.5450086 0.14357822 -0.022398127 0.09767188 0.17880902 -0.11666881 0.092083074 -0.17037952
0.16026112 -0.5052143 -0.40281516 -0.18281631 0.25823 0.4206447 0.1088713 -0.2944017
0.3402148 -0.077457435 0.38411066 0.4380092 0.50670516 -0.037476633 0.027940614 -0.14037322

running_var f4 [32]
00000000: 9c14 d33e 1e29 173f a744 ee3e 7013 453f
00000010: 5c5f 863e 0d4d 973f 9394 8c3f 9386 c63e
00000020: cd54 d13f 9f2b d13e 455f 153f 44b4 013f
00000030: df51 8b3f 7403 553f 3202 0c3f 398f 2e3f
00000040: 4614 0e3f 25bd 423f 1800 c13f d882 893f
00000050: 594b fc3e 257f 7a3f 137c 1a3f 53d3 8e3f
00000060: 09e5 873f df55 453f 8089 103f 666f d03f
00000070: 8030 173f 77ec 133f 6807 a83f d8c9 513f
0.4122666 0.59047115 0.46536753 0.76982784 0.26244628 1.1820389 1.0982841 0.38774547
1.6354004 0.40853593 0.58348495 0.5066569 1.088436 0.83208394 0.5469085 0.6818729
0.55499685 0.7606986 1.5078154 1.0743055 0.49276236 0.9785026 0.6034557 1.1158241
1.0616771 0.77084154 0.5645981 1.6283996 0.5905838 0.5778269 1.312726 0.81948614
