UNet_model.pth (torch, 140642 bytes, 51 tensors)

weight f4 [8, 3, 3, 3]
00000000: 219a 17be 4ce3 3bbe 88ab 36bd 9519 01be
00000010: d494 17be f32c f7bd f166 873d ceaa b0bc
00000020: 7322 d93d 7045 29be b551 2f3e 5257 53bd
00000030: 0acc 8d3d 2395 1b3d e4c2 0fbe a9e3 8cbc
00000040: b526 343c 688e b43d 1127 383e 636e 293e
00000050: 13e2 c2bc 7811 9f3d b7c8 173e 9a4a b9bd
00000060: 8945 833d 7e0a 9a3d 23c0 c83c 5519 1e3e
00000070: e6d7 433d 718b dcbd ca7e f63c 1892 d63d
00000080: 2bb6 e0bd aaaa 243e 781c 01be 719e 103d
00000090: 6adc 443c 5ac2 063e 3f6c 88bd c484 c63d
000000a0: 2af1 69bd 56a7 2d3e 898c a63d 7aee 8c3d
000000b0: 2c56 2c3e 522c 80bd beb1 cdbd e647 843d
000000c0: dc06 02be 126a 3bbe 5858 1cbd 50af f6bc
000000d0: 146d 043e 2f07 8e3d c754 a5bd e0a5 133e
000000e0: da6d e2bd a499 e33d 4a13 82bb cae8 563d
000000f0: c4de 103e 58a9 873d df41 913d 5c19 e0bc
00000100: bda6 95bd 19da 0abe 1555 8abd f83e 34bd
00000110: e96e a0bd fa86 a6bd d7d8 ed3d ddfa fcbd
00000120: 73ad 183e 2ae2 9abd 3815 06be 3e4b 9abd
00000130: bca7 76bc 50c3 56bd 447f 39bd 20c3 a13c
00000140: cef3 8a3d 822b 233e c9e4 003e dd25 10be
00000150: c034 1d3e 98fc 2dbc 1298 dabc ef0a b1bd
00000160: f502 cf3d 508d a03d de5c 34be 4370 e1bd
00000170: aba1 463e f9c5 02be 40d7 f9bd 5866 7fbd
00000180: c6bb 663d 2f5e 3b3e 275a c1bd f320 4f3e
00000190: 9821 343e e082 183e 7b55 ca3d 4345 12bc
000001a0: 1414 d8bb c976 1abe ecad 3e3e c56d 93bd
000001b0: cd23 91bc da81 9fbc 7cb3 b13d 12c4 2f3e
000001c0: a2fb 1a3e 5691 223e daff 953c d1d9 f13d
000001d0: 75fd f0bb 1c3d c23c 141d 23bd 7742 68bd
000001e0: 1e9a ea3d 642e ba3d 8794 04be 4c3a 1a3e
000001f0: 2e00 aebd 4ba3 e43c 27e9 b0bc 0c83 7a3d
00000200: 8d57 f6bd cd0b 43be 586a ae3d 97da 07be
00000210: 5c62 adbd ca57 08be e21e 13be dae2 91bd
00000220: f055 00be 2293 9b3d 50c1 ad3d 94d9 473e
00000230: 7706 513c f204 ed3d 55c7 8dbc c1d2 3fbe
00000240: 368e 0cbe f87f 1f3d f703 193e c957 1e3e
00000250: ad11 423e 6023 063d 38f3 1fbd dc48 6abb
00000260: 5cd3 2a3e 01c4 863d 521f d8bc 8722 acbd
00000270: 810d 4f3d 2017 18bd 51b2 9dbd ae6e a5bc
00000280: 29d1 cebd 5588 693d ccef e3bd 83eb b7bd
00000290: 8519 5a3d 0071 ffbc 699d e43c 8304 a5bc
000002a0: 1b30 96bd 2f5f 093d 5a16 e73d 5160 96bd
000002b0: b220 0c3d 2507 19be 4ac7 b7bd 5b9f 40be
000002c0: 317f fabd d9a4 0f3e cbff eebd 3ef8 2abe
000002d0: 06d4 fd3d 1e43 9b3c e891 843c 0c96 03be
000002e0: 902b e1bd 9587 033e 145f e2bd 71b0 4fbe
000002f0: db04 3f3e e989 0abe df4e 19be 8962 3fbe
00000300: d6f1 033e 20b4 0fbe 35d6 d73d c97d 703d
00000310: 653f 70bd 0931 5e3c ca30 fbbd 8408 783c
00000320: e1d7 273d 9baf 8a3c 06ac 003e a0ba abbc
00000330: 4ad8 c9bd 8c3f 013e e621 4b3c f6c1 1f3d
00000340: 6a1a 6ebc 280e aabd 4e10 bebd bf0d 09bd
00000350: eb92 073e 4929 943d b4a9 b8bc 7912 34be
-0.1480489 -0.18348426 -0.04459718 -0.12607415 -0.14802867 -0.1206912 0.066114314 -0.021565821
0.10602274 -0.16530395 0.17121013 -0.051596947 0.06923683 0.037984025 -0.14039189 -0.0171984
0.010995557 0.08816224 0.17983653 0.16546015 -0.023789441 0.07767004 0.1482266 -0.09047432
0.06409747 0.075215325 0.02450568 0.15439351 0.04781332 -0.10768784 0.030089755 0.10477084
-0.10972246 0.16080728 -0.12608516 0.03530735 0.012015441 0.13160077 -0.06661271 0.09693292
-0.057114758 0.16958365 0.08132274 0.06881423 0.16829747 -0.062584534 -0.10043667 0.06459026
-0.12697929 -0.18302181 -0.03817019 -0.030112892 0.12932235 0.06934964 -0.080728106 0.14418745
-0.11056109 0.11113289 -0.0039695846 0.0524681 0.14147478 0.06624097 0.07092642 -0.027355842
-0.073071934 -0.1355976 -0.06754509 -0.044005364 -0.078336544 -0.081312135 0.116136245 -0.12352536
0.14909916 -0.075626686 -0.13094032 -0.075338826 -0.015054639 -0.05243236 -0.045287386 0.019746363
0.06784783 0.15934566 0.12587275 -0.14076944 0.15352154 -0.010619305 -0.02668384 -0.086446635
0.10107986 0.07839453 -0.17613551 -0.1100774 0.19397609 -0.12770833 -0.12199259 -0.062353462
0.05633142 0.18297647 -0.09441023 0.20227413 0.1759094 0.14893675 0.09879585 -0.008927646
-0.0065941904 -0.15084375 0.18621033 -0.07198671 -0.017717266 -0.019471098 0.08676812 0.17164639
0.15135053 0.15875754 0.018310476 0.11809123 -0.007354433 0.02371078 -0.039822653 -0.05670401
0.11455177 0.090908796 -0.12947284 0.15061301 -0.08496128 0.027909895 -0.02159555 0.061160132
-0.12028418 -0.1904747 0.08516377 -0.13266979 -0.08466026 -0.13314739 -0.1436725 -0.071233466
-0.12532783 0.07596423 0.08484137 0.19516593 0.012757889 0.11573209 -0.017306963 -0.1873274
-0.13726124 0.0389404 0.14942919 0.15463175 0.18952055 0.03274858 -0.03905031 -0.0035748994
0.1668219 0.065803535 -0.026382122 -0.08405023 0.050549988 -0.03713143 -0.07700027 -0.020194378
-0.10098488 0.057014782 -0.11129722 -0.08980467 0.053246994 -0.031181812 0.02790709 -0.020143753
-0.07333394 0.03353804 0.1128356 -0.0734259 0.03421087 -0.14944132 -0.08973558 -0.1881079
-0.12231291 0.14027728 -0.116698824 -0.1669626 0.12393956 0.018952902 0.016182855 -0.12850207
-0.10994637 0.12844689 -0.11053291 -0.20282151 0.18654196 -0.13529171 -0.14971493 -0.18689932
0.12885222 -0.14033556 0.105389036 0.058713708 -0.058654208 0.013561496 -0.12265165 0.015138749
0.040977363 0.016929438 0.12565622 -0.020963013 -0.09855707 0.12621897 0.012398219 0.039003335
-0.014532665 -0.08303481 -0.092804536 -0.033460375 0.13239639 0.07234437 -0.022541858 -0.17585172

weight f4 [8]
00000000: 4005 803f 8760 7f3f 2791 7d3f 0259 823f
00000010: 2b15 803f d72f 813f 069e 7f3f 1183 7f3f
1.0001602 0.99756664 0.9904961 1.0183413 1.000646 1.0092725 0.998505 0.99809366

bias f4 [8]
00000000: 439c f23b 95ca f0bb 834f 84bc c0e3 623c
00000010: 41b1 f73b 7175 8ebb 98e4 d53b 81a2 733b
0.0074038818 -0.0073483684 -0.016151195 0.013848245 0.007558972 -0.004347496 0.0065274946 0.0037175717

running_mean f4 [8]
00000000: c8bd afbc 15eb 093e a188 7cbd e632 123e
00000010: f4be 3d3d aaa2 fd3d e2c1 6dbe 4dd4 d3bd
-0.0214528 0.13468583 -0.061653737 0.14277229 0.046324685 0.12384541 -0.23218492 -0.103432275

running_var f4 [8]
00000000: 01a6 fd3d 67ad 013e ad92 ff3d 4fb7 043e
00000010: 8e02 fd3d 50e8 013e 1bc3 0b3e 973c 013e
0.12385178 0.12663804 0.12479148 0.12960552 0.12354003 0.12686276 0.13648646 0.1262077

weight f4 [8, 8, 3, 3]
00000000: 7e97 d93d 84fe 6abd 45c3 933c ca8c 0bbe
00000010: 0b65 eabb 49c3 8d3d 5312 cabd b13b 93bd
00000020: 973c 41bd 5db4 963d 6136 7439 c990 cebc
00000030: c6a5 e3bc fcb4 1b3d 7c14 963d 8fdf 003d
00000040: 585f d93d 2990 123d 1d23 2fbd 8c29 6bbd
00000050: add7 9ebc bdc2 dfbd 9234 933c 57c7 8cbd
00000060: ee79 3d3d 30c9 633d fbbc dcbd 6528 1bbd
00000070: aa15 47bd d228 ab3c adba cabd dea6 e03d
00000080: 2028 d8bd 96ac d3bd 1f20 9d3d 294a c93d
00000090: 604b 723c 4f5b 51bb 7da8 853d fdc3 db3d
000000a0: 2bc1 013e dbe7 093e 1795 8d3d 16e6 f23d
000000b0: 3d05 593d bcd3 8cbd 112e 62bd 86f7 9fbc
000000c0: 4128 e13b 2da1 e8bc ca86 d1bd 9b03 e5bc
000000d0: 5e62 71bc 4c99 013c 8438 c23d 7b6b 283b
000000e0: 8d38 c8bc f12f 86bd 671a f03b 0155 fdbd
000000f0: 3bbf d2bd e73d cc3d 5f07 fc3b 1930 d1bc
00000100: c92e 0cbd 3dd4 913d 355e 1a3d 3aee d73d
00000110: 541e 923d 9882 4cba 1f04 d3bd be0f 40bd
00000120: 16ad d13c e808 1e3c f998 333d 3772 783d
00000130: a4f8 01bd cfa2 0fbb c16f 81bd 3561 153d
00000140: 0bb0 413c d5e4 2e3c c8e6 9b3d e630 bc3d
00000150: 0e0c 273d 00a4 a03d 9a6e 21bd 7628 bdbd
00000160: 4f52 19bc 0d1a 063d fbef a8bd 2051 58bd
00000170: 0455 b13d d493 d43d 9d1c 353d 190d 21bd
00000180: 1f3f 823d cfb2 9abd 74de cb3d 802c 69bd
00000190: b96e 03be 0949 9abc bf34 a3bc bac3 a0bd
000001a0: 12a4 51bd ba15 a4bd 77da 973c 4762 3a3d
000001b0: ad1e cabd 3596 5d3d a4f0 b63d 20f7 c53d
000001c0: e7a0 e73c 5068 70bd 9a5d f9bc 42e8 783d
000001d0: 63fd 1cbd 32b1 113a e990 e4bd 5e17 4c3c
000001e0: b1cc 44bd 3036 b83d 238d 91bd 1bfd 8fbd
000001f0: d2f0 7ebc a386 5ebd 3945 0e3d a7bf ae3d
00000200: 47c5 86bc 912c f73c 2a83 a9bd 9299 adbd
00000210: 8b1d eabd 7da6 e2bd 1aa0 0b3d 2a5b 7c3d
00000220: 7707 cf3d cbc8 38bd 6b5a 023e 603a 9db8
00000230: 5f15 68bd 6ba9 903d 265a 493d 59e5 203d
00000240: ed20 a6bd 4e14 51bd 8b35 c53d e7cd b53c
00000250: adc1 06be fb8d 073d 974e 193d 75d3 243c
00000260: 93fc c73d 3ddc 923d ff9b 14ba 6570 7ebd
00000270: 8187 663b 252c b7bd c68d e4ba f633 16bc
00000280: 1cdc 1bbd a73d 9c3d 2256 a1bd b116 cfbb
00000290: 4b59 1dbc 16f6 e5bc aa96 933d a52d cbbc
000002a0: c095 763d 9d07 82bd f496 583d 51fd 343d
000002b0: fffe de3d 1fbc aabc c4fe 4e3c e52d 093d
000002c0: 17e8 4c3c b2a4 b33d 6f07 c73d 8c4b 423d
000002d0: f18c 56bd 5387 bbbd fd5d 853d 455e a1bd
000002e0: cf92 21bd 88ca b03b 46a5 aebd fcf3 a7bd
000002f0: 8fec 063d 12c2 4c3c 2748 c9bd c09b cb3a
00000300: 9f0e ed3d edf5 973c 147d 783d 37f4 9fbd
00000310: d32b 843c 3e4d d0bd d020 d5bd 4b80 d7bd
00000320: f196 52bd cf69 9ebd aa50 e3bd 4d11 873d
00000330: 6202 413d 745e 983d 0b97 c6bc 99bf c83d
00000340: 2f6b f8bd e4f9 9a3d 4fc2 8c3d 90fc 963c
00000350: eb93 b3bd c741 683d d21f d7bc 2436 423d
00000360: 3879 babd 39f5 9f3d 0eb2 8abd 0cc0 c13d
00000370: ad5c 03be 0e50 a3bd 0c0f dfbd a65a 963d
00000380: 6ec3 453d c2a8 98bd 747b d43c 0dfa 963c
00000390: d1cd 853d 4660 acbd 8f2e 7cbd e94d da3c
000003a0: 01f9 883d e966 103d eb5a b53d 6bbe e7bd
000003b0: 82b0 243d 5c2d 91bd 0878 1cbc 322e 95bc
000003c0: aa24 873c 3093 e2bd c74c a2bd ce2b c53d
000003d0: 9cc2 7bbd 70b6 a0bd 92f1 34bd a136 c7bc
000003e0: 236c 673c 4141 c23d e5eb be3d fbbb 403c
000003f0: b42d adbd 6e19 9cbd 74e6 f5bd 1f78 633c
0.10624598 -0.05737163 0.018037448 -0.13627926 -0.0071531585 0.06922013 -0.09866776 -0.071891196
-0.047176924 0.0735862 0.00023289911 -0.025215523 -0.027789008 0.038014397 0.07328126 0.031463202
0.106138885 0.035782013 -0.042758096 -0.05741267 -0.019389952 -0.10925815 0.017969403 -0.068739586
0.04625886 0.05561179 -0.10778233 -0.03788032 -0.048604645 0.020893488 -0.09898887 0.109693274
-0.10554528 -0.103356525 0.07672142 0.09828598 0.014788479 -0.0031945293 0.06526277 0.10730741
0.12671344 0.13467352 0.06913202 0.11860292 0.05298351 -0.068763226 -0.055219714 -0.019527208
0.0068712537 -0.028397167 -0.10230787 -0.02795582 -0.014732925 0.007910084 0.09483436 0.002569883
-0.024441028 -0.06552113 0.007327366 -0.12369729 -0.102903806 0.099727444 0.0076913084 -0.02553563
-0.034224305 0.07120559 0.0376875 0.10543485 0.07134691 -0.00078014424 -0.103035204 -0.046890013
0.02559523 0.009645678 0.043847058 0.0606558 -0.031731263 -0.002191711 -0.063201435 0.036469657
0.011821757 0.010674675 0.076123774 0.09189014 0.04078298 0.078437805 -0.03941212 -0.09236233
-0.009358003 0.032739688 -0.08248898 -0.05281174 0.086587936 0.103797585 0.04421674 -0.03931913
0.06359696 -0.07553636 0.09954539 -0.056927204 -0.12835206 -0.018833654 -0.019922612 -0.07849832
-0.05118186 -0.080119565 0.01853679 0.04550388 -0.09869132 0.054098327 0.08932617 0.09666276
0.028274966 -0.05869323 -0.03044014 0.060768373 -0.038327586 0.0005557715 -0.11160452 0.012456743
-0.04804677 0.089947104 -0.07106998 -0.07030698 -0.015560346 -0.05432762 0.034733985 0.085326485
-0.016451491 0.030172618 -0.08276971 -0.08476557 -0.11431416 -0.11066911 0.03408823 0.06161038
0.10108846 -0.045113366 0.12729804 -7.4972166e-05 -0.056661006 0.07063564 0.049158238 0.039281223
-0.08111749 -0.051044755 0.09629353 0.022192908 -0.13159819 0.033094388 0.037428465 0.010060181
0.097649716 0.07170913 -0.0005668997 -0.062118907 0.0035175981 -0.08943967 -0.0017437271 -0.009167662
-0.03805171 0.07628947 -0.07877757 -0.0063198437 -0.009603809 -0.028071444 0.07206471 -0.024802038
0.060201406 -0.06349108 0.052878335 0.044186894 0.108884804 -0.020841656 0.012633983 0.033491034
0.012506506 0.087716475 0.09718215 0.04743533 -0.052380506 -0.091566704 0.065120675 -0.078793086
-0.03944665 0.0053952374 -0.08527617 -0.08200833 0.032940444 0.012497442 -0.09828215 0.0015534088
0.115750544 0.018549884 0.06066616 -0.07810252 0.016134178 -0.10170983 -0.10406649 -0.10522517
-0.05141348 -0.07735025 -0.1109937 0.06595097 0.047121413 0.074398905 -0.024241945 0.09802169
-0.12129819 0.07567194 0.06872999 0.018430978 -0.087684475 0.056703355 -0.02626029 0.047414914
-0.09105152 0.078104444 -0.067722425 0.09460458 -0.12828322 -0.079742536 -0.10891542 0.073415086
0.04828208 -0.07454063 0.025937773 0.01842978 0.06533397 -0.084168 -0.06156784 0.026648479
0.06688119 0.035254393 0.08855232 -0.11315616 0.040207393 -0.0708873 -0.009550102 -0.018210504
0.016496975 -0.1106323 -0.079248 0.09627496 -0.06146489 -0.07847297 -0.044175692 -0.024318041
0.014124903 0.094851024 0.09322337 0.011763568 -0.08455983 -0.07622038 -0.12006846 0.01388362

weight f4 [8]
00000000: b82a 7d3f 7e51 823f 1f6c 7b3f 7a1f 7f3f
00000010: ccc4 7b3f ed2c 813f cae3 7d3f 1488 7f3f
0.9889331 1.018112 0.98211855 0.99657404 0.98347163 1.0091835 0.99175704 0.99817014

bias f4 [8]
00000000: c942 c3bb b6ea 9f3c 238b 04bc 85ac 033b
00000010: 34af 62bb 4218 a03c c693 a13b 7e65 ecbb
-0.005958889 0.019521099 -0.008089813 0.0020091843 -0.0034589292 0.019542817 0.004930946 -0.0072142472

running_mean f4 [8]
00000000: ffad c63c 8514 18bc 45d5 6dbc 3c13 01be
00000010: ad03 1dbd 5267 14bd ff11 c9bd 1d61 d73d
0.02425289 -0.009282236 -0.014516179 -0.12604994 -0.038333584 -0.036231346 -0.098178856 0.1051657

running_var f4 [8]
00000000: f462 7c3e bdaf 593e 17f2 5e3e ea29 493e
00000010: 4dcf 9a3e 4f29 7a3e 3d08 c63e f7a5 623e
0.24647123 0.21258445 0.21772037 0.19644895 0.30236283 0.2442982 0.3867816 0.22133623

weight f4 [16, 8, 3, 3]
00000000: ddf7 87bc 1e4e 88bc 8bdd babd 5755 ecbd
00000010: 0b33 afbd f3b0 97bd 3105 e8bd 31cf 64bd
00000020: 4182 9ebd dc8a 443d fb1d 78bc 975f eabc
00000030: e735 01bd cf57 df3d ae2e dcbd fbf7 b0bc
00000040: c114 bd3d a0ef 973d ba17 5e3d d561 9bbd
00000050: d731 a03d 134b 5ebd c30f ce3a 931a cf3c
00000060: e9ed 8e3d ed9d 01bc 0e3d 903d 6409 ba3d
00000070: fc6e 28bd f65b 223d 6fc3 0c3d c95e 953c
00000080: 09d3 493d 6eea 7e3d aa21 e53d d9ea afbd
00000090: 94f2 1b3c 6820 553d ef49 b33d 089d 4dbd
000000a0: aa21 093e 2087 8cbd 9383 e33d e798 c43d
000000b0: 1d65 13bd a001 8abd 6ce3 85bd 8396 e1bd
000000c0: 9400 fe3c 1672 02bd 0a0e f6bd 4fd7 6d3c
000000d0: 78ce e2bd ae68 9abb b461 c53d 60b3 7c3d
000000e0: 9bc0 d8bd 50d6 fbbc e8a4 8c3d 50e5 24bc
000000f0: 7693 cb3d 6b92 74bc 9197 69bd 8885 13bd
00000100: 37ec b6bd 1d2e e33d dcc1 d0bd c98e 58bd
00000110: efe4 97bd 8798 b4bd e6ba 55bc 9cac 08be
00000120: 4568 bfbc f0fd 27bd 7376 8ebb 5800 233c
00000130: 7957 68bd 00d6 26bd 61fb 5c3d 20c1 01be
00000140: 72ee 31bd 3160 d0bd a681 24bd 0d37 c3bd
00000150: 48af 923d 728d dc3d 472e 6f3d 9b40 9ebd
00000160: e8d6 883d 33c2 7c3d 224c 113d 5442 6abd
00000170: 793c d2bd e061 b1bc 7ee7 c73d f53e 9cbd
00000180: 8247 bc3d 9033 ff3c 8fb5 1d3c 53a2 873a
00000190: c332 d1bd 7de4 5d3d d647 cd3c a8b3 7fbd
000001a0: 23f7 d0bd 588c ebbd 5bca 813d 32c8 39bd
000001b0: 4cbf 9abd bf0a 963c 573f ddbd 3ef7 673d
000001c0: 49b6 25bd c7bd d63d 8c83 2cbd 25af d2bd
000001d0: 9869 06bd e44e 65bc b3c7 8b3d cf4a 103d
000001e0: 3b89 88bc d501 89bd c932 843d 886a a0bc
000001f0: 557d 9e3d a918 d93d f471 373d 1f9e d93d
00000200: 15dc 7fbc e941 d0bd 76b5 8d3d 61f0 25bd
00000210: 61f7 e43d 6801 313d e98d ae3d c55d 80bb
00000220: a737 34bd 33b4 03bc ca54 dbbd 4919 ed3d
00000230: 3d14 e9bd 27dc 253c 7c76 bfbd bb53 3c3c
00000240: 0a2c 0abd eb23 8b3d b32f 7e3d a312 07bd
00000250: 03a9 473d 0a12 4ebd 1aa5 cc3c 3f3f 713d
00000260: bd0c 1a3c 0737 fe3d 25e0 70bd ea0c f33d
00000270: fd7b d73d e69a e93d d964 64bd 94ab c8bd
00000280: a10d fa3c dc37 a5bd c83e 8ebd 20de 7ebd
00000290: a591 8b3d d46b 21bd 8709 c2bd 6783 9b3d
000002a0: ed72 f13c bd9b 413d dcbc 823d f4b9 b8bd
000002b0: 8420 c83d 87a5 ce3d e278 883c 088a 93bd
000002c0: 0790 bd3d ff07 2bbd d61d 97bd 0e52 a03d
000002d0: 22bd 59bd 244b 34bd 0b23 8b3d c13a dbbd
000002e0: 6678 9cbd 35e7 9cbd 2be2 c83d d79c 013d
000002f0: 03ae 90bd 0af6 8bbd acd4 ed37 62c9 e4bd
00000300: 2aa6 ac3c 5dad 953c 736f 8f3d f89e 31bd
00000310: 5308 913d 6755 2bbc 2c62 b0bd 1a55 b53d
00000320: 80ee e3bc ed63 09bd 544a cf3c 09cd d2bd
00000330: 57ce 5ebd b50f 99bb ab32 f23b 80c6 e13d
00000340: a852 98bc b598 0f3d 028d 23bd cbf4 713d
00000350: 4cee 73bd 71be 6abd 2aac 88bd 6f87 77bd
00000360: 2599 d33d 36f7 023c 2faa 5c3d b9d0 06bc
00000370: 762c ba3c 6ea4 6abd c1fb aabd 64c8 1c3d
00000380: 5e4c f13d f93c ddba f642 ce3c 985b 90bd
00000390: 9a9e 003e 5a93 dd3b fb47 833c 1487 063e
000003a0: 598b cf3d 919e c13d f90d 78bc 881a 9cbc
000003b0: f034 6cbc 1591 f03c a27f 603d 24cc ad3d
000003c0: f24c a73d c05e 883d 4010 babd fe6d 2bbc
000003d0: b1cd 073d 2d24 223d c23d dd3c 352a c33c
000003e0: c47b e0bd 213f 8b3d a1db c2bd e591 99bd
000003f0: a1f5 c5bd 7c83 08bd 6427 08be f4d3 913a
-0.016597683 -0.016638812 -0.09124287 -0.11539715 -0.085546575 -0.07406797 -0.11329115 -0.055861656
-0.07739688 0.04798399 -0.015143867 -0.028610034 -0.031545546 0.1090542 -0.10751091 -0.021602621
0.09232474 0.07418752 0.054221846 -0.07587019 0.07822006 -0.054270815 0.001572125 0.025281226
0.069789715 -0.007911188 0.07042895 0.09083822 -0.041121468 0.039638482 0.034366067 0.018233674
0.049273524 0.06223529 0.111880615 -0.085897155 0.009518284 0.052032858 0.08754336 -0.050198585
0.13391748 -0.068617105 0.1110908 0.09599476 -0.0359851 -0.06738591 -0.06537518 -0.11015036
0.031006135 -0.031847082 -0.120143965 0.014516666 -0.11074537 -0.004712186 0.09637776 0.061694503
-0.105836116 -0.03074184 0.06867391 -0.010064438 0.09940235 -0.014927487 -0.05702931 -0.036016017
-0.08931773 0.1109278 -0.10193226 -0.052870546 -0.074167125 -0.08818155 -0.013045048 -0.13347095
-0.02336515 -0.041013658 -0.0043476163 0.009948812 -0.056724045 -0.04073143 0.05395067 -0.12671328
-0.04344029 -0.10174597 -0.040162705 -0.095319845 0.071623385 0.10769166 0.058393743 -0.07727166
0.06681615 0.06170864 0.035472997 -0.05719216 -0.102654405 -0.021653116 0.097609505 -0.076291956
0.091933265 0.031152517 0.0096258065 0.0010348059 -0.1021476 0.05417298 0.025058668 -0.062427193
-0.102033876 -0.11501378 0.06337424 -0.045356937 -0.07556018 0.018315671 -0.10803097 0.056632273
-0.040457044 0.10485416 -0.04211764 -0.102873124 -0.032815546 -0.01399586 0.06825199 0.035227593
-0.016667 -0.066898026 0.06454999 -0.019582048 0.07738749 0.10600407 0.04478641 0.10625862
-0.0156164365 -0.10168821 0.069193766 -0.040512446 0.11179996 0.04321423 0.08523161 -0.003917428
-0.043998387 -0.008038568 -0.107095316 0.115770884 -0.11380813 0.010123289 -0.09348771 0.011494572
-0.033733405 0.0679396 0.06205721 -0.032976758 0.048745167 -0.050310172 0.02498107 0.058898207
0.009402451 0.124128394 -0.05880751 0.118676975 0.10521696 0.11406498 -0.05576024 -0.09798351
0.030524077 -0.08067295 -0.06945568 -0.062223554 0.06814889 -0.039409474 -0.094744734 0.075934224
0.029473746 0.047267664 0.06383678 -0.09019843 0.09771827 0.100901656 0.016659204 -0.07204062
0.09255987 -0.041755673 -0.07378738 0.07828151 -0.053158887 -0.044016972 0.06793793 -0.10704566
-0.07640152 -0.07661287 0.09808763 0.031643715 -0.0706444 -0.068340376 2.8351635e-05 -0.11171223
0.021075327 0.018271143 0.07003679 -0.043364495 0.07081666 -0.010457373 -0.08612475 0.088541225
-0.027823687 -0.033542562 0.025303997 -0.102930136 -0.054396 -0.004671062 0.007391294 0.11024189
-0.018594101 0.035057742 -0.039929397 0.059071343 -0.05955343 -0.057310525 -0.06673463 -0.060431894
0.103319444 0.00799351 0.053873237 -0.008228474 0.022726279 -0.05728572 -0.083487995 0.038277045
0.11782144 -0.0016879133 0.025178414 -0.0704872 0.12560502 0.0067619504 0.016025534 0.13137466
0.10134 0.09454072 -0.01514005 -0.01905562 -0.014416918 0.029366056 0.05480922 0.08486202
0.08168973 0.06658697 -0.09085131 -0.010463236 0.033155147 0.03958528 0.027006987 0.023823837
-0.109611064 0.0679915 -0.09514547 -0.0749853 -0.096659906 -0.03332852 -0.13296276 0.0011125789

weight f4 [16]
00000000: ef65 7c3f a1cf 803f aad7 7a3f b070 7d3f
00000010: 29ee 803f 5a57 7d3f e8f1 803f 2711 7f3f
00000020: b7c9 7b3f 3fed 813f 830f 7e3f 4604 803f
00000030: ed28 803f fa58 813f 221e 813f 3f35 7b3f
0.9859304 1.0063363 0.9798533 0.9900007 1.0072681 0.9896141 1.0073824 0.9963555
0.9835467 1.0150527 0.9924242 1.0001304 1.001249 1.0105278 1.0087321 0.9812812

bias f4 [16]
00000000: 0141 10bc af6e 6b3c 8b07 1abc 1f52 a93b
00000010: af26 ad3b 751c b13a 446a 123b e16e 12bc
00000020: 9cd7 40bc e9a4 603c 1d9b 0cbb 743f bc3a
00000030: c37d 2ebb 2280 4dbb 9265 0b3c ab50 44bb
-0.008804561 0.014369651 -0.009401212 0.0051672603 0.0052841525 0.0013512509 0.0022341171 -0.008937568
-0.011770155 0.013711193 -0.002145476 0.0014362172 -0.0026625253 -0.003135689 0.008508103 -0.0029955308

running_mean f4 [16]
00000000: 8c21 4ebe f84d 25be 7f17 683c e1ea a63e
00000010: 6912 283d a55a 46bd 1478 dd3e d566 38be
00000020: d329 643e 237c 683d 3f4d 8f3e 4380 0e3d
00000030: e675 91be 9162 f9bd 9ae8 af3e 4648 ed3c
-0.20129985 -0.16143024 0.014165758 0.32601073 0.041033182 -0.04842629 0.43255675 -0.18007977
0.2228158 0.05675901 0.27988622 0.03479029 -0.28410262 -0.12177003 0.34357148 0.028965127

running_var f4 [16]
00000000: 5786 e23e c0b9 b33e 30da 4a3e 8b58 843e
00000010: d1c9 473e adf1 513e 8bee 1a3f 20d2 7a3e
00000020: 0230 c53e 1a14 763e 4f42 203f a63a 543e
00000030: 47f9 843e af50 af3e ca6a 5d3e 2b66 423e
0.44243118 0.35102654 0.19809794 0.25848803 0.1951058 0.20502348 0.6052024 0.24494219
0.3851319 0.24031106 0.6260118 0.20725498 0.25971434 0.34241244 0.21622768 0.18984286

weight f4 [16, 16, 3, 3]
00000000: 9dc5 37bd da6a 293d 648b 76bd 84be 473d
00000010: d15e 6d3d 1593 713d fd3d 43bc 52bb 1d3d
00000020: 500f 7fbd 1aee 5cbc 7e69 4c3d deac 023d
00000030: 4f8b 963d 0ef1 503d 1b00 0a3d 7cba 69bd
00000040: 8906 9dbc 4328 f13c 49ad e73c 9906 afbc
00000050: bbe1 973d 493b 833d d3cb 623c dfca 653d
00000060: 7e7e 1ebd 1d13 59bd 3184 2c3c 8946 75bd
00000070: 3c33 c4bb 0ed3 923d 70c2 82bd 0196 3ebd
00000080: cc92 b839 4cc7 a4bd 4f17 34ba 6b42 24bc
00000090: d875 7ebd 24cf e0ba bdb2 b53c 6460 993c
000000a0: 6bb0 75bd 3610 c5bc da46 9cbd 3254 793d
000000b0: ff9f 68bd 90a7 a93d d3f9 913d 6c9a 8bbd
000000c0: c4e8 2cbd 7c7f 8fbd 478b 353d f0ad bd3b
000000d0: ad37 6f3d 59d7 4a3d 5c34 acbd 3ff2 75bd
000000e0: 5846 86bc 92bd 433d fe8c b3bd afad 02bd
000000f0: 7a5c 9e3d 188a 38bd b2f7 6fbb 2ae0 c1bc
00000100: 115b 9bbc fc9c f03c 4cd5 10bd 21fc 7a3d
00000110: 6a1d 64bd 2e64 59bc 86e3 45bd c37f 2fbd
00000120: ada9 8dbd 79ab 91bd 96e4 cc3c 2ea2 db3c
00000130: c4c4 d6bc 207a 5f3c c9a0 c83b b5a1 3dbc
00000140: 3c1e 00bd 4ebc 0e3d aee4 063d 2f86 49bc
00000150: 379c b3bd 3f0d 4bbd 9544 abbd d109 9dbd
00000160: 99d8 61bd 289c bb3c d0f2 053d 38b9 9ebb
00000170: 85e9 57bd cdca dcbc b8d3 59bc 9ae5 b53c
00000180: 1cf1 e73c 408e 313d fbd6 813d 70fe 603c
00000190: ea9a a1bd 1892 21bd 2cf8 0fbc 1efd e1bc
000001a0: d8b9 87bd c6c6 cdbc 381d 593d d90a acbd
000001b0: b54a 743d 061a f13a 9744 733d a3c2 6dbd
000001c0: 9920 b23d af7a 3a3b 1c24 5abc 4273 78bd
000001d0: 4831 973a 9f54 40bd f14c 1fbc f004 b6bc
000001e0: ea1f b83b f892 b93d 71ff 1ebd c467 573d
000001f0: 375e 463c db6c d5bc 70a1 7b3d 2512 80bd
00000200: 085c 083c c211 453c de0e 96bd 44da 863d
00000210: 8359 933c c2ba 583d 614a 64bc c900 9dbc
00000220: d9f4 a33d 7838 173c 8bb6 7fbd 6804 8ebc
00000230: a985 92bd 6437 893c dbbb 063c 05b8 573d
00000240: 8030 683d f7b0 11bd 5704 1abd dfe0 b23c
00000250: 987d 9f3d 000a 243c 9d71 043b 4610 863d
00000260: a5a4 1f3d 2c42 8cbc 4ac0 90bd 6a90 e33c
00000270: e60b 92bd a483 53bd 2834 c53c db5d dcbc
00000280: 08c5 ccbc d218 693c 6699 a93d f0c6 fb3c
00000290: 8bfe 4ebd 5228 943d b2ca f1bc 978e ad3b
000002a0: bd78 68bc a213 87bd 0f4c 45bd 3c2e 35bd
000002b0: d546 c1bc ebd6 edbc 0b54 93bd 07c7 433d
000002c0: 3bcb 073d 29ca 44ba ba60 1cbd 8bd3 9bbd
000002d0: a5bf 6a3d 4628 dfbb 965c 313d ce14 10bd
000002e0: ceb0 b9bd ac4e 13bd 5348 a7bd 73e0 a0bd
000002f0: fcb4 e8bc 42b8 3c3b 43ed 69bd d8dd 11bd
00000300: e948 51bd 81e6 84bd 3a24 c13c 7539 363c
00000310: 0043 cdbc 5b84 31bd 76f7 883d 292a f73c
00000320: 453f 48bc 258b 443d 9dba a2bd 1c2d ddbc
00000330: 18e0 c1bc b36b 5a3d c389 053d fe99 e13c
00000340: 9f13 3dbd 5d62 883b de43 ac3d cedd 52bd
00000350: ee88 82bd 314d 24bd 7164 67bd d90a 7fbd
00000360: 99b0 403d 13f7 82bd b70b 51bd 004c 93bd
00000370: 0348 9a3d 30f8 2b3d b56d 4d3c 7e86 84bd
00000380: fe2c 1b3d 949c bcbb 5feb 113d a843 3dbd
00000390: 06d9 543d 2188 32bc 013b 5fbb cf71 abbb
000003a0: f524 ab3c aba8 a8bd bd73 8e3d b42a 34bd
000003b0: 0f32 f53c 4ae7 8b3d 0d32 a2bd 138e 92bd
000003c0: 91c3 e23c 1725 42ba 2bb2 8e3d 84c2 503d
000003d0: 1e70 5dbd 67fd ca3c d708 a2bd c842 3b3c
000003e0: e59d e23c 407b 48bd ecb2 7abd d994 953d
000003f0: 67d1 393d 6a03 88bb 5dfd a83d 565b 9abb
-0.044866193 0.041361667 -0.060191527 0.048765674 0.057951752 0.05897816 -0.011916635 0.03850872
-0.062270463 -0.013484502 0.049905293 0.03190314 0.0735079 0.051011138 0.033691507 -0.05706261
-0.019168155 0.029438144 0.028280871 -0.02136545 0.074161015 0.06407792 0.013842541 0.056101676
-0.03869485 -0.052996743 0.010529564 -0.05988172 -0.005987553 0.07169162 -0.06384742 -0.046529774
0.00035204587 -0.08045825 -0.00068699283 -0.010025601 -0.062124103 -0.0017151576 0.022179956 0.01872272
-0.0599827 -0.024055582 -0.07630701 0.06087131 -0.05679321 0.08283913 0.07127728 -0.06816563
-0.04221417 -0.070067376 0.04432228 0.005788557 0.058402706 0.049521778 -0.08408424 -0.060045477
-0.016390964 0.04778821 -0.087671265 -0.03190392 0.07732482 -0.04505357 -0.0036616144 -0.02366646
-0.018964322 0.029371731 -0.035359666 0.061275605 -0.055692114 -0.013268514 -0.048312686 -0.042846452
-0.06917129 -0.07112784 0.025011342 0.026810732 -0.026216872 0.013639957 0.0061226827 -0.0115741985
-0.031278834 0.03484755 0.03293293 -0.012300058 -0.0877003 -0.04957318 -0.0836269 -0.07667888
-0.055138204 0.02290161 0.032702267 -0.004843857 -0.052712936 -0.026952172 -0.013295107 0.02220421
0.028313212 0.04334855 0.063398324 0.013732538 -0.07890876 -0.039445966 -0.008787196 -0.027586516
-0.06627244 -0.025119197 0.05300638 -0.084005065 0.05964156 0.0018394596 0.059391584 -0.05804695
0.08697624 0.0028454473 -0.013314273 -0.060656793 0.0011535073 -0.0469557 -0.009722934 -0.022219151
0.005619039 0.09061235 -0.038817827 0.052589193 0.0121074235 -0.026052883 0.061433256 -0.06253461
0.008322723 0.01202816 -0.073270544 0.065845996 0.017987018 0.05291248 -0.013933749 -0.019165413
0.08005685 0.009229772 -0.062429946 -0.017336085 -0.071544 0.016750045 0.008223499 0.05266573
0.05668688 -0.035569157 -0.037601795 0.021835743 0.07787627 0.01001215 0.002020932 0.06546073
0.038975377 -0.017121397 -0.07067926 0.027778823 -0.07131176 -0.051639214 0.024072722 -0.026900223
-0.024996296 0.014227109 0.082812116 0.03073451 -0.05053572 0.07234253 -0.029515598 0.005296539
-0.0141889425 -0.065955415 -0.04816824 -0.044233546 -0.023593346 -0.029033145 -0.07193764 0.04779723
0.0331528 -0.0007506931 -0.038178183 -0.07608708 0.057311673 -0.006810221 0.043301187 -0.03517609
-0.09066926 -0.0359637 -0.081680916 -0.0785531 -0.028406613 0.002879635 -0.057111036 -0.035611957
-0.051094923 -0.06489278 0.023576844 0.011122097 -0.025056362 -0.043339115 0.066878244 0.03017147
-0.012222116 0.04798426 -0.0794575 -0.026999049 -0.023666427 0.053325366 0.032602083 0.02753925
-0.04616129 0.0041621164 0.08411382 -0.05148106 -0.063737735 -0.040112678 -0.056492273 -0.062266205
0.047043417 -0.06394782 -0.051036563 -0.0719223 0.075332664 0.041984737 0.012538363 -0.06470965
0.037884705 -0.0057559703 0.035624858 -0.0462071 0.051964782 -0.0108967135 -0.0034062269 -0.005232073
0.020891646 -0.08235296 0.06955669 -0.043986037 0.029931096 0.06831224 -0.07919703 -0.07156005
0.027681144 -0.00074060395 0.069675766 0.050966755 -0.054062 0.024779035 -0.07911842 0.011429496
0.02766318 -0.048945665 -0.06120579 0.07303781 0.045365717 -0.0041507976 0.0825145 -0.004710595

weight f4 [16]
00000000: 494b 803f 8a20 813f 1187 7c3f 5a8e 7e3f
00000010: 008d 7c3f dc84 813f 5f47 813f 5d76 7c3f
00000020: fc29 803f 5d87 7f3f fa90 7d3f 4e88 803f
00000030: 3913 813f 66f7 7b3f a862 803f f213 803f
1.0022975 1.0088055 0.98643595 0.9943596 0.9865265 1.011867 1.0099906 0.9861811
1.0012813 0.9981592 0.9904934 1.0041597 1.0083991 0.98424375 1.0030107 1.0006087

bias f4 [16]
00000000: 2e4f d03b b9f8 3a3c 5945 02bc 9959 653b
00000010: fb69 393c 1380 6f3c 50bb b73b 5c51 4bbb
00000020: 0a3e ebbb b3c3 a9bb bf26 1bbc 699c 033c
00000030: 3523 5f3c ed25 84bc 2647 593c 7ada 0d3c
0.006357095 0.011411839 -0.007951104 0.0034996031 0.011316772 0.014617938 0.005607046 -0.0031023836
-0.0071790265 -0.0051808 -0.009469687 0.008032897 0.013619234 -0.016131366 0.013261592 0.008658046

running_mean f4 [16]
00000000: 45bd dbbd 4c70 36be 0c2a 49bd 44cf 65be
00000010: a121 2a3d b898 eb3c a9a2 01bc 5d39 a23d
00000020: 4045 cebc b008 4fbd 4ce6 12be d699 a9bd
00000030: 7224 923d fc52 f63d c62f 20bd 4521 9e3d
-0.1072946 -0.17816275 -0.049112365 -0.22442347 0.041535977 0.028759345 -0.007912316 0.079210974
-0.025179505 -0.050545394 -0.14345664 -0.08281295 0.07135858 0.12027547 -0.03910806 0.077211894

running_var f4 [16]
00000000: e5e1 6e3e 1d86 813e 4ed8 4e3e 96d3 8b3e
00000010: 809b 8b3e d090 8e3e 24dd 773e 126b 923e
00000020: eb1b 713e 79ff a43e 079b 763e 30bf 983e
00000030: ec71 8f3e 37a0 6f3e 8d12 e23e cdfd 783e
0.2332836 0.25297633 0.20199701 0.27309865 0.27267075 0.27844858 0.24205452 0.28597313
0.23545806 0.3222616 0.24082576 0.29833364 0.28016603 0.23400961 0.44154778 0.24315567

weight f4 [32, 16, 3, 3]
00000000: 6cae 15bd bc19 4bbc 1796 213a e876 a2bd
00000010: 1eaf 623d 5d23 4cbd 9904 373c 1177 e7bc
00000020: 7ee9 4a3d 6a0f a23a c136 b73c 8a8c 9e3c
00000030: fc2a c33c 8c43 853d 4fca 4ebd 984e 2ebd
00000040: dfc2 9d3d b055 4a3d a40a 6abc 112a 3bbc
00000050: 54fb 1bbb 2094 c8bc c009 81ba be2c dd3c
00000060: be17 bf3d 45b4 be3c caaa 7bbd c86a 3c3d
00000070: 2a5d 02bd 8361 30bb 037e f43c dd8f 543d
00000080: adcc 953d 601f 9e3c 5ae2 9e3d d8b0 603c
00000090: 90e8 2b3d 9a13 91bd bdf0 f03c 7d4f 093d
000000a0: ea21 973d 33c9 053d b249 303d 5c07 5b3d
000000b0: 2233 4f3d 2ff3 9f39 3989 b93c 3ddc d3bb
000000c0: 32be 8a3d 30f2 85bc 745e 98bd e186 363d
000000d0: fb3e 623d d012 383b 8578 29bd 4dc6 263d
000000e0: a7c5 273d f914 cf3b c315 ea3c 9ea0 993d
000000f0: 0fbd c7bd 803f e2bc 401c c6bd 7601 403c
00000100: e441 9f3d 6b9b 9b3d 5d32 1bbb a949 773d
00000110: 9fc3 233d d2d9 533d e88d 4abb d14d 84bc
00000120: adb2 813d ccb5 6e3d b612 18bd 6287 b3bc
00000130: cfa3 0d3d 818b 963d 9a4a 363c 6a9a 173d
00000140: 530e 3f3d 541b a03d d95d 1abd c430 6d3d
00000150: cbb4 0f3d e1af 90bd 4759 8a3d bdb1 04bd
00000160: 330e 3fbd db7f 9abd 4927 98bd 989f e5bb
00000170: 1500 bb3c 5ae5 233d 09e8 38bc c2d4 2b3c
00000180: 1ad7 823c e6f1 10bd d76a 233d b135 6d3c
00000190: 5623 6a3d 61dd 2bbd 8310 293d 3cef a0bd
000001a0: 5def a6bd 32ab 6fbd 1934 47bb 1076 a8bd
000001b0: fd53 c13b 39f4 59bd 5bb2 61bd 9d74 77bd
000001c0: 9798 993d e33d 553d e0b2 e9bb bbba b2bc
000001d0: 9922 23bd 0aae 9b3d 7d19 57bd c6a0 323c
000001e0: 0ff5 5d3c c876 063d 179b 99bc 1b13 07bd
000001f0: 54bc 82bd 7e91 73bd 6e96 903d abd0 95bd
00000200: 834f 923c fa1f 36bd 9728 8f3d 447f 92bd
00000210: 2f44 ec3a 1ec3 a1bb e37c 92bd 65fc a7bc
00000220: 3a2c 85bc 35e1 013c c493 ab3d 6adb d73c
00000230: 9e4d 5d3c 8c10 8a3c 580c c3bc 7373 64bd
00000240: 515a 8abc 14f1 98bd 1dbf bcbd 90e7 413d
00000250: 464c abbd 05cd a93c 61c0 44bd f5ed 16bd
00000260: 26a8 6ebd b382 86bc b6d2 1e3d 7b0c 35bd
00000270: 8c3f 5cbd 8f84 f2bc d494 43bd 5970 4bbd
00000280: ba7b b6bc 7c95 6a3d 478f 563b 78bc 2c3c
00000290: 1ade 8b3c 0e60 a1bd 0159 a53d 1ded 0dbc
000002a0: 0ba1 5ebd c833 edbc 8c02 f83c 6239 75bd
000002b0: 70c7 b2bc 4024 cdbc f799 083d a621 acbd
000002c0: 43d8 b33c 52fe 8f3c 7dbe 71bc ff63 2fbc
000002d0: b5de e63c 363c 413d d955 e33c 77e6 0c3c
000002e0: dab7 fc3c 10ab 413d 7758 c53b 241f 3e3d
000002f0: 74bd 513d 1631 3a3c 17dd 7bbd 950f 04bd
00000300: 1114 80bd 5899 9b3d 41b9 8b3d 8260 22bc
00000310: 760b 3a3d 4f07 0fbc 0594 c8bc 215e c6bc
00000320: c759 abbd 7023 103c 4b92 c4bd 893a 8dbd
00000330: 9d72 a5bd 66fd f53c 0c23 133d 8146 373b
00000340: ead4 563d 5cae 9d3c a1d9 a2bc 5f39 e7bc
00000350: a36c 1a3d b6dc f6bc 7d7a 44bd 81b5 9ebd
00000360: 8294 3f3c caa2 7f3c 993f acbd 1753 9dbd
00000370: 8ed6 a5bd 53b4 abbd 810d 843d dca0 393d
00000380: e023 363c fdb0 6b3b c42b 7cbd e368 9fbd
00000390: 9cea 043d 6c1f cebc a07d 083c 8eed e3bc
000003a0: 42ba 87bd 2c88 913d 4cc8 5abd 57ea 093b
000003b0: 3117 81bd 769d 56bd 6add fbbc 4218 733d
000003c0: 306e 5ebc b726 c9bc e8ee 46bd 77c4 403c
000003d0: b050 9b3d 305c a63d f55d 11bb 0042 b4bb
000003e0: 9d80 8e3c 9b63 18bd b529 413c e0ee 9a3c
000003f0: 1339 503d bd56 143d 906a 233c 4aa4 383d
-0.036543295 -0.012396272 0.0006164028 -0.07932836 0.055342786 -0.049838413 0.01117053 -0.028255017
0.04953908 0.0012364213 0.022364976 0.019354124 0.023824207 0.06507024 -0.050485905 -0.04255542
0.07703184 0.049398124 -0.0142847635 -0.011423604 -0.0023800926 -0.024484694 -0.0009844825 0.026998874
0.093307 0.023279319 -0.061442174 0.046000272 -0.03182713 -0.002691359 0.029845243 0.05189501
0.073144294 0.01930207 0.07758017 0.013714038 0.041969836 -0.07083817 0.029411668 0.03352307
0.073795155 0.03266258 0.04303903 0.053473815 0.050585873 0.0003050803 0.02264844 -0.0064654634
0.06774558 -0.016350836 -0.074398905 0.044562224 0.055235844 0.0028087385 -0.041374702 0.040716458
0.04095998 0.006319639 0.02857483 0.075013384 -0.09752857 -0.02761817 -0.09673357 0.011719098
0.077762395 0.07598003 -0.0023681142 0.060372982 0.03998148 0.0517214 -0.0030907337 -0.016150387
0.06332908 0.058278844 -0.03712722 -0.021915141 0.03458005 0.07350827 0.011126185 0.037012495
0.04664452 0.078177124 -0.037687156 0.057907835 0.035084527 -0.07064796 0.067553096 -0.032396067
-0.0466444 -0.07543918 -0.07429368 -0.0070075504 0.022827188 0.04001365 -0.01128579 0.010487737
0.015971709 -0.035386942 0.039896812 0.014478133 0.057162605 -0.04195917 0.041275512 -0.0785813
-0.08151124 -0.058512874 -0.0030396043 -0.08225644 0.0058999048 -0.053211424 -0.055101734 -0.060413945
0.07499807 0.052060973 -0.0071319193 -0.021817556 -0.039827917 0.07601555 -0.052514542 0.010902589
0.013547196 0.032828122 -0.01875071 -0.032977205 -0.06383577 -0.059464924 0.07059942 -0.07315191
0.01786018 -0.04446409 0.06990164 -0.0715318 0.0018025691 -0.00493659 -0.071527265 -0.020506093
-0.01625644 0.007927229 0.083777934 0.026349742 0.013507275 0.016853593 -0.023809597 -0.055774163
-0.01688877 -0.07467857 -0.092161395 0.047339976 -0.083641574 0.020727644 -0.04803503 -0.036848027
-0.058265828 -0.016419744 0.03877517 -0.044201355 -0.05377154 -0.029604224 -0.047749355 -0.04966769
-0.022275794 0.057271466 0.0032739209 0.010542981 0.01707368 -0.07879649 0.08073617 -0.008662489
-0.0543528 -0.028955355 0.030274652 -0.059869178 -0.021823615 -0.0250417 0.033349957 -0.084048554
0.021953708 0.017577324 -0.014754889 -0.010704993 0.028182367 0.047176562 0.027750896 0.008599869
0.030849386 0.04728228 0.0060225087 0.046416417 0.051206067 0.011364242 -0.061490145 -0.032241423
-0.06253827 0.075976074 0.06822444 -0.009910705 0.045421086 -0.00872977 -0.024484644 -0.024214806
-0.08366733 0.008797511 -0.09598216 -0.0689593 -0.080785014 0.030028056 0.035922095 0.0027965608
0.052449144 0.01924818 -0.019879164 -0.028225599 0.03770126 -0.03013454 -0.047968376 -0.07749463
0.011693122 0.015602777 -0.08410568 -0.07681864 -0.08097564 -0.083840035 0.06447888 0.045319423
0.011116952 0.0035963648 -0.061565176 -0.077836774 0.032450303 -0.025161467 0.008330733 -0.027823236
-0.06627323 0.07106051 -0.053413674 0.0021044218 -0.063032515 -0.05239626 -0.030745227 0.059349306
-0.013576075 -0.024554593 -0.048567683 0.011765591 0.07583749 0.08123052 -0.0022181247 -0.005501032
0.017395312 -0.037204366 0.011789729 0.018912733 0.05083568 0.036215533 0.009974137 0.045078553

weight f4 [32]
00000000: a6d5 7f3f d9f1 813f 0e65 813f e80b 803f
00000010: 04c3 803f 42c6 7e3f efa0 7b3f 3c97 7f3f
00000020: ced6 813f 82a8 803f 8648 7d3f a221 813f
00000030: 6978 7d3f 8721 823f 6951 813f 3c65 803f
00000040: a4ec 803f 4f69 7c3f a3f5 7f3f 5078 813f
00000050: b90b 7e3f a53f 7e3f 4cd1 7c3f af35 813f
00000060: 8327 7c3f e86b 7d3f 4590 803f 2baf 813f
00000070: 4a9a 7d3f 57f2 7c3f 041a 7d3f 4bd2 803f
0.99935377 1.0151931 1.0108964 1.0003633 1.0059514 0.9952127 0.9829244 0.9984014
1.0143678 1.0051425 0.98938787 1.0088389 0.99011856 1.0166482 1.010297 1.0030894
1.0072217 0.9859819 0.99984187 1.0114841 0.9923664 0.99315864 0.9875686 1.0094508
0.9849779 0.98992777 1.0044028 1.0131582 0.9906355 0.9880728 0.9886782 1.0064176

bias f4 [32]
00000000: 87ec b5bb 137c bd3b 6a44 d53b f8c0 40bc
00000010: 597a 513c d693 d2bb 9489 5ebc 00b6 a03b
00000020: dcba 343c 9a3e 703c 2450 37bc af89 9e3b
00000030: cd1f 3dbc c065 983c 95c1 0c3c c9ff fb3b
00000040: 78b7 943b f1cc 49bc 6c9c a5ba 5daa 3a3c
00000050: 2611 96bb 0c71 42ba 6a01 2bbc 7506 1b3c
00000060: 878a 62bc b2e6 d9bb e7d5 2cbb b74e 8f3c
00000070: f984 e2bb 08f7 fdbb e3a2 9bbb 9e49 823b
-0.005551878 0.005782613 0.0065083997 -0.011764757 0.012785518 -0.006426315 -0.013582606 0.0049045086
0.011030879 0.014663363 -0.011188541 0.0048381905 -0.011543226 0.018603206 0.008591075 0.007690404
0.0045384727 -0.012316928 -0.0012635118 0.011393157 -0.004579681 -0.0007417358 -0.010437349 0.009461989
-0.013826973 -0.0066498155 -0.0026372613 0.017493589 -0.006912824 -0.0077503957 -0.004749642 0.003976061

running_mean f4 [32]
00000000: 78a1 8f3e aaf5 4dbe e435 f63e c12a d53e
00000010: 5bfb 553e 9ea4 40be 9988 953e b10c 19bf
00000020: 41af cb3d 63bf dcbc 1bed 40be ead1 6bbe
00000030: 9b3f a53e 2f94 eb3d f78b c7be 9c46 3b3e
00000040: 45cc eabd 90fd 8d3d 78cd 14ba b8c9 0b3f
00000050: 1aeb 91be 19c4 50be 3b24 38be 9542 aebd
00000060: 9d80 78bd fbaa ce3c 47a9 9a3d 0627 3b3e
00000070: f74c 243e b964 493d 7b6c 41be 7b77 373e
0.28052878 -0.20113245 0.4808799 0.4163418 0.20896666 -0.18812796 0.29205778 -0.5978499
0.099455364 -0.026946729 -0.18840449 -0.23029295 0.3227509 0.11502873 -0.38973972 0.18288654
-0.114647426 0.06933129 -0.0005676369 0.54604673 -0.2849968 -0.20387305 -0.17982571 -0.08508793
-0.06066953 0.025228014 0.07551818 0.18276605 0.16044985 0.049168322 -0.18889038 0.17916672

running_var f4 [32]
00000000: 5cba 873e 917d ce3e 1cf2 823e 1340 e03e
00000010: 56fb ae3e e833 8d3e 1a77 703e b387 9f3e
00000020: 772b 8a3e 912d 873e ebed 0a3f dc86 d93e
00000030: a39b a23e 8bd8 ae3e 8ef5 fd3e 8466 6d3e
00000040: 33b3 963e 62f7 3d3e c1b1 523e 9dc1 113f
00000050: 5481 673e 9f3b 663e c6ef a63e 63c9 463e
00000060: fbef 493e 4936 b53e 6bfa 733e 5a28 b23e
00000070: 0f53 8c3e ffa5 4a3e 39d3 863e 1e9b 9d3e
0.26509368 0.40330175 0.2557534 0.43798885 0.3417613 0.27578664 0.23482934 0.31158218
0.26986286 0.26401952 0.54269284 0.42485702 0.31759366 0.34149584 0.49601406 0.23183638
0.29433593 0.185514 0.2057562 0.56936055 0.22607929 0.22483681 0.32604808 0.1941276
0.19720452 0.3539298 0.23825996 0.3479641 0.2740712 0.19789885 0.26333025 0.30782408

weight f4 [32, 32, 3, 3]
00000000: 366e 48bb e46c 15bd 8852 3bbd 50b3 153c
00000010: 6bb6 ae3c d34f 80bd 4fe3 8b3c ee6a 14bd
00000020: 9645 663d 9d25 22bd 9d59 9fbc 6f21 9ebc
00000030: 72d0 053c 6ea5 013d ba09 c23c b288 1ebc
00000040: 6bba 6fbd 107f 463d 2e93 4a3d 678b a73c
00000050: 2e61 ecbc a531 15bd d56d 263d 3390 45bb
00000060: b76c 373c 5406 20bd 3e1a 283c 0ab9 293d
00000070: b191 643d bd43 6a3c 0771 623d 6629 8e3d
00000080: 7d7f 3f3d cd02 59bc 1099 813d 945d 7e3a
00000090: d3d7 4abd bd63 94bc 272b b03c 4ca0 843c
000000a0: 3038 a03b 7203 8dbc 9cc0 15bd cda4 a43c
000000b0: 0df2 2d3a 2ff3 28bd bc6f c5bc ca68 8a3c
000000c0: 6ccd 6abc 9f80 5ebd 0e22 763b 59ca 773c
000000d0: e1fa 25bd 0085 33bd 123f 0cbb fdfa 143d
000000e0: 9111 013d 8e8c b0ba f5ad 2cbd 035c 84bc
000000f0: bc54 f1bc ab4e 2fbc 1b87 e83c 20b0 273d
00000100: 09d5 adbc 9482 0dbd 441d 8739 4120 2ebd
00000110: d221 03bd 30fb 01bb c18b a33c 7abb 97bc
00000120: f9f5 503d 5447 d7bc b25b 303d a0b2 0fbd
00000130: 6b7e 0cbc 1036 58bc 1dc8 7fbc 6ffc a6bb
00000140: 28d9 5f3d 1f03 39bd 3fad 19bd 44b8 8dba
00000150: 8765 023d 9731 fa3c 4400 81bd 6b27 353d
00000160: 1deb 383d 2ffc 863c 1c31 ba3c 6d23 583c
00000170: aa07 62bc 46d0 24bc 3f62 07bc 6d78 ffbc
00000180: 3585 173d 451c 83bd 5bb8 103c e4e0 74bd
00000190: 3793 3fbd d9ec 4c3d 11f4 ff3c f056 14bd
000001a0: e08c 953c c8db 11bd e8a6 ccbb 6912 ebbc
000001b0: 5cf2 b9ba c90c 88bc 3faf dfbc d795 603d
000001c0: 43a8 46bd 8405 d9bb 7a99 f2bc 0b9c 0eba
000001d0: beea 093d 42dd 5ebc 1533 1c3b ee19 62bd
000001e0: 1fec 303d c708 fabc 6531 6ebd 2bd0 1bba
000001f0: a141 15bd ca22 53bd c3f5 1e3b b815 00bd
00000200: 6a1c 063c 4f57 2b3d 56a9 133d f38e 303d
00000210: a7f5 42bd b16f 5a3c e5e5 1e3d ac9d 7bbd
00000220: 3a89 b6bc 6b74 fa3c 9b57 6d3c f5b4 9c3c
00000230: a209 e2bc 17c8 4e3d 1903 58bb a275 2abd
00000240: 97f0 08bd 3e8a a63b 06cf b4bc e13d e6bc
00000250: 8093 0fbd 0f8e 233d 1667 ab3c 2b88 233d
00000260: 3e45 7e3c 1682 373d d158 cf3c f776 7fbc
00000270: d2bd c53b 2169 4a3d 5dc7 e03b 186a ccbb
00000280: 1d48 653c 7797 2dbc 1da1 3a3d bb89 81bc
00000290: 21fc 33bd 36e3 633d cd15 a33c adb9 073d
000002a0: 5df2 013c 0bf6 a23c 0ab9 0f3c 7ac7 53bc
000002b0: c95f 37bd 3bb4 c1ba ed02 e3bc 90ba 67bc
000002c0: 43eb 9cbb ea0e 4cbd 31b8 243d ff5f 733b
000002d0: 7394 5bbd 1788 6dbd 286a f53c cc1b 55bd
000002e0: 2ee2 3ebd 20cc 833c 38aa 2d3d 3b27 34bd
000002f0: 8fc6 7ebc 8e4c 57bd d55c d83c 2962 5ebd
00000300: 8d26 9fbb 928b 0cbd cc22 aa3a cfc1 253d
00000310: b941 d53c 13d5 873c 213e 6dbc 8902 55bc
00000320: d4e1 263d d058 54bd 9b31 243d 1231 33bd
00000330: 0fe3 ce3c 516d 17bc c8ca 29bc e882 67bd
00000340: 105c 85bd 3c7c 60bd 4b00 4abc 9544 dc3c
00000350: 3005 263d 5661 1ebc be07 adbb a90f 783c
00000360: 51be 613c 0759 14bd 3135 a83c 2e65 1fbd
00000370: dbfd 383d fdb4 d93c 5747 353d 6224 57bd
00000380: 9161 76bd eb24 b1bc b72d 08bd 6595 8dbc
00000390: 6689 c9bc df2a 113c 38d8 3e3c 2c56 7ebc
000003a0: 4b36 34bd 57a6 243d 9c7a d6bb c8e5 a53c
000003b0: ca84 1fbb 80a4 febc 9943 ebbc 16dd 463d
000003c0: da2f 093c 3d69 debc 071f 4bbd 7823 79bd
000003d0: 1ad9 3dbd d829 e63b cac0 debc 58ca f03c
000003e0: 92f1 05bd 54a7 94bc 26bd 3b3c f7b7 453d
000003f0: 1cef 45bc 8622 15bd 5366 c73c 06e9 3e3d
-0.003058327 -0.0364808 -0.045733005 0.00913699 0.021327218 -0.06265225 0.017076163 -0.03623479
0.056218706 -0.039586652 -0.01945191 -0.019303052 0.008167373 0.031651907 0.023686279 -0.009676145
-0.05852739 0.04846102 0.049456768 0.020452214 -0.028854933 -0.036424298 0.040632088 -0.0030145764
0.011195353 -0.039068535 0.010260163 0.041436233 0.055803005 0.014298377 0.055283573 0.0694149
0.04675244 -0.013245297 0.063280225 0.0009703275 -0.049522232 -0.018113965 0.021504952 0.016189717
0.0048895106 -0.017213557 -0.03656064 0.020098114 0.00066354946 -0.041247543 -0.02410113 0.01689567
-0.014331203 -0.05432188 0.003755692 0.015123927 -0.04052246 -0.04382801 -0.0021399898 0.036372174
0.031510893 -0.0013469623 -0.042158086 -0.016157156 -0.02945935 -0.010699908 0.028384736 0.04093945
-0.021219747 -0.034548357 0.0002577101 -0.04251123 -0.032014675 -0.0019833557 0.0199641 -0.018522013
0.051015828 -0.02627913 0.043056197 -0.03508246 -0.008575062 -0.013196483 -0.015611676 -0.0050960104
0.054650456 -0.045168992 -0.037518736 -0.0010812362 0.031835105 0.030541224 -0.06298879 0.044227045
0.045146096 0.016477672 0.022728495 0.01319204 -0.013795773 -0.010059422 -0.00826317 -0.031185353
0.03699227 -0.06401876 0.008833016 -0.059784785 -0.046771254 0.050030563 0.03124431 -0.036215723
0.018255651 -0.03560999 -0.0062454827 -0.028695302 -0.0014186609 -0.016607659 -0.027305244 0.0548304
-0.04850031 -0.006622972 -0.029614199 -0.00054401223 0.033671133 -0.013602557 0.0023834158 -0.05520051
0.043193933 -0.030521763 -0.058152575 -0.00059438 -0.03643954 -0.05154685 0.0024255372 -0.031270713
0.008185485 0.04183131 0.036050163 0.043105077 -0.047597554 0.013332293 0.038793463 -0.061429664
-0.022282232 0.03057309 0.014486219 0.019129256 -0.027592484 0.05048379 -0.003296083 -0.04161609
-0.03343257 0.0050823977 -0.022071373 -0.028105678 -0.035052776 0.0399304 0.020923179 0.03992478
0.015519438 0.044801794 0.025310906 -0.015592328 0.0060345912 0.049416665 0.0068597035 -0.0062382333
0.013994244 -0.010595194 0.045563806 -0.015812745 -0.04394162 0.055636607 0.019907856 0.03313606
0.007931319 0.019892713 0.008772144 -0.012925977 -0.044769082 -0.0014778444 -0.027711356 -0.014143601
-0.0047887876 -0.04981891 0.04021472 0.0037136076 -0.05360837 -0.057991114 0.029957846 -0.052028462
-0.04660242 0.016088545 0.04239866 -0.043982726 -0.01555027 -0.052563243 0.026411453 -0.05429283
-0.0048568905 -0.034312792 0.0012980341 0.040468033 0.026032316 0.016581094 -0.014480145 -0.013001093
0.04074271 -0.05184251 0.04008637 -0.04374797 0.025254754 -0.009242372 -0.010363288 -0.056521326
-0.065117 -0.05480598 -0.012329171 0.026888171 0.04053229 -0.009666761 -0.005280464 0.015140452
0.013778285 -0.036217716 0.020533176 -0.03891485 0.04516397 0.02657556 0.044257488 -0.05252493
-0.06015164 -0.02162405 -0.033246722 -0.01728315 -0.02460165 0.008860319 0.01164823 -0.015523475
-0.04399709 0.040197697 -0.006545378 0.02025117 -0.0024340623 -0.0310843 -0.028718757 0.048550688
0.008373225 -0.02714979 -0.049590137 -0.06082484 -0.046349622 0.007024031 -0.027191538 0.02939336
-0.032701083 -0.018146195 0.011458671 0.048271146 -0.012080934 -0.036409877 0.024340784 0.046608947

weight f4 [32]
00000000: 9c48 813f b59b 813f 0048 823f 045f 7b3f
00000010: 60c8 813f 1517 7d3f ab2a 7f3f 9010 7e3f
00000020: 638c 7e3f 3c4d 7f3f 1abe 7d3f fde6 803f
00000030: 7723 813f aa94 803f 59e5 803f 8223 7d3f
00000040: 8e67 7d3f 2d82 803f 120a 7d3f 1ce5 803f
00000050: 152e 803f 40ce 7e3f 08c6 7d3f ebe9 7d3f
00000060: fc57 813f be78 803f c6d9 803f f83f 823f
00000070: 2973 803f 0c6a 803f 6df0 7e3f 336a 7d3f
1.0100284 1.0125643 1.0178223 0.9819186 1.0139275 0.98863345 0.9967448 0.9924402
0.99432963 0.99727225 0.99118197 1.0070492 1.0088948 1.0045369 1.0069991 0.98882306
0.98986137 1.0039726 0.9884349 1.0069919 1.0014063 0.9953346 0.99130297 0.99185055
1.0104976 1.0036848 1.0066459 1.0175772 1.0035144 1.0032363 0.9958561 0.9899017

bias f4 [32]
00000000: 7e03 b83b 1a9f 483c d811 2e3c 1cf8 9bbc
00000010: 6721 1f3c 9bba 01bc e026 603c 3b4a a7ba
00000020: db6a 2abb e5e1 e7bb 4b48 f1bb edb2 013b
00000030: 9581 963c c9ae 183c 11d3 71bb 6219 fabb
00000040: f0e9 e1bb 4259 883c c63e 0dbc a503 db3a
00000050: 95ec 323b 0aa9 063c f0bf e03b 6f07 21bc
00000060: 1e13 283c 27ae 843b 2e17 e13b e582 e13b
00000070: 5f7b ad3b 5c50 133b 5162 ee39 5cf5 b7bb
0.0056156507 0.012244964 0.0106243715 -0.019039206 0.009712554 -0.007918025 0.0136811435 -0.0012763211
-0.0026003632 -0.0070764893 -0.0073633543 0.0019790486 0.018372336 0.009319016 -0.0036899487 -0.0076324204
-0.0068943426 0.016644124 -0.008620923 0.001670946 0.0027301658 0.008219013 0.0068588182 -0.009828432
0.010258464 0.004049081 0.0068692183 0.006882059 0.005294248 0.0022478318 0.0004546815 -0.005613966

running_mean f4 [32]
00000000: a837 61be 53c5 8d3e de37 723e a4ba c53d
00000010: 67bc b8bd b526 eabd 02e2 7bbe 0d0c dc3d
00000020: 1189 24be d8f6 83bd 40f3 3cbe ced7 e6bb
00000030: 89b8 853d 1a20 40be 5eb5 ca3e 5563 a8bd
00000040: 07ca eabd 83f8 f3bd 207f b3bd a590 adbe
00000050: 2056 16bd 00fc 63bb 16b0 25be 9cdf c23d
00000060: 60d1 a1bd a18b 2ebe 590e 413e 6368 48bd
00000070: 2a93 5f3e 0570 11be 326a 033e a91d 34be
-0.21993887 0.2768961 0.23654124 0.096547395 -0.0902031 -0.11433164 -0.24597934 0.10744486
-0.16067912 -0.06443566 -0.18452168 -0.007044769 0.06529338 -0.18762246 0.39591497 -0.08222071
-0.11464315 -0.11912634 -0.087644815 -0.33899418 -0.03670323 -0.0034787655 -0.16180453 0.09515306
-0.07901263 -0.17045452 0.1885313 -0.048927676 0.21833482 -0.14202888 0.12833479 -0.1758944

running_var f4 [32]
00000000: 3fcc 5d3e b2b7 853e 3d5f e83e a5c4 e63e
00000010: ce40 f03e 61ec 813e 63ad a43e a486 8e3e
00000020: d80c dc3e 114d 133f 4f85 143f 8bc0 563e
00000030: df48 bc3e 39bc 8a3e 1ef6 7f3e 01c0 563e
00000040: bdf7 c43e 4aaf b73e de58 d13e c5b0 cc3e
00000050: fc2e a93e c973 823e e7db 7a3e d5a6 8e3e
00000060: 1a99 b63e 6645 073f 3022 9c3e 3f37 a93e
00000070: 4d6e e83e 996a d53e 625e fa3e 6e25 673e
0.21659945 0.2611671 0.4538516 0.45071903 0.46924442 0.25375655 0.32163534 0.27837098
0.4297855 0.5753947 0.5801591 0.20971887 0.36774346 0.27096727 0.2499623 0.20971681
0.3847026 0.35875922 0.40888113 0.39978614 0.3304366 0.25478962 0.24497949 0.27861658
0.35663682 0.5284027 0.30494833 0.33049962 0.45396653 0.4168289 0.48900133 0.22572872
